checkpoint/test/mnist/a2c/lr0.0007_max_steps29_seed1_window5_model.pt (torch_old, 815502 bytes, 13 tensors)

base.main.0.weight f4 [10, 2, 5, 5]
00000000: 2f11 ba3c 17cf 93be 1d5f fc3d 9108 9d3e
00000010: 95ed 47bd 9808 4bbc ae1d d9bc b1f4 003e
00000020: e906 193e b133 eabd d468 013c 3b07 a73e
00000030: b55e c5be 0d74 023d 145a de3d d6f4 953d
00000040: 1b51 9bbe 370e 613e 9738 b33d ee9c 0fbe
00000050: 19cf 103e 1fc4 973e c27d 8e3d e1dd 843e
00000060: a6ab 2b3e 7f08 3b3e 9ddf 34be deb4 843b
00000070: fdb2 883e 4f6c fdbd fdb4 b5be 16df 4e3e
00000080: d396 2dbe 7804 2fbd 8870 a03d f91e 853e
00000090: 19b1 0c3a 3eb0 0bbf 7cd2 193e abf1 9ebd
000000a0: 5629 86bc 1b67 303e bae4 19be 83b4 743e
000000b0: f386 023e fefa 53be 7269 eabd 1996 c93e
000000c0: a8f2 8d3d d8a8 cb3c e3a8 06be 077d 3abe
000000d0: a5bf fc3d 1e9c 11be 2658 833e 1b47 2b3e
000000e0: ac8b f03d f4d0 ec3d 76a7 efbd d0ba 983b
000000f0: e9d5 2abe de73 773d 56e1 273e 079e 2e3e
00000100: eb69 ecbd 5da6 3c3e 9b0b 44be 4649 c83d
00000110: cd23 3c3d d951 8b3d 9def 82bd 3ddf 583e
00000120: 657a 1a3e 6384 a2bd aea2 4bbe 9ac5 303e
00000130: 1107 9e3e 881b 30be 6e02 d1be 8d29 29be
00000140: cff0 67be e815 cc3e 7186 343e 269e 96be
00000150: 2d06 593e efbe b4bd 5b84 443d 3634 5f3e
00000160: 125c f63c 3390 b83a c1e2 88be bb89 b53d
00000170: ca3f 383c 95c8 0ebf b630 9b3e 558a b33d
00000180: 0a7a 83be e51d 9f3e 5ccb fbbc a070 9dbc
00000190: 4f65 2f3e 75b7 36be 9cc1 c9bd 5c35 e2bd
000001a0: bb14 0ebe cd0d b3be 1c69 95bd a964 64be
000001b0: 680b babd 7e74 28be 50bc 00be 4edb 913e
000001c0: 8c58 983e f5b7 36bd a979 b9be 0a57 13bd
000001d0: 00c0 0dbe a459 6bbe c3e0 20be 08d0 4dbe
000001e0: 703d 68be 9be3 9a3e 59ce 423c 28a6 003f
000001f0: babb fd3d 5b09 8e3e 034c aa3d 0b3d ad3e
00000200: 0060 96bd ecc5 023d 04e9 a33d 4891 713d
00000210: 199c 823e ddff 85be dab9 b33e 2811 373b
00000220: fd1d eb3c 0d6e d1bc a4b9 993d 5bbf db3d
00000230: 5cd5 5f3e 1ab0 a5be d1d8 0f3e 2ab2 003e
00000240: 7484 c4bb 6567 e03d 15ee 8fbc ec02 7abe
00000250: eb62 453e c41e 113e b83c 6b3d f644 9f3e
00000260: 1855 ba3d 2a5a ce3d 11cb 48be 64fa ec3e
00000270: bfcb b7bd 00a0 843e b482 083d 7415 a53e
00000280: 567d 473e 7742 ac3d e63e 21bd 744b 6e3e
00000290: 710e 153e 7797 1fbd 6bed 5cbe ba1e 053e
000002a0: cdfb 93be a1ee 2f3e 84f9 dbbc b992 bfbd
000002b0: 5c07 443e ac7b de3e 4c40 98ba 46a8 9a3d
000002c0: 43ba 8bba 3e98 6c3e f81d 263d c117 36bd
000002d0: 5e4c 203e 5378 cc3d 3348 5e3c d7e0 413d
000002e0: 1ec0 b23e 4fc0 ad3d 4101 29be 2362 2abd
000002f0: abb1 7abe 5518 eebd 982a 053e 6b33 563e
00000300: 64f5 2cbe ef60 4bbe 8aa6 6b3e 12c7 fcbc
00000310: 9984 b73d 8f56 0cbf 5e56 94be 6fb0 7fbc
00000320: 5ae8 863d 9c27 663e 44fe a3bd b82e 8a3e
00000330: 639f b83e db63 0c3d a8ce 8c3e d35b 18bd
00000340: 20f9 e0bd a067 18bd 5b45 b4be 8649 45be
00000350: de7e b33d 89db 133d c27d 3bbe 80ac 3f3e
00000360: 7697 36be 4440 513e c24a 00bd 99fd b73e
00000370: cf30 353d 6489 adbd 1466 ae3d 4ba5 413e
00000380: fa1d b6bd 090f 5cbe a893 6a3e 288b 87bd
00000390: 8484 b43e a02b ea3d fe5e 1abd e812 15be
000003a0: 7625 f6be c679 45be 0aad 22bc 64c1 26bd
000003b0: 37a6 54be 56ef 5dbe 2bc7 71bd 4aa5 3a3c
000003c0: 96a6 00be 0eb6 6fbe d80e 3b3e 64b4 e73d
000003d0: 4890 dc3d fce8 963e 771f 8cbe d4ad 32be
000003e0: d676 b23e 7dfb 663e 7f48 873e 6a3a 4b3c
000003f0: b139 c9bd 8282 193e 5562 403e 73ed 90be
0.022713272 -0.28868935 0.12322829 0.30670598 -0.04881056 -0.012392186 -0.02650341 0.12593342
0.14944042 -0.114356406 0.007898528 0.32622704 -0.38548818 0.031848956 0.10857025 0.073220894
-0.30335316 0.21978079 0.08751028 -0.14024708 0.14141501 0.29641816 0.0695758 0.2595053
0.16764697 0.1826496 -0.17663427 0.0040498814 0.26699057 -0.12374174 -0.35489646 0.20202288
-0.16952066 -0.04272887 0.07833964 0.26000193 0.0005366966 -0.545658 0.150217 -0.07760938
-0.016377132 0.17226832 -0.15028659 0.23896985 0.12746792 -0.20701215 -0.11445893 0.39372328
0.06931049 0.024860784 -0.13150363 -0.18211757 0.12341241 -0.1421971 0.2565319 0.16726343
0.1174539 0.11563292 -0.117018625 0.0046609417 -0.16683163 0.060413234 0.16394553 0.1705247
-0.1154364 0.18422838 -0.19145052 0.09779601 0.04593258 0.068027206 -0.06393359 0.21178909
0.15085752 -0.07935407 -0.19886276 0.17262879 0.30864766 -0.17198002 -0.40822166 -0.16519757
-0.22650455 0.39860463 0.1762941 -0.29417533 0.21193762 -0.0882548 0.047977787 0.2179726
0.0300732 0.0014081061 -0.267355 0.088641606 0.011245677 -0.55774814 0.303106 0.08766619
-0.25679046 0.31077495 -0.030736618 -0.019218743 0.1712849 -0.17843421 -0.09851381 -0.11045334
-0.13875096 -0.34971467 -0.07295439 -0.22304024 -0.09084207 -0.16450688 -0.12571836 0.2848763
0.29755056 -0.04460903 -0.36225632 -0.03597168 -0.13842773 -0.22983414 -0.1571074 -0.20098889
-0.22679687 0.30251774 0.011890017 0.50253534 0.123893216 0.27741513 0.08315279 0.33835635
-0.07342529 0.031927034 0.080034286 0.05897644 0.25509718 -0.2617177 0.3510273 0.002793381
0.028700823 -0.025565172 0.07506111 0.107298575 0.21858734 -0.32360917 0.14047553 0.12567964
-0.005997235 0.10957221 -0.017569581 -0.24415177 0.19276015 0.14171892 0.057430953 0.311073
0.090982616 0.10075791 -0.19608714 0.46284783 -0.08974408 0.2590332 0.033327773 0.3224293
0.19481406 0.08411115 -0.039366625 0.2327097 0.1455629 -0.038962808 -0.21574943 0.13000003
-0.28903046 0.17180873 -0.026852377 -0.09354157 0.19143432 0.4345373 -0.0011615842 0.07551627
-0.0010660369 0.23104951 0.040555924 -0.044456247 0.15654132 0.099838875 0.013567018 0.047333565
0.349122 0.084839456 -0.16504385 -0.041597497 -0.24481837 -0.11625735 0.1300453 0.20918052
-0.16890484 -0.19861196 0.23012748 -0.030856643 0.08960838 -0.5481958 -0.28972143 -0.01560603
0.06587286 0.22476047 -0.08007482 0.2698877 0.36059102 0.034274917 0.27501416 -0.037196945
-0.10985017 -0.0372082 -0.35209164 -0.19266328 0.08764432 0.036098037 -0.18309692 0.18718147
-0.17831215 0.20434672 -0.031321295 0.35935667 0.044236 -0.08473471 0.085155636 0.1891071
-0.08892436 -0.2149011 0.22907889 -0.06618339 0.3525735 0.11434102 -0.037688248 -0.14557993
-0.48075455 -0.19284734 -0.009928951 -0.040711775 -0.20766531 -0.2167333 -0.059027832 0.011391947
-0.12563547 -0.23409292 0.18267381 0.11313704 0.10769707 0.29474628 -0.27367756 -0.17449123
0.3485629 0.22556873 0.26422498 0.012404064 -0.09825457 0.14991191 0.1878751 -0.2830616

base.main.0.bias f4 [10]
00000000: 5ca6 1ebb 2648 bfbc 65e4 293a 67dc f1ba
00000010: 6a79 5ebb 0ce0 883a 09df d1bc 39a3 6bbc
00000020: 316c 0abd e7eb 9cbc
-0.0024208045 -0.023349833 0.0006480872 -0.0018452526 -0.003394688 0.0010442748 -0.025619047 -0.014382177
-0.033794586 -0.019155456

base.main.2.weight f4 [20, 10, 5, 5]
00000000: b51f 5b3d a337 013e 4e68 86bc e41e a4bc
00000010: d0d6 1ebe 7e75 783d f157 8c3d d165 9fbd
00000020: 9487 883d 0d28 ef3d 1494 043e ddea f73c
00000030: 11cb 30bc 4583 28be 8c5c f5bc 0e1e 4dbd
00000040: d27f 79bd 354d b4bd f2ad fabc 60cd 1cbd
00000050: 2a38 28be 908c f5bd 5eed 1abd 9e64 203c
00000060: 08fb 083e f88e 0fbe be7d f13d 83ce 8bbd
00000070: 10b0 ae3c db37 843d 6535 2dbd b6e8 b2bd
00000080: 60c9 083e dcb2 c3bd 3da6 a7bd 9c19 43bd
00000090: d568 e23d be54 a9bd d903 ca3a 1cbc 11be
000000a0: f9b6 593c 3318 83bd f7d4 753d 313d 9bbd
000000b0: 293f bebd dc55 88bc 3d2e 3a3e b670 ae3d
000000c0: 24ef 29bd b6c9 df3d d595 dfbd 35b8 483d
000000d0: e505 29bd ce0b cfbd 9264 34be 285c af3d
000000e0: 7a34 7dbd b78c db3d dbd1 e4bd b5a5 b1bd
000000f0: b335 14bc c9a9 343d 4591 56be bddc dc3c
00000100: c1b1 84bd 40fb b13d fd16 723b 7ac8 a0bd
00000110: eb5b 053d b529 f03b 99c3 ff3b e1e1 043e
00000120: 13f9 cbbd db70 c43b e425 6d3e a0e0 483d
00000130: b397 4cbe 4c93 a4bd b313 833d 5fd4 203d
00000140: 5f68 043e f84f 96bc 7a10 ad3d 0fde 853a
00000150: 9be1 cc3d f27c 46bd 50d6 2e3e e966 6a3d
00000160: 63b3 233e 2c22 9f3d 8e48 ebbd 29a2 123d
00000170: 8caf 223c a3a3 ee3d bb0d 96bd 8050 1a3c
00000180: bbe6 d7bc b79a 513d 3caf 7a3d 0992 043e
00000190: 60f6 4c3d 8db7 163e 5ceb f8bc e1de 0e3e
000001a0: d5a2 01be 1d90 43be 8822 13be 8b76 38be
000001b0: b557 86bd 1068 9c3d 296d d5bc 8771 553d
000001c0: 423f ddbd d4de 6b3d 2cf5 50bd df9c 0f3d
000001d0: c544 c13d 0f70 97bd 2bc4 b73c 7474 55be
000001e0: 7c84 c7bd 207c 36bc 8a5a 60bd ab2e c3bd
000001f0: 07ab 263d 6e8f 913a 6ab7 a7bc 6596 1abb
00000200: 6ed9 47bb fcfd cb3d a8dd 703c 6ff2 70bd
00000210: 2a76 7b3b 19f9 d9bd 2d6e 173d cf53 21be
00000220: 3e27 943d e706 543d bd75 2c3d cdb3 52bc
00000230: a7c8 7bbd 74ca 873d 581f 193c 2fca 403b
00000240: 3cba 63be 6374 6d3d 6c65 02bd 5027 cd3c
00000250: d330 ef3c d614 d9bc b39f a4bd 6b64 6a3d
00000260: 41d0 55bd da71 c4bc 014a c3bd 14a5 f4bd
00000270: bb9b 27bd bbc9 463d 42f0 fabd c8b8 02bd
00000280: aac2 15bd 8cdb cdbd 52c5 723d a438 30bc
00000290: c8a6 c23b c69d 8a3d 5739 a9bd 9506 9d3d
000002a0: 4d5c e23a 9962 803d 48a1 053d ef50 5fbd
000002b0: b121 983c 20c2 d8bd a460 9ebb 3903 ea3d
000002c0: 756f 483c 8572 1e3e 7fe6 ec3c c6ae 81bd
000002d0: 8e2e 99bd dba3 2cbd 0510 c33d 56c1 2b3d
000002e0: fc23 3fbe a4b7 a43d 2951 b2bb ede3 91bc
000002f0: ff5e 8b3a 2bff 14bd ab0c 333d 9a7a 05bd
00000300: 6726 fc3c 9e96 1b3e 88a0 febc 54ce bfbd
00000310: cf13 a1bb 3228 89bd 34cb 0e3d 19a2 643d
00000320: f25e 883c 596c babd 55a5 603e 0362 a9bd
00000330: f248 fabd 0ca8 c7bc 6edf de3d 0772 313e
00000340: 414c 103d 103d 523d 8866 c5bc ab5d 123c
00000350: 1281 313d de80 36bc a047 3ebd 7be9 083e
00000360: 31b7 c7bd b7b5 05bc 76f4 2fbd 2db3 e2bb
00000370: 26fc 8d3e d976 bbbc 3978 b9bc a799 2c3d
00000380: 1f9c 12ba 54b4 b63c 6d61 1ebe 276f 00be
00000390: e7ae 873d aa95 443d 07cc 23be dc57 e8bd
000003a0: 8cb5 5e3e e49d 08be 2be1 183c 31ff a4bd
000003b0: b261 d4bd a9c1 09bd 7ef3 1b3d 7f4b 13bc
000003c0: 0c4c b53d c58b fabc 9847 773c 436b 1b3e
000003d0: 81c3 363d 3cbf 88bd 27d5 cebd 5036 103e
000003e0: 5a87 a4bd 3e38 083e ddd8 1abe d461 bebc
000003f0: 4761 9abd faa9 d7bc 543a 383d 66cd 8ebc
0.053497035 0.1261888 -0.016407158 -0.020034261 -0.15511632 0.060658924 0.06852711 -0.07783092
0.066664845 0.11677561 0.12947112 0.030263359 -0.010790602 -0.16456325 -0.029951356 -0.05007749
-0.060912915 -0.088037886 -0.030600522 -0.0382818 -0.16427675 -0.11989701 -0.037824027 0.009789614
0.13377011 -0.14019382 0.117915615 -0.06826498 0.021324188 0.06455966 -0.04228725 -0.08735792
0.13358068 -0.09555599 -0.08186004 -0.047631845 0.110551514 -0.082681164 0.0015412524 -0.14231914
0.013288253 -0.064011 0.060017552 -0.07580031 -0.092893906 -0.016642503 0.18181701 0.08517592
-0.041487828 0.10927145 -0.1091725 0.0490038 -0.041265387 -0.101096734 -0.1761649 0.08562499
-0.061817624 0.107201986 -0.11172839 -0.08674184 -0.009046006 0.044107232 -0.20953853 0.026960725
-0.06479216 0.086905 0.0036939972 -0.07850738 0.032558363 0.0073291906 0.0078052995 0.12976791
-0.099596165 0.0059948987 0.23158985 0.049042344 -0.19979744 -0.08035907 0.06400242 0.039265033
0.1293044 -0.018348679 0.08450408 0.0010213273 0.10003968 -0.048459 0.17073941 0.05722705
0.159864 0.0777019 -0.11488448 0.03579918 0.009929549 0.11652305 -0.07326838 0.009418607
-0.026355138 0.05117294 0.061202273 0.12946333 0.05003965 0.14718457 -0.030385666 0.13952209
-0.12659772 -0.19097944 -0.14368641 -0.1801397 -0.065596975 0.07637036 -0.026053028 0.05211022
-0.10803081 0.057585552 -0.051015064 0.035061713 0.09436945 -0.0739442 0.022432407 -0.20845205
-0.09742066 -0.011137992 -0.054773845 -0.095303856 0.040690448 0.0011105367 -0.0204732 -0.0023588177
-0.0030494588 0.09960553 0.0147012845 -0.058824953 0.0038369992 -0.10643215 0.036970306 -0.15754627
0.07234047 0.051764395 0.04210447 -0.012860251 -0.061470654 0.06630412 0.009345852 0.0029417386
-0.22239012 0.057972323 -0.031835005 0.02504316 0.029198086 -0.026499193 -0.08038273 0.057224672
-0.05220056 -0.02398007 -0.095355995 -0.11945549 -0.04092 0.04853223 -0.12252857 -0.031914502
-0.0365626 -0.10051641 0.05927021 -0.010755692 0.005940292 0.06768374 -0.0826289 0.07667271
0.0017269939 0.06268806 0.032624513 -0.054520544 0.018570753 -0.105839014 -0.004833298 0.11426396
0.012233605 0.15473373 0.028918503 -0.063321635 -0.07479583 -0.042148452 0.0952454 0.041932426
-0.1866607 0.08042839 -0.005441804 -0.017808879 0.001063317 -0.03637616 0.043713253 -0.032587625
0.03078003 0.15194175 -0.031082407 -0.09365526 -0.0049156914 -0.0669712 0.03486176 0.05581865
0.016646836 -0.09102697 0.21938069 -0.082706474 -0.122209445 -0.024372123 0.108824596 0.17328654
0.03522897 0.051327765 -0.024096742 0.008933465 0.04333598 -0.011139123 -0.046455026 0.13370316
-0.09751738 -0.008161 -0.042957745 -0.006918332 0.27731436 -0.02288382 -0.022640334 0.04213872
-0.0005592722 0.022302784 -0.15466852 -0.12542401 0.06625157 0.047994293 -0.15995799 -0.11344883
0.21748942 -0.1334148 0.009331028 -0.080564864 -0.103701964 -0.033631954 0.03807401 -0.008990168
0.088523954 -0.030584225 0.015092753 0.15177636 0.04462004 -0.066771 -0.10099249 0.14083219
-0.08033629 0.13302705 -0.1512179 -0.023240007 -0.075380854 -0.026326168 0.0449775 -0.017431926

base.main.2.bias f4 [20]
00000000: 6075 bfba a87c ffbb 646a 4fbc 39ad 1f3c
00000010: 240f 2ebc 8e06 83bc bc47 02bb 0b13 8bbc
00000020: 9167 3cbc a4d2 92bc df5f b6bc 78dd 6dbc
00000030: e5b6 c3bc 52a7 8bbc 6619 23bc f87d 13bc
00000040: f0b3 a93b 840c 4e3a 4a4b 68ba 5fcd c53a
-0.0014607124 -0.0077968426 -0.012659643 0.009745889 -0.010623727 -0.015994336 -0.0019879183 -0.016976854
-0.0114993015 -0.017922707 -0.022262512 -0.014518134 -0.023890922 -0.017047558 -0.009954786 -0.009002201
0.005178921 0.00078601413 -0.00088613166 0.0015091113

base.main.4.weight f4 [10, 20, 5, 5]
00000000: be19 25bc 816f 233d 0525 cb3d 55f1 02be
00000010: ebe8 f53c c740 003e 74b2 eebd bce0 a2bd
00000020: 0302 f63b f701 4dbe 2414 e8bb 9cdf f9ba
00000030: 41af ee3d fa6d a0bc 8e56 debc 36e2 fc3c
00000040: 6ce2 64bd 8e2d 2c3b 00ae 84bc 12a4 eb3d
00000050: c055 a6bb dc25 ad3b 9d61 f8bd 32a9 323c
00000060: 1471 273d 607d 2fbd d2f2 0e3d 5b6b d33c
00000070: 5250 d7bd 86ee 3b3c 688b adbd 8851 abbc
00000080: 7545 863c fd46 f63b 1936 b0bd dfe8 ac3d
00000090: 5056 ac3c 7120 ba3d a2e0 eb3d 6e98 2ebd
000000a0: e215 41bd 2586 963d be20 973d 6800 c03d
000000b0: ff9a a23d 3e02 9ebb abe3 ba3c 0d30 45bd
000000c0: 365c 9b3c d099 723d ac66 b5bc c283 a93d
000000d0: aefa edbd b8da 523d f664 16bd ffca 183d
000000e0: 78b6 b33d 5a7e b73d b337 c9bd 7886 12bd
000000f0: b0ac a3bd 9e53 e73c a227 803d 8ecc a6bd
00000100: bc19 9dbc e598 bfbc f239 273d 6c91 46bb
00000110: d19f 053d c175 bdbc f6fa bd3d 36f3 463d
00000120: 9466 e1ba 32e6 b5bd 68b7 e4bc 507e 433d
00000130: c5de d0bd 6b7e d8bd 2057 8a3d 77b0 1d3e
00000140: ab6a 6fbd 84f4 a23d 870a f83c 375f a0bd
00000150: fbe8 3cbd 6627 d43d f984 ea3c 3b35 023d
00000160: 114d 293c 7081 7238 9d93 10bc f5f9 313c
00000170: 2c72 603c d0e6 babd 21cf ef3d f8e6 d6bd
00000180: 8b80 2cbe 1328 99bd d5a9 f1bc 08b3 01bd
00000190: 863f 083c f668 513b 6388 36bc b6ff 883c
000001a0: f18d 92bd 7422 423d 4e99 763b d21f 9d3d
000001b0: f947 0d3e 7e80 93bc a03c 4939 52ed be3c
000001c0: 6e39 22bb 1daf 0d3d 1119 b5bd 656b 52bd
000001d0: c06b 923a 9e24 043b 14a4 053d 5980 5ebb
000001e0: a07d 573b 4d46 12bd 2789 3bbd 900b 5d3c
000001f0: 2646 3a3d f0ae 953b 81b0 adbd e173 d7bc
00000200: 2b51 063d eb8b 30bd 9c4b 293c d21b c63c
00000210: a674 ba3c f14a 5fbd e82b c9bc fe4f 27bd
00000220: 0f7e 02be 088f 4bbc 185e 9d3d 3712 c2bd
00000230: 4fba c2bd 9b4b 103e c2a4 b43d 2e79 b73c
00000240: d177 203d d0d0 6a3d 9d9d 42bd 401d 74bc
00000250: c7a9 5cbc 3235 5c3b 7be8 b8bd 7aff a63c
00000260: 1405 b1bb 310e 59bd 798c a2bd a973 583d
00000270: 1c99 75bd 5942 11be cbc4 6fbd 02b6 20bd
00000280: ad9d e6bc 1b65 aebd 0857 1c3d ea81 9ebc
00000290: bc2a 84bb 4886 afbd b05f 41ba 7af1 393d
000002a0: 7611 78bd 90a5 563d 199e 253d 82bb 5bbd
000002b0: dc45 c9bb e833 23bd f4e9 9f3c 62f9 ec3d
000002c0: 26f4 d83d f592 edbb 8ab0 dbbd 48af 963d
000002d0: adeb 4fbd 85dc 913c d5eb 283d e4e1 52bc
000002e0: f62b 5a3d b245 883d c87e 26bd 6247 553b
000002f0: cef1 3e3d 97fa 573c c087 88bd a125 fdbc
00000300: c75f 973c c343 36bd f4c3 9f3c 4ee5 57bd
00000310: d2f7 00bd 858a 4fbd 26a1 9ebd 0056 d23c
00000320: 3f27 0dbb 08e2 0b3c 2467 2b3d 2de7 f13c
00000330: 7224 cbbb 12e1 d83b b87c 603c 4ec0 d9bd
00000340: a3e7 d93d 8a5f 8b3d 17eb b7bd 22a4 bbbc
00000350: 42d9 753c b219 153b 95b3 a2bd c403 5ebc
00000360: 0be2 323d 823c c0bc f45f 07be c630 db3a
00000370: 6bb0 8ebd 423a 763d 17c9 22bd e0bb a2bd
00000380: dfc7 58bc b497 f5bc 4e5d 80bd 52cb 8f3d
00000390: bf6e 7e3d c3cf 823d 6ec7 143d 0da2 16bb
000003a0: 6ae7 cc3d 0fde 033d c272 cbbc f1d1 d8bd
000003b0: 3421 72bd 627c 963d 2ebe 9d3c 760a 8abd
000003c0: a056 3ebd 613e b8bc 033e 033d 7fba dcbd
000003d0: 4616 0fbc 78a7 7dbd de1b 5ebd bb0f 94bd
000003e0: c194 8fbd df33 5abd e39f e23d acd5 0d3d
000003f0: d40a c03d 4afb 22be 3324 85bd ef88 a2bc
-0.010076938 0.03990126 0.0991917 -0.12787373 0.03001829 0.1252471 -0.11655131 -0.07953021
0.007507564 -0.20020281 -0.007082479 -0.0019063833 0.11654521 -0.01958369 -0.027140882 0.030869585
-0.055879995 0.002627227 -0.01619625 0.11505903 -0.00507614 0.005284054 -0.12127993 0.010904597
0.040879324 -0.042844176 0.03489954 0.025808027 -0.10513367 0.011470443 -0.08473855 -0.0209129
0.016390542 0.0075157867 -0.08604068 0.08442854 0.02103725 0.09088219 0.11517455 -0.042625837
-0.04714001 0.07349805 0.07379292 0.093750775 0.079397194 -0.0048220446 0.022813639 -0.048141528
0.018964868 0.05922872 -0.022143684 0.08277084 -0.11620079 0.051478118 -0.036717378 0.037302967
0.087750375 0.089596465 -0.09825077 -0.03577277 -0.07991922 0.028238114 0.06257559 -0.081444845
-0.01917731 -0.023388335 0.040826745 -0.003029908 0.032623116 -0.023127439 0.092763826 0.048571788
-0.0017196708 -0.08881797 -0.027919486 0.047727883 -0.1019874 -0.10570987 0.06754899 0.15399347
-0.058451336 0.07956794 0.030278457 -0.07830661 -0.046120625 0.10359077 0.02862786 0.031789046
0.0103333155 5.7817844e-05 -0.008824256 0.010862817 0.013699096 -0.09126055 0.117094286 -0.104932725
-0.1684591 -0.07478347 -0.029499928 -0.031664878 0.008315926 0.003195343 -0.011140916 0.016723495
-0.071559794 0.04739614 0.0037627998 0.07672085 0.13796987 -0.018005606 0.00019191438 0.023306523
-0.002475347 0.03459083 -0.08842672 -0.05137195 0.0011171028 0.0020163427 0.03262718 -0.0033951013
0.0032881275 -0.035711575 -0.045785096 0.013491526 0.045477055 0.0045679733 -0.08480931 -0.026300373
0.03279225 -0.043102186 0.010332968 0.024183188 0.0227607 -0.05451483 -0.024557069 -0.04084777
-0.127434 -0.012424238 0.076839626 -0.094761305 -0.09508192 0.14091341 0.088204876 0.02239665
0.039176766 0.057328045 -0.047513593 -0.014899552 -0.013468212 0.0033601043 -0.09028717 0.020385493
-0.0054022167 -0.05299205 -0.07936949 0.052844677 -0.05996047 -0.14185466 -0.058537286 -0.039236076
-0.028151358 -0.08515378 0.038168937 -0.019349057 -0.0040334146 -0.08570534 -0.0007376624 0.045396306
-0.060563527 0.052403986 0.040433977 -0.05364562 -0.006142361 -0.039844424 0.019520737 0.115710035
0.105934426 -0.0072501847 -0.107270315 0.07357651 -0.050761867 0.017805347 0.041240532 -0.012871239
0.05326458 0.06653918 -0.04064825 0.0032543768 0.04661732 0.013182304 -0.06666517 -0.030901732
0.018478287 -0.044498216 0.019502617 -0.052708916 -0.03148634 -0.050669212 -0.077455804 0.025675774
-0.0021538285 0.008537777 0.04184641 0.029529179 -0.006199413 0.0066186273 0.01370161 -0.10632382
0.10639884 0.06805332 -0.08980387 -0.022905413 0.015005412 0.0022750911 -0.07944409 -0.0135507025
0.043672603 -0.023466352 -0.13220197 0.001672291 -0.06967243 0.060114153 -0.039742555 -0.079459906
-0.013231247 -0.029979564 -0.062677965 0.07021202 0.062117334 0.06387284 0.036323003 -0.0022984773
0.10005076 0.032194193 -0.024834994 -0.10586918 -0.059113696 0.07347943 0.019255724 -0.067402765
-0.04646933 -0.022490682 0.03204156 -0.10777759 -0.008733338 -0.06192729 -0.054225795 -0.07229563
-0.070107944 -0.053272124 0.11065652 0.0346276 0.09377065 -0.15916172 -0.06501045 -0.019840686

base.main.4.bias f4 [10]
00000000: 1118 81bc 2038 c7bb 1725 35bc 4a40 5dbc
00000010: 7508 9c3c 0504 1ebc db26 d03b dae2 e53a
00000020: efdd 65bc aa05 3f3c
-0.015758546 -0.0060796887 -0.011056206 -0.013504097 0.019047001 -0.009644513 0.006352288 0.001753892
-0.014029964 0.011659065

base.main.7.weight f4 [512, 360]
00000000: b5fb 9c3c f393 6d3c 0945 a3bb 9f18 49bd
00000010: 15c5 27be 2336 623d d859 303d 11d1 3d3c
00000020: b4b8 db3d 53fb fc3c db12 e03b 5e04 ae3d
00000030: ddfd 54bb b662 25bc 4879 b23d d0d5 22ba
00000040: 0da5 9c3b 7573 2e3d fc7c 86bd 0262 a5bd
00000050: 6e42 a8bd 1b27 903d 661f ac3c deed 893d
00000060: 757b 933d af67 f3bc bd2e aabc 515b 81bd
00000070: 7118 3c3d 9998 15be 12be bfbd b446 15bc
00000080: 1b32 473d dd70 7c3c 08ba f7bc fcf4 303e
00000090: 0b8e d4bc 930c 0b3b 7807 b63c 5bd0 c0bc
000000a0: e60a 95bb 14e0 8cbc 59c1 953d b51c f8ba
000000b0: 9ff9 04be a7b1 013e 943a 6e3d a418 bbbc
000000c0: a179 7bbc e2e9 663d 0989 f93d 838b 143c
000000d0: 646c 5ebd ee6f d43c 8617 8abc bf82 283c
000000e0: 6c8a 92bd 8196 fc3d 2c93 253d 0a87 7b3c
000000f0: 8e22 5b3d ee5c bb3d 3e38 74bd ebf3 ccbb
00000100: 065d 703d 2255 213c 6ea6 82bd bcae b6bc
00000110: e320 f3bd bd5f 84bc 220e bbba 28e0 473d
00000120: d9c0 bc3c bd71 853c 5b39 9b3b cf26 08be
00000130: a0f8 58bd ea8c 04bd 5a57 64bd 5429 3b3d
00000140: cc50 5f3d 1222 7bbd da3a ecba df33 dfbc
00000150: f35f 36bd f42b eebc 52f6 5abc d818 0d3c
00000160: 1586 a6bd 53c1 e73c a5e8 e9bc c45d 143e
00000170: eb52 ac3c c260 323d e8f6 a23d 1a14 8ebc
00000180: 0d54 9dbd 0054 7cbd f782 ab3d 98ea 3c3d
00000190: 0d8f aebd 5c90 a6bd 4c92 fabb 861e 84bd
000001a0: e81a 00bc 3247 2b3d ccca 2a3c d07a c43d
000001b0: beba 0f3d b2ee 8ebd 5f52 a53c 6508 333c
000001c0: b9db 063d e394 83bc 7bd0 4b3d ef8b 9d3d
000001d0: 4cd5 9e3c af72 f53b d5b7 69bd 147e 8d3c
000001e0: a7c1 f2bd 07da f43c 9f31 a8bc 1435 b3bd
000001f0: 7661 98bd a2c8 133d 7f91 c23d e82a d63c
00000200: de91 6c3d cb8c 573d 984e 62bd fbfe 8d3c
00000210: ed26 18be 230c 0c3d 5f86 d53c a611 a43c
00000220: 7e71 753c ce3e 5d3d 6f48 d0bd ac01 8b3c
00000230: ebdf 0b3d e75b 0abd b427 99bd d1f2 81bd
00000240: db6d cfbc 60b5 e5bc ddab 45bd fd84 7cbd
00000250: 9600 85bc 90c1 b43d 2e8e 1f3e f3be d13c
00000260: 1275 1b3d a2d9 eebd fb74 86bd 48c2 48bd
00000270: cf84 08bd fba4 973c 4c6e b7bd 8279 4cbd
00000280: 2481 48be f447 9bbd b831 7bba 4bf5 c93c
00000290: 12d7 39bc a0f4 b7bb b74d a43d 9e20 3bbd
000002a0: a4a3 1f3d d758 193c f3ee e5bd ea43 b2bb
000002b0: 66ec 7c3d 808d 673c 0284 293c 6ae0 97bd
000002c0: 9130 33bc c5e9 d53b f67a 3e3e b5bf 50bc
000002d0: c0f7 5abd 62dc ef3c 662b 593c 8fa8 40bd
000002e0: 7a23 703d 4161 0d3d 165d 06bd ccda cb3d
000002f0: e0f7 923d 4a83 59bd a076 9bbc 245a d63d
00000300: 3a0f 81bd 5576 38bd e9ac 8bbd 209c 2bbd
00000310: 0f8d e53c 837b cabd 0e57 85bd 4353 cd3d
00000320: f2ef 96bb 4792 96bd c3af bc3c 1667 c33b
00000330: e537 4cbb bff9 91bd 2639 953c ce77 8f3a
00000340: 668f 9f3c 1720 cdbc 3cac eb3d 84b6 103d
00000350: 0428 f9bd 86b2 b93d a5b2 adbd 9f5a 203c
00000360: 7d2c 17bd b37e 4bbd 683e 75bb a72e 92bc
00000370: 17ea d23d 781e a7bd 7676 fc3c 4274 87bc
00000380: cd4b 95bc 95bd 1c3d 63c1 63bd d4b0 ff3c
00000390: 9f81 b43d 63b6 debc 1f0a 09be e0a8 9aba
000003a0: 2231 f4bc 3559 8abd 4e4d a23d 14dd 26bc
000003b0: 5542 c5bd 374a c83d a3bc 9f3d 81c1 aabd
000003c0: 3c17 113d 24fd b3bd d3cf 66bd bb4a 0dbd
000003d0: aaf1 5d3d 51f3 66bd 8e73 00bd 4cdb 49bd
000003e0: 2945 9ebc fc55 d2bd 2ad6 6dbd 6e12 5cbb
000003f0: 930a 8e3d 66f9 7a3d bece 2cbe 6368 943d
0.019162992 0.014500606 -0.004982595 -0.049095746 -0.16383775 0.05522741 0.04305443 0.01158549
0.10728589 0.03088156 0.0068381852 0.08496927 -0.0032499947 -0.010094335 0.08714539 -0.000621167
0.004780418 0.042590577 -0.06566808 -0.08075334 -0.082157955 0.07038709 0.021011066 0.06734823
0.07201282 -0.029712526 -0.02077424 -0.06316245 0.045921747 -0.14608993 -0.09362425 -0.009111095
0.04863177 0.015407768 -0.030240074 0.17280954 -0.025946638 0.0021217212 0.022220358 -0.023536852
-0.0045484183 -0.017196693 0.07312269 -0.0018929454 -0.12985848 0.12665425 0.058161333 -0.022838898
-0.015348823 0.05637539 0.121843405 0.009066465 -0.054302588 0.025932278 -0.01685692 0.010285079
-0.07155308 0.12333394 0.040423557 0.01535202 0.05349975 0.09148584 -0.05962395 -0.006254663
0.058682464 0.009846957 -0.063794 -0.022300117 -0.11871507 -0.016158933 -0.001427118 0.048797756
0.023041176 0.016289586 0.004737062 -0.13296054 -0.052971482 -0.03236095 -0.055747367 0.04569371
0.054520413 -0.06131179 -0.001802291 -0.027246414 -0.044525098 -0.029073693 -0.013364391 0.00861188
-0.08131043 0.028290426 -0.028553316 0.14488894 0.021035632 0.043549307 0.0795725 -0.01734357
-0.07682047 -0.061603546 0.08374589 0.046122164 -0.085233785 -0.08133003 -0.0076468345 -0.064511344
-0.007818915 0.041815944 0.010424327 0.09593737 0.0350902 -0.06979121 0.02018088 0.010927294
0.032924388 -0.016062206 0.04975937 0.07692706 0.019388817 0.007490478 -0.05706008 0.017272033
-0.118533425 0.02988912 -0.020531474 -0.08750358 -0.07440464 0.03608001 0.095004074 0.026143506
0.057756297 0.052624505 -0.055250734 0.017333498 -0.14858599 0.034191262 0.02606505 0.020027947
0.014980672 0.054014973 -0.101700656 0.01696857 0.03414909 -0.03377905 -0.07478276 -0.06345142
-0.025320938 -0.028040588 -0.048259605 -0.061650265 -0.016235631 0.088259816 0.15581581 0.025603747
0.037953444 -0.11662604 -0.06565281 -0.049013406 -0.03332978 0.018511286 -0.08956584 -0.049920566
-0.19580513 -0.07582083 -0.0009582299 0.024653098 -0.011342781 -0.0056138784 0.080226354 -0.045685403
0.03897442 0.00935956 -0.112272166 -0.005440225 0.061748885 0.014132857 0.0103464145 -0.074158505
-0.010936872 0.0065281116 0.18601593 -0.012741019 -0.05345893 0.029279891 0.013254976 -0.04703575
0.058627583 0.034516577 -0.032803617 0.099538416 0.07176185 -0.053103723 -0.018977463 0.10466412
-0.06301732 -0.045034725 -0.06820089 -0.04189694 0.028021364 -0.09886839 -0.06510745 0.100256465
-0.0046062404 -0.07352119 0.023033028 0.0059632165 -0.0031161245 -0.071277134 0.018215727 0.0010945739
0.019477557 -0.025039716 0.115074605 0.03533031 -0.121658355 0.09067254 -0.08481339 0.009787231
-0.03690766 -0.049681377 -0.003742123 -0.017844511 0.10298555 -0.08160108 0.030818205 -0.016534928
-0.018224621 0.038266737 -0.05560435 0.031212248 0.08813786 -0.027186578 -0.13382767 -0.0011799596
-0.029808585 -0.06755296 0.07924901 -0.010184545 -0.096317925 0.0977978 0.077996515 -0.08337689
0.03542255 -0.08788517 -0.05635054 -0.034495097 0.054185547 -0.05638439 -0.0313602 -0.049281403
-0.019320088 -0.102703065 -0.05806557 -0.003358032 0.069356106 0.061273 -0.16875741 0.07246473

base.main.7.bias f4 [512]
00000000: 10c5 8fbb ba4f 623b 4722 c5bb 1a72 9e3c
00000010: 77ea 76bb 7d10 babb 3dfd 01bc 0000 0000
00000020: 39b5 b13b f0a8 d3bb 0000 0000 74ad a5bb
00000030: 7698 9dbb fb28 8bbb f2e1 e5bb 52a7 1bbc
00000040: 00a6 aa39 da77 25bb 3100 1e3c 011b eabb
00000050: 665f bb3b c6a8 f03c 2304 0bbc 0000 0000
00000060: 0000 0000 198e 80bb 6e67 513a f624 933c
00000070: ab47 9f3c dd96 fcbb 0000 0000 ac04 febb
00000080: a14f d7bb 4ee7 afbb b4f2 99ba 0000 0000
00000090: c054 c9b9 121e 763b 9e62 ecbb 3050 b8bb
000000a0: 7b9c 593a abe9 6f3a 6c2c f33c 0000 0000
000000b0: 57a4 18bc 31d1 87bb 921a 9c3c 731b d03c
000000c0: 78e1 273a 3e24 a53c 53f0 eaba dd99 af3b
000000d0: 0000 0000 40de b33a 14fa f03c 0e84 18bb
000000e0: 60fc c13b 4656 f63a 81a9 3fbb 2083 d33b
000000f0: 14ef cfbb 99da d7bb 68c4 64ba 7461 113d
00000100: 3686 ccbb 4947 043d d322 dbbb 0000 0000
00000110: ccce d4bb 185b d4bb ae98 ba3b cac0 c6bb
00000120: eeb8 ccbb ceba ab3c 9795 f53c 0000 0000
00000130: 6021 9a3c 4a36 dfbb ea88 203d 29f6 e0bb
00000140: 6514 f33c 67f6 d9bb 9683 6bba 6236 273b
00000150: 5150 64bb d8f0 8a3a 0000 0000 68df 363b
00000160: 8695 c4bb 9cdc d0bb fff5 48bc eefe 273b
00000170: 0000 0000 0000 0000 8166 abbb d253 2bbc
00000180: 0000 0000 457c 03bc 0000 0000 41af 5abc
00000190: c429 d23c 0000 0000 50c6 b83a e8f0 c1bb
000001a0: 5332 ddbb 0000 0000 93a4 15bc 86fe 2dbc
000001b0: bac2 d83c d000 8d3c 6071 043d ab5e 0d3d
000001c0: 8409 493b 0000 0000 d34f d4bb c646 d4bb
000001d0: 8832 cbbb 997f 7cbb 55bf a73c 9892 d1bb
000001e0: 7d99 6bbb 452c 043d e42b dabb 6af9 e83c
000001f0: 2a1e 9c3b 1f1c 4e3c 0000 0000 4491 7339
00000200: 10c2 003d e79b e13c 6406 773c 8074 e23c
00000210: 9ae5 18bc 50dc d2bb 0ee7 f3bb e4a7 7b3c
00000220: 0000 0000 feeb d03c d262 00bc 030d 0abc
00000230: b6f1 2dbc e40b d0bb b421 d0bb 2240 0abb
00000240: 5d11 353b 200e 80bb c555 ab3c 0c5b 073d
00000250: 609b 9eb8 c4a6 be3a ffa9 78bb 0000 0000
00000260: 36c0 7f3c 71d0 c1bb 85ce d1bb 30cf 10bc
00000270: 6119 fc3c 0000 0000 0000 0000 735e 5dbc
00000280: 0df8 dcbb f6b4 e43c 2622 73bb 5192 e2bb
00000290: 21ac 01bc 44d8 bbba 0000 0000 0000 0000
000002a0: 1ca5 deba 2458 3bbc 0000 0000 2d1f d0bb
000002b0: 0000 0000 0000 0000 0000 0000 bd00 8a3c
000002c0: 0000 0000 42cb 32bb 8ecd a6bb 0000 0000
000002d0: 36c6 623b 1f3b 44bc b42e 553c 866a a23b
000002e0: 1b2b 0bbc acda 813b 0000 0000 0000 0000
000002f0: 6ccd c33b a61d d43c 0000 0000 ef10 763c
00000300: f4fb 78ba 66f3 e53c feac 0fbc 4213 52bc
00000310: 24d3 e93a fe66 9c3a 0000 0000 8f73 c33c
00000320: 64fa 48ba 9fb7 dcbb 5d49 dabb d3f0 0c3d
00000330: 0000 0000 3ffa 163d 58bc e639 105c abb9
00000340: be89 78bb b177 003d 3601 ad3c 18ef d2ba
00000350: 0000 0000 0000 0000 cbb6 d7bb 0ed0 d13c
00000360: f44c d2bb 0000 0000 1363 d4bb 4d27 89bb
00000370: 0000 0000 0000 0000 0000 0000 1e97 d8bb
00000380: cb52 d0bb 153f d5bb b31a d13c 45e7 f43c
00000390: 1932 bbbb 164d 6f3c f434 0abc 70cd 43bc
000003a0: 0000 0000 103a 5bbb 513d 803c 635f 08bb
000003b0: ad0d bfbb 5be0 f5bb 4e0c 90bb 696f d6bb
000003c0: 2a84 91bb 0000 0000 72b4 3ebb 0000 0000
000003d0: 8ee8 cebb a42b c2bb 4b9f 863c 108b 81bb
000003e0: 1bce bcbb c026 1a3a b4d1 b2bb 9ef2 ddbb
000003f0: 0000 0000 0000 0000 e58f 5d3c 0000 0000
-0.0043875054 0.0034532384 -0.006016049 0.019341517 -0.0037676373 -0.005678235 -0.007933912 0.0
0.0054232148 -0.006459348 0.0 -0.0050560776 -0.0048094345 -0.0042468286 -0.00701546 -0.0095003415
0.00032548606 -0.002524844 0.0096436 -0.0071443324 0.0057181595 0.029377352 -0.008484873 0.0
0.0 -0.0039231894 0.00079881295 0.01796196 0.019443354 -0.007708414 0.0 -0.007752022
-0.006570772 -0.00536815 -0.0011745305 0.0 -0.0003840085 0.0037554544 -0.0072139045 -0.0056247935
0.00083012105 0.00091519457 0.029684268 0.0 -0.009316525 -0.0041448106 0.019055638 0.025403714
0.0006404142 0.020158883 -0.0017924405 0.005358918 0.0 0.0013722852 0.029416122 -0.002327207
0.005919978 0.0018794022 -0.002924532 0.0064548403 -0.006345639 -0.006587338 -0.00087267766 0.03549333
-0.006241585 0.032294545 -0.006687501 0.0 -0.0064943787 -0.006480586 0.0056944704 -0.0060654627
-0.0062476313 0.020963099 0.029978557 0.0 0.018814743 -0.0068118917 0.03919307 -0.006865282
0.02967281 -0.006651688 -0.00089841464 0.0025514592 -0.0034837911 0.0010600341 0.0 0.0027904157
-0.00599927 -0.006373955 -0.012265681 0.0025634128 0.0 0.0 -0.0052307253 -0.010456996
0.0 -0.008025234 0.0 -0.013347448 0.025654681 0.0 0.0014097188 -0.005918611
-0.006750384 0.0 -0.009133476 -0.010619765 0.02646004 0.017212301 0.032334685 0.03451411
0.0030675838 0.0 -0.0064792424 -0.0064781634 -0.006201092 -0.0038528203 0.020476976 -0.006395649
-0.003594964 0.03226878 -0.006658064 0.028439242 0.004764338 0.012579947 0.0 0.00023228402
0.031435072 0.02754016 0.015077207 0.027643442 -0.009332085 -0.0064349547 -0.0074433153 0.015359852
0.0 0.025503155 -0.007836061 -0.008425954 -0.01061671 -0.0063490737 -0.006351674 -0.0021095355
0.0027628758 -0.003907934 0.020914922 0.033045813 -7.562968e-05 0.001454555 -0.0037943122 0.0
0.0156097915 -0.0059147407 -0.006402793 -0.00883846 0.03077382 0.0 0.0 -0.013511288
-0.006743437 0.02791832 -0.0037099211 -0.006914415 -0.007914574 -0.001433142 0.0 0.0
-0.0016986462 -0.011434589 0.0 -0.0063513727 0.0 0.0 0.0 0.016846055
0.0 -0.0027281796 -0.005090422 0.0 0.0034603006 -0.011976986 0.013011623 0.0049565462
-0.008494164 0.0039628353 0.0 0.0 0.005975416 0.025893044 0.0 0.015018686
-0.0009497993 0.028070163 -0.008769272 -0.012821974 0.0017839414 0.001193255 0.0 0.023858814
-0.00076667056 -0.0067357565 -0.0066615776 0.034409355 0.0 0.036859747 0.00044009346 -0.00032684254
-0.0037923898 0.031364147 0.021118741 -0.0016092984 0.0 0.0 -0.00658307 0.025611904
-0.006417865 0.0 -0.006481537 -0.004185593 0.0 0.0 0.0 -0.0066098114
-0.006357526 -0.006507764 0.025525426 0.029895434 -0.005712759 0.014605781 -0.008435477 -0.011950836
0.0 -0.0033451356 0.015654238 -0.0020808808 -0.0058304877 -0.007503552 -0.004395998 -0.006544043
-0.004440804 0.0 -0.0029099253 0.0 -0.006314344 -0.0059256125 0.016433379 -0.003953345
-0.0057618744 0.0005880408 -0.0054571275 -0.006773307 0.0 0.0 0.013523077 0.0

base.critic_linear.weight f4 [1, 512]
00000000: 4517 483c a4d5 74bc 8940 583c 8860 663d
00000010: 504e 46bb ff55 373d af23 f53c e590 e53c
00000020: 35e8 09bd 2913 083d 37f8 e13c d609 6fbc
00000030: cd91 02be 6e50 48bd dc1a d1bc 2079 febc
00000040: 293c 9dbd ffa8 57bd 07b4 1f3b 6d1e 22bd
00000050: 0e26 473d 6cd2 29ba 7bf1 8e3d 2b5a 02bb
00000060: 2290 c23c 9499 e0ba 603d a4b9 e6ec 1bbb
00000070: 120a 463d 573e 943c e8f1 c63c f44a c2ba
00000080: b7b9 323d 80b8 06b8 73a9 9fbd 6284 14bc
00000090: 7620 bebb 2844 1e3d 9610 713d 202e ce3b
000000a0: 8a51 09bc 2e56 4bbc 4aa6 1c3d 8c22 143d
000000b0: 5a47 3ebd 5e59 83bb be28 053d e77f 913c
000000c0: 289b d8bc 095f 193d d2dd 31bb f257 fabb
000000d0: 3061 afbc 0827 28be d2e8 03ba 44c4 b8bb
000000e0: d4b7 30bd 9900 f5bb 94b3 66bc 1940 793c
000000f0: 17a8 2f3d 96c9 643d d884 abbb b2b7 f93a
00000100: 045d a43c 9fd3 5d3c c101 823d 3149 213d
00000110: e756 0f3c 6a02 173d ab88 07bd 5078 6d3b
00000120: c1a3 0ebd 78af 073d 0214 ba3b 630d 6ebd
00000130: 7546 62bb f3e0 e53d 0cb2 a93b 6ed9 a8bd
00000140: fa38 e63b 1e6d 663d a0b7 63bc e14d d7bc
00000150: 836f ca3c 3633 debb e287 0c3d 3f67 44bd
00000160: ba6c 503c 9269 9abc 231e 013d bba6 59bd
00000170: 7f60 4cbd 4319 d83c b39d 3dbc b32c 42bd
00000180: 0c72 a0bc 8229 183d 851d 87bc 2c98 84bc
00000190: 72b6 0e3d 77c5 9dbd df06 3cbd 1715 343d
000001a0: ba6a a73d 5703 333c e456 15bd a917 b1bc
000001b0: c94c 0eba a9de 973b efbc 983a bbac a53a
000001c0: 2d0a 14bd 9630 a43c da8e 093d ec1f 0c3d
000001d0: 74a3 933c e7ab 9dbc 1662 a33c b5a7 e33c
000001e0: c402 18bd 725d ca3c 5d88 64bd 9ad1 a63c
000001f0: dcd7 1bbd 11ab 903b 2b9f ecbc dee8 39bc
00000200: b414 a539 4019 13b8 ee24 813a 896a 1b3d
00000210: 1073 44bd 6c4b eb3d f6b2 993c a026 923d
00000220: 78b6 a4bc 20c2 053c 2884 ccbc 144a 813d
00000230: c848 5dbd c6a2 c73c 5355 13bc 4ca8 98ba
00000240: 7244 9bbc ca8b 41ba 493e 253d dce4 d03d
00000250: 8964 a9bc 5bea 0bbd 505b 4b3b 6274 703d
00000260: 4d1a 86bb fe2b f63c 93d8 463d 4de1 aabc
00000270: bbd4 173d 5071 123d 15f5 25bd 45d6 debc
00000280: c035 a43d 9608 3e3d 3f25 91bc 12b5 b33a
00000290: 5dda 88bc 10c8 be3b 625c 0d3d ad87 593d
000002a0: f925 99bc 555f 203d a5f5 0e3d b4e4 d33c
000002b0: 94ff 173c 257e e93c 8ec7 7bb9 5f0f 013d
000002c0: 1b1d e2bb 6eb1 57bd adfe 18bc 8610 0f3c
000002d0: f780 d9bc 64e4 cebc bc20 84ba 865a 9fbb
000002e0: b2d0 0abd d45f 2dbc 5854 1e3c f781 d33d
000002f0: 4c90 973c 3dad 8e3d b620 3fbd 3608 03bb
00000300: 117a 5fbc 72db 243c 8665 25bd fa44 523d
00000310: ad67 50bd 224a 1fbc 1380 c4bc 5571 1b3d
00000320: 3fb0 2c3d f30e 9e3d fd72 edbc f35d 003b
00000330: db4a 173c 523a ba3b 3bec ac3c e273 3ebc
00000340: 872c 20bd b031 963c 425e a13c 7f16 6abc
00000350: 4ea8 f1bb 96e7 c6bd 3d2c 383d b659 85b9
00000360: a8da c63d 4610 443d 1d6a 2d3d fed5 333b
00000370: 1672 62bd 2e5c d73c 52f1 2bbd a727 69bd
00000380: 4015 d23c 166d 143d 488b 813c 83c3 073c
00000390: 7dd9 ff3b 1b15 e73c 3742 5b3d 6c2e 65bd
000003a0: 0b1c c6bc 842e 033b 8049 353c 323a 1bbd
000003b0: 9b59 dcbd 23fb ad3c b1bb 82bd 3cc7 133d
000003c0: 9306 a73b 349d d53b 186e 23bd ce9f 87bc
000003d0: ab13 99bc 3064 f0bc c4a9 903d bc3d a5bc
000003e0: 0b79 78bd c988 a9bd 208a 06bd 3c1b 99bd
000003f0: 45c2 c13c 6719 073d e709 80bb 6490 a1bc
0.012212579 -0.014943514 0.01319898 0.056244403 -0.003025908 0.044759747 0.029924242 0.028023193
-0.033668716 0.033221398 0.027584178 -0.014589747 -0.12750931 -0.04890483 -0.025525503 -0.031063616
-0.0767749 -0.0526514 0.002436878 -0.039579798 0.048620276 -0.00064781937 0.069796525 -0.001989017
0.023750369 -0.0017135614 -0.00031326246 -0.0023792326 0.048349448 0.018096132 0.024285272 -0.0014823363
0.043634143 -3.211992e-05 -0.07795992 -0.009064766 -0.0058022095 0.038639218 0.05885371 0.0062921196
-0.008381257 -0.012410684 0.038244523 0.03616576 -0.046454765 -0.004008456 0.032509558 0.017761184
-0.026441172 0.03744415 -0.0027140272 -0.0076398784 -0.021408647 -0.16421139 -0.00050319463 -0.005638631
-0.043144062 -0.007476878 -0.014080901 0.015213036 0.042884912 0.05585631 -0.005234342 0.0019051938
0.020063885 0.013539224 0.06347991 0.03937644 0.0087487465 0.036867537 -0.03308932 0.0036235042
-0.034824137 0.033126324 0.0056786546 -0.058118235 -0.003452686 0.11224546 0.0051786955 -0.082445964
0.007025835 0.056256406 -0.01389876 -0.026282253 0.024711376 -0.006781007 0.034309275 -0.047950026
0.012721235 -0.018849168 0.03152288 -0.053137522 -0.049896713 0.026379233 -0.011573243 -0.04740591
-0.019585632 0.03714896 -0.016493568 -0.016185842 0.034841962 -0.07703679 -0.04590499 0.043965425
0.08174653 0.010926089 -0.03645982 -0.021617727 -0.0005428312 0.0046346975 0.0011652986 0.0012639979
-0.036142517 0.020042699 0.0335835 0.03421013 0.018022276 -0.019247008 0.019944232 0.02778993
-0.037112013 0.024702761 -0.05579411 0.020363618 -0.038047656 0.004414924 -0.028884491 -0.011347024
0.00031486677 -3.5071047e-05 0.0009852925 0.037943397 -0.047961295 0.11488995 0.018762093 0.071362734
-0.02010654 0.008163959 -0.02496536 0.063129574 -0.054024488 0.024369609 -0.008992511 -0.0011646836
-0.018953536 -0.0007383196 0.040342603 0.101999015 -0.020677822 -0.034159046 0.0031029768 0.05870474
-0.0040924908 0.030050274 0.048546385 -0.020859385 0.03706811 0.035752594 -0.04051693 -0.027201781
0.080180645 0.046394907 -0.017717956 0.0013710579 -0.016705686 0.005822189 0.03451193 0.053107906
-0.018694865 0.039153416 0.034902234 0.02586589 0.009277243 0.028502533 -0.00024011565 0.0315088
-0.0069004423 -0.052659445 -0.009338063 0.008731967 -0.026550753 -0.02525539 -0.0010080556 -0.004863086
-0.033890434 -0.010581929 0.009663664 0.10327523 0.018501423 0.06966636 -0.046662055 -0.0019993908
-0.013639943 0.010062085 -0.040380023 0.051335312 -0.050880123 -0.0097222645 -0.023986852 0.03794988
0.04216027 0.07717695 -0.028985495 0.0019587248 0.0092341555 0.005683222 0.021108737 -0.011624308
-0.039104965 0.01833424 0.019698266 -0.01428759 -0.0073748 -0.0971214 0.044964064 -0.00025434577
0.09709674 0.047867082 0.042337526 0.0027440782 -0.055284582 0.026289072 -0.041978188 -0.05692258
0.025644898 0.036236845 0.015813485 0.00828636 0.007807909 0.028208306 0.053529944 -0.055952474
-0.024183294 0.002001674 0.011064887 -0.037897296 -0.107592784 0.021237915 -0.063834555 0.036078677
0.0050972193 0.006518984 -0.039899915 -0.016555693 -0.018686136 -0.029344648 0.0706363 -0.020171039
-0.06066231 -0.08278043 -0.03284657 -0.07475898 0.023652205 0.03298321 -0.0039074305 -0.019722171

dist.linear.weight f4 [4, 512]
00000000: ec35 a7bb d50e 02bb 9af7 de3b 7301 af3b
00000010: 8da9 d13b 6975 553c 1817 2bba fcd2 d139
00000020: 424d 0a3a e008 ea3b cade 3939 4471 30bc
00000030: 3c27 2b3c 4010 503b 364f 92bb 1ee1 c13b
00000040: 6ef6 fdbb 8ac5 123c ebf0 e9bb bc39 c43a
00000050: 8739 4dbc a09d f7b8 d040 803b 8f02 47b9
00000060: 4bee ab38 311f febb f57d 153b fc86 903b
00000070: f4ba 343b b00e 173a d422 b6b8 30a4 1bba
00000080: 22ac bc3b d949 bf3b 4745 aebb 6c79 62b9
00000090: 61e8 663b c295 2fbb 58a4 3fbb bae7 e13b
000000a0: 3852 cb3b 73d5 943b 503e 0fbb b4a0 aa39
000000b0: 8117 7e3b 1101 c2bb 20b7 a53b 726e e83b
000000c0: 8e76 0e3b 7f2c 913b 75a9 b9bb 92fa a83b
000000d0: cab1 823a 1cae 1f3b 7695 903b 0709 e43b
000000e0: 3888 b93b 48df 10bb fe46 053c 2643 303c
000000f0: ec7f d13b 5808 e23b 989f a9bb 2431 513b
00000100: 1026 d13b b4b4 063b 88fd d73b 1bb3 8637
00000110: e900 b43b 1ed0 be3b 9976 2b3b d3ad 073c
00000120: 23fa 3d3c 7b8f 8dbb 7d93 133c 25b5 59b9
00000130: 846b e53b 4e7a d63b 3197 ab3b 9799 d3bb
00000140: 80e2 ba3b b07e d53b 51fe 393a f04c 4f3b
00000150: e2b8 a33b 29b7 8b3b b73b 393a 14db c33b
00000160: 94d9 d53b 7a2f 723b 5e93 4b3b 16d9 193b
00000170: 4118 34b8 048b 2739 0ee7 0dbc c31d 3f3c
00000180: 5fa0 8639 c7fe e63b 6cdc 8b39 7ffa dd3b
00000190: 0c1d e3bb 170e 9d39 55c5 cd3a b868 e83b
000001a0: 1b47 d53b 47fb 98b9 b24d 593c 3c1a e53b
000001b0: 2670 ac3a 3dec 1bba a542 093b a095 593b
000001c0: a3f7 cf3b ef64 77b6 f95b f43b 239b d13b
000001d0: f8aa c63b e4c8 fd3b 8853 a83b ef08 b23b
000001e0: 4130 263c 3e02 ebba a952 3c3c ef3a 4e3a
000001f0: 9009 e23b 0030 16bb ab8a bb39 3ac4 e1b9
00000200: fa61 243b da18 013b bfac 67bc 52b2 e7ba
00000210: ba83 923b 6758 b2bb 0a06 8d3b 93ec 6a3c
00000220: 1cef ed39 afa2 323a ef09 f83a 295f c13b
00000230: fa8b ad3b 5b50 0cba 409d 56b9 b15e 8abb
00000240: 3aaf 9c3b c745 a3bb f224 233c f965 963b
00000250: 2ea0 dbbb 5393 db3b eef1 9b3b 551d 4539
00000260: 6062 b03b 0bf0 c03b 8c1b d43b aaad 423b
00000270: e230 56bb 00a5 88b9 2e06 ed39 d962 b63b
00000280: e65c de3b 1eaa 4a3b 419b 5dbb 688a 9ab9
00000290: 049e 983a 6f29 6aba 7586 6b39 d947 733a
000002a0: 2d11 a9bc 1a7d b13b d716 0eba a6ba c73b
000002b0: df68 1b39 1870 1aba 7bf6 3fba ce5c b3bb
000002c0: 17f5 a3b9 eca0 0a3c 6687 93bc 9561 79ba
000002d0: 2caa e83b 323b 1c3c bec4 13bc 8e72 c13b
000002e0: d0f7 693b 35ee 68ba 0539 28ba ad81 b1b9
000002f0: 766e 4e3c b4df 253c 7758 0fba fcda 9fba
00000300: 512e 333b a93a bb3b 01e7 84bc fdde ae3b
00000310: 8032 0b3a 5406 6e39 21e6 39b9 fd24 543c
00000320: 16bb 22bc ae27 ec3b 23a9 b93b 4fcf b43b
00000330: eba7 e1b9 2069 17bc 5e79 0a3c eb5e eebb
00000340: 84ac 173c 205e 0c3c db10 013c ab39 b93b
00000350: 4621 1239 2d17 9a3a 080f e73b aa5c 373b
00000360: c863 cd3a a42a 4e3a a46c cd3b a68f ae3b
00000370: 3f60 8f39 170d 633a eb26 1c3a 3376 4abc
00000380: 01a4 d23b a6c7 d63b d9d2 203c da83 f23b
00000390: 02e1 cf3b 94ff 873b 70ba 873a 84f0 0dbb
000003a0: ebf5 81b9 427f c73b 480a 633b 4e55 ef3b
000003b0: 12c4 e9bb 4592 983b 98bc 003c 9a10 f63b
000003c0: 4843 b93b 8273 9639 b699 003c 175b 6e38
000003d0: 3bab 123a e009 d4bb 7bb8 d63b b138 6b3b
000003e0: d378 a7bc b49a e3bb 2f5c 1a3c 5f16 29bc
000003f0: b7a5 56ba 7c9b 9f39 983a a13b f0e7 eb39
-0.0051028635 -0.0019845266 0.0068044188 0.005340749 0.006398386 0.013028481 -0.00065265736 0.00040020782
0.00052757945 0.0071421713 0.0001772597 -0.010769192 0.010446366 0.0031747967 -0.004465009 0.0059167286
-0.007750324 0.00895823 -0.0071393154 0.001497082 -0.012525923 -0.00011807238 0.0039139763 -0.00018979072
8.198301e-05 -0.007755183 0.0022810672 0.0044106226 0.0027577253 0.00057623815 -8.6849235e-05 -0.00059372466
0.0057578245 0.0058376607 -0.005318317 -0.00021598273 0.0035233723 -0.0026792143 -0.0029242244 0.006894079
0.0062048696 0.0045420467 -0.002185721 0.0003254466 0.0038771334 -0.0059205373 0.0050572306 0.007093244
0.0021738145 0.004430353 -0.005665953 0.0051568234 0.0009971198 0.0024365252 0.0044123484 0.006959084
0.0056619905 -0.0022105742 0.008134602 0.010758197 0.0063934233 0.0068979673 -0.0051764958 0.003192016
0.006382711 0.0020554485 0.0065915026 1.6057447e-05 0.0054932726 0.0058231493 0.002616322 0.008281189
0.011595282 -0.0043200827 0.009007332 -0.00020762214 0.0070013423 0.0065453416 0.0052365293 -0.0064575183
0.0057032704 0.0065153465 0.0007095086 0.0031631552 0.004996405 0.0042637778 0.0007066088 0.005977044
0.0065261815 0.0036954568 0.003106318 0.002347534 -4.2937932e-05 0.00015978148 -0.008661045 0.011664811
0.00025677957 0.007049415 0.00026676373 0.006774246 -0.006930953 0.0002995587 0.0015699068 0.0070925616
0.0065087206 -0.00029178915 0.013263153 0.006991653 0.0013155981 -0.0005947983 0.0020944264 0.0033200756
0.0063466593 -3.686462e-06 0.007457253 0.0063966676 0.0060628615 0.0077448953 0.005136911 0.005433194
0.010143341 -0.0017929745 0.011494317 0.0007867058 0.0068981126 -0.0022916794 0.00035770735 -0.00043061544
0.0025082813 0.001969865 -0.014140307 -0.0017677045 0.0044712694 -0.0054426673 0.0043036984 0.01433863
0.00045382313 0.0006814403 0.0018923859 0.0059012366 0.0052962275 -0.000535255 -0.0002046721 -0.004222714
0.004781631 -0.0049826833 0.009957539 0.004589793 -0.0067024445 0.006700912 0.004759065 0.00018798311
0.005382821 0.0058879904 0.0064730104 0.0029705563 -0.0032682945 -0.00026062876 0.00045208767 0.005565983
0.0067859767 0.0030924152 -0.0033814462 -0.0002947629 0.0011643772 -0.00089325657 0.00022461436 0.00092804205
-0.020638073 0.0054165246 -0.00054202735 0.0060952483 0.0001482102 -0.0005891337 -0.00073228 -0.0054737097
-0.0003127239 0.008461218 -0.018008899 -0.0009513137 0.007100364 0.009535598 -0.009019075 0.0059035486
0.0035700686 -0.0008885593 -0.0006417188 -0.00033856687 0.012599578 0.010124136 -0.00054681994 -0.0012196
0.002734084 0.00571378 -0.016223432 0.005336641 0.0005309954 0.00022699806 -0.00017728705 0.012948272
-0.0099323 0.0072068786 0.0056659146 0.005517877 -0.00043040453 -0.009241372 0.008451788 -0.0072744987
0.0092574395 0.008567363 0.007877554 0.0056526265 0.0001393604 0.0011756174 0.0070513524 0.0027978816
0.0015669996 0.00078646303 0.0062690545 0.005327183 0.00027346794 0.00086613133 0.0005956727 -0.012357282
0.006428242 0.0065545617 0.009815895 0.007400972 0.0063439617 0.0041503403 0.0010355245 -0.002165825
-0.0002478802 0.0060881684 0.003464358 0.0073038703 -0.007133969 0.0046561086 0.007857464 0.0075093033
0.0056537725 0.0002869629 0.007849148 5.6828456e-05 0.00055949733 -0.0064709038 0.0065527535 0.0035891945
-0.020443356 -0.0069459323 0.009421392 -0.010320275 -0.00081881456 0.00030442688 0.004920315 0.000449955

dist.linear.bias f4 [4]
00000000: 6649 4c3c 2875 123b 5a81 3ebb c867 8fbb
0.012468671 0.0022347663 -0.0029068799 -0.0043763854
