experiment2/checkpoint/test/cifar10/a2c/lr0.0007_max_steps29_seed1_window5_cifar_model1.pt (torch_old, 500171 bytes, 13 tensors)

base.main.0.weight f4 [6, 4, 5, 5]
0	0xbe3b9adf	-0.18320797
1	0x3e466a1f	0.1937642
2	0xbd073fbe	-0.033019774
3	0xbcc99c49	-0.024610655
4	0x3e249edc	0.16076225
5	0xbd97fae8	-0.074209034
6	0xbde58410	-0.112068295
7	0xbd9bb812	-0.07603468
8	0xbe18e9ce	-0.1493294
9	0xbe9a74bf	-0.30167195
10	0xbdae55e3	-0.08512475
11	0xbe5be76b	-0.21474998
12	0xbd729465	-0.05922355
13	0xbde04895	-0.10951344
14	0xbd5b4eaf	-0.053541835
15	0x3e321fe3	0.17394976
16	0x3e57c99e	0.21073005
17	0xbda8662c	-0.08222613
18	0xbe83c5cf	-0.25736853
19	0xbda76213	-0.08173003
20	0xbd34f11b	-0.04417525
21	0xbe620bd8	-0.2207483
22	0xbe130e2c	-0.14360875
23	0xbe226406	-0.15858468
24	0xbe33556e	-0.17513058
25	0x3e2c129d	0.16803975
26	0xbcb36152	-0.021896992
27	0x3ec7753a	0.38956624
28	0x3e0bd49a	0.1365532
29	0x3e29b8d8	0.16574419
30	0x3c1b5497	0.009480617
31	0x3e9ca1dc	0.3059224
32	0x3d06044e	0.03271895
33	0x3dc55bc6	0.09636645
34	0x3e174135	0.14770968
35	0xbd6cc1d8	-0.05780205
36	0x3e239156	0.1597341
37	0xbe0159d9	-0.1263193
38	0x3e66d2e9	0.22541393
39	0x3ad0f1bc	0.0015941183
40	0x3c55a8e6	0.013040757
41	0xbcb89110	-0.022530109
42	0x3d4692c9	0.04847983
43	0x3de83f09	0.11340148
44	0x3e6a1acb	0.22861783
45	0xbe8d7bc3	-0.27633485
46	0x3df6beb8	0.120480955
47	0x3e59251f	0.21205567
48	0xbd7c2d25	-0.06156649
49	0x3dbdf28d	0.092747785
50	0x3d8915f3	0.066936396
51	0xbe8b9455	-0.27261606
52	0x3e1bfe63	0.1523376
53	0x3de7b61a	0.1131403
54	0x3c946c62	0.018118087
55	0x3e76228d	0.24036618
56	0x3d7c3a6a	0.061579145
57	0x3cf2d0bf	0.029640554
58	0xbda8fc00	-0.0825119
59	0x3ea60f16	0.32433385
60	0xbd178f21	-0.037001733
61	0x3e263831	0.16232373
62	0x39fd7208	0.0004834088
63	0x3e748052	0.23877075
64	0x3dfdaae4	0.123861104
65	0xbc7df16c	-0.015499454
66	0x3c7e67ca	0.015527675
67	0x3e14d7f8	0.1453551
68	0x3dc521a0	0.09625554
69	0xbc9cc3d1	-0.019136341
70	0xbdd18b42	-0.102316394
71	0x3d8b4682	0.06800558
72	0xbe42700f	-0.1898806
73	0x3e1d8ec4	0.15386492
74	0xbcc4b931	-0.024014087
75	0xbdc51877	-0.09623807
76	0x3e0698d3	0.13144235
77	0x3e59434f	0.21217082
78	0xbcfee804	-0.031116493
79	0x3ca60cbc	0.020269744
80	0x3d2b7eb0	0.041868865
81	0x3df5c5ac	0.120005935
82	0xbcd87372	-0.026422236
83	0xbc91d5f7	-0.017802222
84	0x3e0d4433	0.13795547
85	0x3d6d9bd6	0.058009945
86	0x3ca83edb	0.020537784
87	0x3d10416d	0.035218645
88	0x3e4fe446	0.20301923
89	0x3c853696	0.01626138
90	0xbde5eb8c	-0.112265676
91	0x3d6424a0	0.05569899
92	0xbe3f4f53	-0.18682604
93	0xbd81c62c	-0.063366264
94	0x3d81b1ca	0.06332739
95	0x3df60f21	0.12014604
96	0xbdd2c3ae	-0.10291229
97	0xbe54066a	-0.20705572
98	0x3e165054	0.1467908
99	0x3c4face2	0.012675496
100	0x3d956ef8	0.07296556
101	0xbed1638a	-0.40896255
102	0xbe5c1c5e	-0.21495196
103	0xbcf4b429	-0.029871063
104	0x3d53fde5	0.051755805
105	0x3e1349ab	0.14383571
106	0xbd8725c2	-0.065989986
107	0x3e0169f4	0.12638074
108	0x3e8579a6	0.26069373
109	0x3c077f04	0.008270029
110	0x3e45b385	0.19306763
111	0xbd46652f	-0.04843634
112	0xbded18a1	-0.11576963
113	0xbcdfb78a	-0.027309198
114	0xbe8d3739	-0.27581194
115	0xbdf1a328	-0.11798698
116	0x3e23ebbd	0.16007896
117	0x3d3b16bb	0.045675974
118	0xbe46794e	-0.19382212
119	0x3e0f1fe3	0.13977008
120	0xbe10911c	-0.14117855
121	0x3dd8d220	0.10586953
122	0xbd4e6f9a	-0.0503994
123	0x3e809ddc	0.25120437
124	0xbcbeff1e	-0.023315009
125	0xbcede42a	-0.029039461
126	0x3da1328b	0.078709684
127	0x3e37d6f6	0.17953095
128	0xbda53cc5	-0.080682315
129	0xbdecb172	-0.115572825
130	0x3e5d36fb	0.21603005
131	0xbcc96f61	-0.024589242
132	0x3e15d749	0.14632906
133	0x3d8a746f	0.06760489
134	0xbc4b3530	-0.012402818
135	0xbd8ff319	-0.07028789
136	0xbe8972d2	-0.26845413
137	0xbe583ee1	-0.21117736
138	0x3d7235c2	0.0591333
139	0xbd9e82c7	-0.077397875
140	0xbe197cf0	-0.14989066
141	0xbdadb390	-0.084815145
142	0xbd7d3264	-0.061815634
143	0x3c9fa2e0	0.019486845
144	0xbdcc5add	-0.09978268
145	0xbe603eee	-0.21899006
146	0x3e14d4c2	0.14534286
147	0xbc666376	-0.014061799
148	0x3dc04faa	0.09390195
149	0x3e736a7e	0.23771092
150	0xbe628154	-0.22119647
151	0xbe39a502	-0.18129352
152	0x3e7214c4	0.23640734
153	0x3e1e8936	0.1548203
154	0x3e2739b4	0.16330606
155	0x3d323091	0.043503348
156	0xbdc59107	-0.096468024
157	0x3e1ab212	0.15106991
158	0x3e542623	0.20717673
159	0xbe50599f	-0.20346688
160	0x3dbd473c	0.092421025
161	0xbde10440	-0.10987139
162	0xbe0dd9ea	-0.13852659
163	0xbcb43d56	-0.022001904
164	0x3c2365c2	0.009972991
165	0xbb0f2e92	-0.0021847826
166	0xbc4c2a40	-0.012461245
167	0xbe725604	-0.23665625
168	0xbccfa507	-0.025347246
169	0x3e301d2e	0.17198631
170	0xbd7f3ea9	-0.062315617
171	0x3e50b3bb	0.20381062
172	0x3d9d7076	0.07687466
173	0x3e23ce4d	0.15996666
174	0x3d1e934a	0.038714685
175	0xbe0f1ae2	-0.13975099
176	0x3e05b01e	0.13055465
177	0xbe3911e6	-0.18073234
178	0xbd91401e	-0.070923075
179	0x3aa82ffc	0.0012831683
180	0x3d280ce3	0.041027915
181	0xbd9afd50	-0.07567847
182	0x3e3ee3f3	0.18641643
183	0xbdc93550	-0.09824622
184	0x3a43c410	0.0007467875
185	0x3d9aff6e	0.075682506
186	0xbcd99744	-0.026561387
187	0xbdcd2c9b	-0.100182734
188	0xbd258c8f	-0.04041725
189	0xbd7bf329	-0.061511192
190	0xbe7e95ab	-0.24861781
191	0x3e37d1ff	0.17951201
192	0xbdee8b3e	-0.11647652
193	0x3d9e69c0	0.07735014
194	0x3e33f06b	0.17572181
195	0xbcfcce16	-0.030859988
196	0xbe6a5e0b	-0.22887437
197	0x3e092fc1	0.13397123
198	0xbd87a453	-0.06623139
199	0xbe1f68a3	-0.1556726
200	0xbde9ae79	-0.11410231
201	0xbd4c5509	-0.049885783
202	0x3cccf196	0.02501754
203	0x3eaae4fd	0.3337783
204	0xbdba1a6a	-0.09087069
205	0x3eeaba5a	0.458453
206	0xbe001268	-0.12507021
207	0x3c98252f	0.018572418
208	0xbc85782e	-0.016292658
209	0xbda9c6f2	-0.08289899
210	0xbe7c3e28	-0.24633086
211	0xbde20a8d	-0.11037169
212	0xbe375fe3	-0.17907672
213	0xbe03e01f	-0.12878464
214	0x3e226820	0.15860033
215	0xbe0e4a02	-0.13895419
216	0x3e34a6b4	0.17641717
217	0xbe6de1d5	-0.2323068
218	0xbe14b9e0	-0.1452403
219	0x3ec168a9	0.37775162
220	0x3e12a876	0.14322075
221	0x3db0ec5e	0.086388335
222	0x3e65ab9f	0.2242875
223	0x3e65c16a	0.22437063
224	0xbe39eadd	-0.18156
225	0x3e728183	0.23682217
226	0xbcebf1e9	-0.028801875
227	0x3d91e244	0.07123235
228	0x3e6e6dd4	0.23284084
229	0xbdcedd3e	-0.10100792
230	0xbdc6ce80	-0.097073555
231	0x3d91b9bb	0.071155034
232	0x3e1c8235	0.15284045
233	0xbe1ce84d	-0.1532299
234	0xbe0cf8ee	-0.13766834
235	0x3c99b274	0.01876185
236	0x3de7bb20	0.11314988
237	0xbc8adc98	-0.01695089
238	0xbe88041e	-0.2656564
239	0x3c7f9052	0.0155983735
240	0x3ba5d15e	0.005060359
241	0xbdb01f87	-0.08599763
242	0x3e0674b7	0.1313046
243	0x3e6257d7	0.2210382
244	0x3d23df30	0.04000777
245	0x3db5bb8e	0.08873664
246	0x3d71ebc8	0.05906275
247	0xbdb94b76	-0.09047596
248	0x3d6c1daf	0.057645496
249	0xbdcf8ead	-0.10134635
250	0x3d94fea6	0.07275133
251	0x3dea1cc2	0.11431266
252	0x3d80a902	0.06282236
253	0x3dab4b63	0.08363988
254	0xbd3931ad	-0.04521339
255	0x3dd8211f	0.10553192

base.main.0.bias f4 [6]
0	0x3bbf4357	0.005836885
1	0x3bdf313e	0.00681129
2	0xbbe0d5c4	-0.0068614203
3	0x3bd798a3	0.006579475
4	0x3be2b9a5	0.006919103
5	0xbbd54821	-0.0065088426

base.main.2.weight f4 [16, 6, 5, 5]
0	0x3df50ee1	0.119657286
1	0xbe1c0db0	-0.15239596
2	0x3d126eb0	0.03575009
3	0x3d6f3e5e	0.058409087
4	0x3e4ea645	0.20180614
5	0x38efe880	0.000114397146
6	0x3d52cc58	0.05146441
7	0xbd6f2067	-0.05838051
8	0xbd96ae58	-0.07357472
9	0xbc2709e1	-0.010195226
10	0x3dac8e8d	0.08425627
11	0xbc113d9d	-0.008864787
12	0xbe12b431	-0.1432655
13	0x3d7e0ea3	0.062025677
14	0x3e6d2079	0.23156919
15	0x3d8d616a	0.06903346
16	0xbd3cac8c	-0.04606299
17	0xbe4200e1	-0.18945648
18	0x3d4a5f4f	0.0494073
19	0xbd7720a6	-0.06033387
20	0x3e92bc70	0.2865939
21	0xbd89fa0a	-0.06737144
22	0x3d9446e9	0.072400875
23	0x3ea17d76	0.31541032
24	0x3df283a7	0.11841517
25	0xbdd5ce93	-0.104397915
26	0x3d8f39b9	0.069934316
27	0xbe36ce78	-0.17852199
28	0x3cc30be3	0.023809379
29	0xbe1b1887	-0.15146075
30	0x3d904f5c	0.070463866
31	0x3d7028e1	0.058632735
32	0xbbe514af	-0.006990991
33	0x3e65ad1d	0.22429319
34	0x3d96a480	0.07355595
35	0x3d138551	0.036015812
36	0xbdab5baa	-0.08367093
37	0x3dee6797	0.11640852
38	0x3d077a7b	0.03307579
39	0xbc92abdc	-0.017904215
40	0x3dc17839	0.09446759
41	0xbd1bd4c9	-0.038044725
42	0x3e3bc216	0.18335757
43	0xbd3e79ce	-0.04650288
44	0x3e3b06c8	0.18264306
45	0x3d05bc7c	0.032650456
46	0x3dab124a	0.08353098
47	0xbc883bfd	-0.016630167
48	0x3e2e05c3	0.16994385
49	0x3e1a2264	0.15052181
50	0x3e293316	0.16523394
51	0x3de3a02f	0.11114537
52	0xbd8a44f8	-0.06751436
53	0x3db11aff	0.08647727
54	0x3d858fa4	0.06521538
55	0xbe6bf381	-0.23042108
56	0xbd898fa4	-0.067168504
57	0xbd41e500	-0.047337532
58	0xbd34bfec	-0.044128343
59	0x3c877162	0.016533557
60	0x3df2a30a	0.118475035
61	0xbe0cb3ef	-0.13740514
62	0xbdd3f267	-0.10348969
63	0xbd8a8e20	-0.067653894
64	0x3db8ad85	0.09017471
65	0x3e12e794	0.14346153
66	0xbdf00131	-0.11718977
67	0x3da66f55	0.08126704
68	0x3c7922e9	0.015206077
69	0x3e3fc820	0.18728685
70	0x3de49c0d	0.11162577
71	0xbd014dd4	-0.031568363
72	0xbe1144d1	-0.14186408
73	0xbc1e9879	-0.009679907
74	0xbdcb2a0e	-0.09920131
75	0xbd78a416	-0.06070336
76	0xbe0975c4	-0.1342383
77	0x3d8e2593	0.069407605
78	0x3e9990a1	0.29993156
79	0xbdd09efa	-0.101865724
80	0x3d4b9246	0.049700044
81	0x3db4de71	0.0883149
82	0x3dd3d51f	0.10343384
83	0x3b359b3d	0.0027710937
84	0x3da17b80	0.07884884
85	0xbdf1978a	-0.11796482
86	0x3d1262af	0.035738643
87	0x3da22731	0.079176314
88	0x3d9dbdb2	0.07702197
89	0xbd7408c4	-0.059578672
90	0xbd548d1f	-0.051892396
91	0x3d6badd6	0.05753883
92	0x3df0afeb	0.11752304
93	0x3db9c51a	0.09070797
94	0x3de6d3ef	0.11270892
95	0xba774cb0	-0.00094337296
96	0xbd1ad746	-0.037802957
97	0x3e0d63bc	0.13807577
98	0xbd0a080d	-0.033699084
99	0xbd1087f3	-0.0352859
100	0xbbf657b6	-0.00751778
101	0xbda45b63	-0.08025243
102	0x3dcde6d1	0.1005379
103	0xbbe7e212	-0.00707651
104	0x3d502c2c	0.050823376
105	0x3e769704	0.24081045
106	0xbdcb0843	-0.09913685
107	0x3e7b3d9d	0.24535222
108	0xbe317f41	-0.173337
109	0xbdb8a743	-0.09016278
110	0x3d410c7b	0.047131043
111	0x3e6c9ac0	0.23105907
112	0xbd902aad	-0.0703939
113	0x3e115f8c	0.14196604
114	0x3e23a896	0.15982279
115	0x3dc0f3da	0.09421511
116	0x3de3e637	0.11127894
117	0x3d8539f9	0.06505198
118	0xbdf44ae6	-0.11928348
119	0x3d956493	0.07294574
120	0x3e0fbd5b	0.14037077
121	0xbd03a96b	-0.03214399
122	0xbcde0c2b	-0.027105412
123	0xbdbc5e9a	-0.09197731
124	0xbd2cb7be	-0.042167418
125	0x3deb3813	0.11485305
126	0x3e0d3f4e	0.1379368
127	0x3da2f7be	0.07957409
128	0x3d03b8b6	0.032158576
129	0x3dce9999	0.1008789
130	0x3dd7a252	0.10529007
131	0xb9470440	-0.00018979702
132	0xbb480b23	-0.0030524216
133	0xbcbca87c	-0.023029558
134	0xbdbca237	-0.092106275
135	0x3bf49304	0.0074638147
136	0x3dc07e7d	0.09399126
137	0xbe2ad03e	-0.16681
138	0x3e8df09a	0.27722627
139	0x3c96af7d	0.018394226
140	0x3e60321f	0.2189412
141	0xbdb91fb9	-0.09039254
142	0xbe649478	-0.22322261
143	0x3e295ab4	0.16538507
144	0xbd8f5218	-0.0699808
145	0x3e109296	0.14118418
146	0x3d63160c	0.055440947
147	0x3e097290	0.13422608
148	0xbd14a5df	-0.036291
149	0xbb591762	-0.003312551
150	0xbc81c1ee	-0.015839543
151	0xbd7921e2	-0.06082333
152	0x3cc152aa	0.023598988
153	0x3d4422a2	0.04788459
154	0xbe427bc4	-0.18992525
155	0x3e0bfbf9	0.13670339
156	0xbccceaec	-0.025014363
157	0x3e3b01e4	0.1826244
158	0xbcd0a40b	-0.025468847
159	0xbdc4af34	-0.0960373
160	0xbe120fec	-0.14263886
161	0xbd21cecc	-0.039503857
162	0xbcae684c	-0.021289967
163	0x3dccedc8	0.10006291
164	0xbb06bf0e	-0.0020560655
165	0x3e289da3	0.16466384
166	0x3db700c1	0.08935691
167	0x3d30ba81	0.043146614
168	0x3de516a2	0.111859575
169	0x3de9a7fc	0.114089936
170	0x3d9ef42a	0.07761414
171	0xbc126908	-0.008936174
172	0x3e6fd8d5	0.23422559
173	0xbce2e881	-0.027698757
174	0xbd796c7a	-0.060894467
175	0x3dc37f55	0.09545771
176	0xbe2c9cca	-0.16856685
177	0xbc4587f6	-0.012056341
178	0x3e0d9755	0.1382726
179	0xbd8c6380	-0.068549156
180	0x3d982a2b	0.07429918
181	0xbda2de79	-0.079525895
182	0x3e262b73	0.16227512
183	0xbd8b5931	-0.06804121
184	0x3d7884b5	0.060673434
185	0xbce186c0	-0.027530074
186	0x3cfcd130	0.030861467
187	0xbcad03e1	-0.021120014
188	0xb9699080	-0.00022274442
189	0x3e0f4ee1	0.13994934
190	0xbd942da4	-0.07235268
191	0x3de1885c	0.110123366
192	0xbdda2258	-0.10651082
193	0x3c85de8a	0.016341466
194	0x3e676193	0.22595815
195	0xbe0798e9	-0.13241924
196	0xbc8a5a94	-0.016888894
197	0x3de5a37b	0.11212822
198	0x3d0bf360	0.034167647
199	0x3c735720	0.014852315
200	0xbcf4ebf8	-0.029897675
201	0x3c582fb9	0.013194972
202	0x3e7c4461	0.2463546
203	0x3de47e0f	0.11156856
204	0xbd4ed4ac	-0.05049579
205	0x3cc089d8	0.023503229
206	0x3e845eac	0.2585348
207	0x3cbfaead	0.023398722
208	0x3df63381	0.12021542
209	0xbca12712	-0.01967195
210	0x3e412baa	0.18864313
211	0xbe096f6c	-0.1342141
212	0xbda18aa0	-0.07887769
213	0xbcfa4b0b	-0.030553361
214	0x3d96be82	0.07360555
215	0xbc8e0876	-0.017338019
216	0x3d4d7211	0.05015761
217	0xbdafd554	-0.08585611
218	0x3c1de42b	0.009636919
219	0xbcc4d78d	-0.024028564
220	0xbdafc83f	-0.08583116
221	0x3c87748c	0.016535066
222	0xbdd6bc22	-0.10485102
223	0x3ca7a8ae	0.020466175
224	0xbd5a67d1	-0.053321663
225	0xbd8bc1ac	-0.06824049
226	0xbd23a1ce	-0.03994923
227	0xbd849509	-0.06473739
228	0xbd6a3b6d	-0.05718558
229	0x3d8d52d2	0.06900562
230	0xbde3f1d3	-0.11130109
231	0xbdfaa49c	-0.12238428
232	0x3e5dec04	0.21672064
233	0xbd5e70f2	-0.05430693
234	0x3a233818	0.0006226315
235	0x3d138593	0.03601606
236	0x3e4cdacb	0.20005338
237	0x3e063809	0.13107313
238	0xbd4b02ed	-0.049563337
239	0xbcdb58e6	-0.026775789
240	0xbb8780fc	-0.004135249
241	0xbe0df437	-0.13862692
242	0x3bf68f13	0.00752438
243	0xbe62961b	-0.22127573
244	0x3df4f45a	0.11960669
245	0x3c4f69ee	0.012659533
246	0xbd35bd42	-0.044369943
247	0xbb861b90	-0.004092641
248	0xbd2ccf8c	-0.04219012
249	0x3e6986f3	0.22805385
250	0x3e4676ca	0.19381252
251	0x3d11a050	0.035553277
252	0xbdcfbeba	-0.101438
253	0x3df0129c	0.117222995
254	0x3e2d3fe2	0.169189
255	0x3e3a66d7	0.18203293

base.main.2.bias f4 [16]
0	0x3be1f3ba	0.0068955095
1	0x3bddcffd	0.006769179
2	0x3be015d3	0.006838539
3	0xbbe0e682	-0.006863416
4	0x3bdb84d9	0.0066991863
5	0x3bde923b	0.0067923344
6	0xbbdda748	-0.0067643262
7	0x3bc014ea	0.005861868
8	0x3bdb9a8b	0.0067017726
9	0xbbe03b25	-0.006842988
10	0x3bc9fabe	0.006163924
11	0x3b4e052d	0.003143619
12	0xbbc65a6d	-0.00605326
13	0xbaf46eaf	-0.0018648709
14	0xbb9a8efa	-0.004716751
15	0x3bcd9e2f	0.0062749605

base.main.4.weight f4 [6, 16, 5, 5]
0	0xbd254307	-0.040347125
1	0x3d4b0542	0.04956556
2	0xbe1f34a2	-0.15547422
3	0xbdc059ae	-0.09392105
4	0x3bd5df64	0.0065268744
5	0x3bc49578	0.0059992634
6	0x3e3974b5	0.18110926
7	0xbd4a4150	-0.049378693
8	0x3d5825f9	0.05277059
9	0xbce14480	-0.027498484
10	0x3da18ac1	0.07887793
11	0xbcd08570	-0.025454253
12	0xbbdcaa1a	-0.006734145
13	0xbb600966	-0.003418529
14	0x3b480130	0.0030518286
15	0xbdb92633	-0.09040489
16	0x3dd45530	0.10367811
17	0x3c6e70d0	0.014553264
18	0x3def6af1	0.11690319
19	0xbdb11aa9	-0.08647663
20	0xbb05634c	-0.0020353375
21	0x3d6f11dc	0.05836664
22	0x3d07b29f	0.03312933
23	0x3dad1096	0.08450429
24	0xbdc60fdd	-0.096709944
25	0xbd1ac307	-0.03778365
26	0x3b1753b4	0.0023090662
27	0xbe4f014b	-0.20215337
28	0x3db8e83f	0.090286724
29	0xbd72028f	-0.05908447
30	0x3d78e4e5	0.060765166
31	0x3b9f7733	0.0048665046
32	0x3d3bc443	0.045841467
33	0xbccdd210	-0.02512458
34	0x3c682e44	0.014171187
35	0xbd888041	-0.066650875
36	0xbda7776d	-0.081770755
37	0xbd90c430	-0.0706867
38	0x3d856df6	0.06515114
39	0xbcd90bf1	-0.026494952
40	0xbde08135	-0.10962144
41	0xbd5d0827	-0.053962853
42	0x3d964593	0.07337489
43	0x3d510850	0.051033318
44	0x3bebf4c0	0.0072008073
45	0x3c276f5d	0.010219422
46	0xbd83f7e4	-0.06443766
47	0x3d6ca19f	0.05777132
48	0xbdac3fe4	-0.08410624
49	0x3c1cbffe	0.009567259
50	0xbdaf5c48	-0.08562523
51	0x3cae13f5	0.02124975
52	0xbd6a6b2d	-0.057231117
53	0xbd537b50	-0.05163127
54	0xbb8014f0	-0.003908746
55	0xbdb442b4	-0.08801785
56	0x3d80f2d5	0.062963165
57	0xbd3b1d88	-0.04568246
58	0x3c81ca7c	0.015843622
59	0x3d228228	0.039674908
60	0xbd6d3976	-0.057916127
61	0x3db34218	0.08752841
62	0xbd9af877	-0.07566922
63	0x3e0cfb55	0.1376775
64	0xbd2516d2	-0.040304966
65	0x3da37ec9	0.07983167
66	0xbc425df8	-0.011863224
67	0xbdc85b5d	-0.09783051
68	0xbda9c226	-0.08288984
69	0x3d388d72	0.045056768
70	0xbc186622	-0.009301694
71	0xbd4092df	-0.047015067
72	0xbca5cb57	-0.020238562
73	0xbe0d2176	-0.13782296
74	0x3b431fe9	0.0029773659
75	0xbc58d8f2	-0.013235318
76	0xbe3d6b31	-0.18497922
77	0xbbb643b9	-0.0055622724
78	0xbc8bb7ab	-0.017055353
79	0x3dfa78c6	0.12230067
80	0xbb30f250	-0.0026999898
81	0xbd465b66	-0.048427008
82	0x3d7a0bf1	0.061046544
83	0x3e02452c	0.127217
84	0xbc2c0e4a	-0.010501454
85	0xbcd79c75	-0.026319722
86	0xbd754d49	-0.059888158
87	0xbd0e83a7	-0.034793522
88	0x3d1d8c63	0.03846396
89	0x3da95aec	0.08269295
90	0xbd65a05f	-0.056061145
91	0xbdbe5747	-0.092939906
92	0x3d2910a3	0.04127563
93	0x3c69ecb4	0.014277626
94	0x3d82bf63	0.0638416
95	0x3d9b7f36	0.07592623
96	0x3d900ecf	0.070340745
97	0xbd61ec02	-0.055156715
98	0x39fbbe70	0.00048016338
99	0x3cfff4b7	0.031244619
100	0xbc8eae02	-0.017416958
101	0x3bdb6c4c	0.0066962596
102	0x3d6ea52f	0.058263
103	0xbcb2f438	-0.021844968
104	0xbc9c8f3d	-0.01911127
105	0xbdc2ce48	-0.09512001
106	0xbd638aff	-0.05555248
107	0xbd89e882	-0.067338005
108	0xbccb32e7	-0.024804546
109	0x3df5b6d2	0.11997761
110	0x3c063f99	0.008193874
111	0x3d09e867	0.0336689
112	0x3bb9792e	0.0056601977
113	0x3cd7c77c	0.026340239
114	0xbdff6cca	-0.12471922
115	0xbc815082	-0.01578546
116	0xbdbf93a3	-0.09354331
117	0xbe00aae6	-0.12565193
118	0xbd897e41	-0.06713534
119	0x3d50cf01	0.050978664
120	0xbd91b54a	-0.07114656
121	0x3d628bda	0.055309154
122	0x3cab569b	0.02091532
123	0xbca22334	-0.019792177
124	0xbdacd240	-0.084385395
125	0xbcc1116e	-0.023567881
126	0xbd614782	-0.054999836
127	0x3d0b4450	0.034000695
128	0x3dce0c27	0.100609116
129	0xbc96bc06	-0.018400203
130	0xbde5b64f	-0.11216413
131	0x3d5f3680	0.054495335
132	0x3d6691a5	0.05629124
133	0x3d9773e6	0.07395153
134	0xbc1433ec	-0.009045582
135	0x3daedc06	0.0853806
136	0xbd8b86ba	-0.068128064
137	0xbd18c0c7	-0.03729322
138	0x3ca9da43	0.020733958
139	0xbd132c09	-0.035930667
140	0x3c886364	0.016648956
141	0xbd0218c0	-0.031761885
142	0xbd8ffc57	-0.07030552
143	0xbe0ef49d	-0.139605
144	0x3db13e76	0.086544916
145	0x3d986c75	0.074425615
146	0xbdb71e40	-0.089413166
147	0x3dc3932a	0.09549554
148	0x3ceae186	0.028671991
149	0xbdc590c2	-0.09646751
150	0xbbcfdda0	-0.0063435584
151	0xbdd902b7	-0.10596221
152	0x3e25ab66	0.16178665
153	0xbcd599fa	-0.026074398
154	0xbd6342fc	-0.055483803
155	0x3d918e7f	0.07107257
156	0xbcebb4e0	-0.028772771
157	0xbe42a5a7	-0.19008504
158	0xbd9877f9	-0.07444758
159	0x3cfa3121	0.030541005
160	0x3d51b4dd	0.051197875
161	0x3cbe1788	0.02320458
162	0xbc676296	-0.014122626
163	0xbcf38421	-0.02972609
164	0x3d7ed692	0.06221635
165	0xbc762893	-0.015024322
166	0xbcc70a10	-0.02429679
167	0x3d39e488	0.04538396
168	0xbda6c333	-0.081427
169	0x3d1761a8	0.036958367
170	0x3e1f96d5	0.15584882
171	0x3e00974e	0.12557718
172	0x3d2bbf2b	0.04193036
173	0xbca5f9ca	-0.02026071
174	0xbd07ec78	-0.0331845
175	0x3cb501fa	0.022095669
176	0x3ddf1512	0.10892691
177	0x3da76ea3	0.08175399
178	0xbd3d0966	-0.04615154
179	0xbdaf34ca	-0.085549906
180	0x3d92b3b3	0.07163181
181	0x3dc0a346	0.09406142
182	0xbd4117b7	-0.047141757
183	0xbe1b801f	-0.15185593
184	0xbdb27271	-0.08713234
185	0xbcf5afeb	-0.02999111
186	0x3c37e0f4	0.011223067
187	0x3b13b325	0.0022537198
188	0x3d6e986e	0.058250837
189	0xbcb83d48	-0.022490159
190	0x3cbacc68	0.022802547
191	0x3e24addb	0.16081946
192	0x3d48edda	0.049054958
193	0xbd0765ec	-0.033056185
194	0xbb31a924	-0.0027108872
195	0xbd357141	-0.04429746
196	0xbd04e1ac	-0.03244178
197	0xbc83428a	-0.01602294
198	0xbdb68f4d	-0.08914051
199	0xbdab69ea	-0.08369811
200	0x3d2f4ac1	0.0427959
201	0x3c77c55a	0.015122736
202	0x3cb0a0d5	0.021561066
203	0xbd9c602d	-0.076355316
204	0x3aa78694	0.0012781196
205	0xbd64e8e1	-0.055886153
206	0xbdc9162e	-0.098186836
207	0xbd95ac1f	-0.0730822
208	0xbd4e8c21	-0.050426606
209	0xbdd85b09	-0.105642386
210	0xbc521ed5	-0.012824734
211	0x3e19b7c6	0.1501151
212	0x3b149f32	0.0022677896
213	0x3d1e4262	0.038637526
214	0x3d7e6a4a	0.062113084
215	0xbd86bbac	-0.06578764
216	0x3deeec45	0.116661586
217	0x3cfe36a4	0.031031914
218	0x3c4127b3	0.01178925
219	0xbd39abaa	-0.045329727
220	0x3cc347c6	0.023837935
221	0xbdfa1703	-0.122114204
222	0x3cd8ce04	0.026465423
223	0xbdd76006	-0.10516362
224	0xba09dc78	-0.00052589877
225	0xbcbc4a9e	-0.022984799
226	0x3de4ea76	0.111775324
227	0xbca7e5aa	-0.020495255
228	0xbced76a0	-0.028987229
229	0x3c514ed4	0.012775142
230	0xbbda0955	-0.0066539445
231	0xbd9bda50	-0.07609999
232	0xbd0db69e	-0.034597985
233	0xbd24a1f0	-0.040193498
234	0x3c8229ef	0.015889136
235	0x3df77526	0.12082891
236	0xbd9e095d	-0.0771663
237	0xbca2c7f4	-0.019870736
238	0xbce71736	-0.02820931
239	0x3d8dc2d4	0.06921926
240	0x3ac59ba8	0.0015076296
241	0xbce7a0aa	-0.028274853
242	0xbd848a9a	-0.06471749
243	0xbd9dca38	-0.07704586
244	0x3d80e6f1	0.062940486
245	0xbdaebc5e	-0.08532022
246	0xbd8ba370	-0.068182826
247	0xbd6f4686	-0.058416866
248	0xbd89dec8	-0.06731945
249	0x3d869d7b	0.06573006
250	0xbce067f0	-0.027393311
251	0x3b90dbcd	0.0044207335
252	0x3da17ac7	0.07884746
253	0xbbc87d8b	-0.0061184815
254	0xbd887565	-0.06663016
255	0xbd3c1a1a	-0.04592333

base.main.4.bias f4 [6]
0	0xbbe36a27	-0.0069401446
1	0x3be3b0f3	0.006948584
2	0xbbb9adea	-0.005666484
3	0xbbe2a66b	-0.006916811
4	0xbba873ed	-0.0051407726
5	0xbbc8818c	-0.006118959

base.main.7.weight f4 [512, 216]
0	0x3cfbd128	0.030739382
1	0x3d0a30fd	0.033738125
2	0x3d29d6c1	0.04146457
3	0xbe070af0	-0.13187766
4	0x3d13add7	0.03605446
5	0x3c92578f	0.017864017
6	0x3d8dcf08	0.06924254
7	0xbc47d4c2	-0.0121967215
8	0x3d90801d	0.07055686
9	0x3d8128bd	0.06306598
10	0xbcda42b8	-0.026643142
11	0x3dae4bf8	0.08510584
12	0xbd29457f	-0.041326042
13	0xbd98a36a	-0.07453044
14	0x3d2b773f	0.04186177
15	0x3d498818	0.049202055
16	0xbd2536b9	-0.04033539
17	0xbd8d5a70	-0.06902015
18	0xbbc48996	-0.005997847
19	0xbd35372a	-0.04424206
20	0x3d22024c	0.03955297
21	0xbb7e8b5e	-0.0038840394
22	0x3c0814ef	0.008305772
23	0xbd2f2bd2	-0.0427664
24	0x3c81e7ba	0.015857566
25	0x3c82060a	0.01587202
26	0xbd9efdb6	-0.07763235
27	0xbc4b4978	-0.012407653
28	0xbce2738d	-0.02764299
29	0x3d5ba889	0.053627525
30	0xbc8d95a6	-0.017283272
31	0x3d0aeb91	0.03391606
32	0xbd0df74d	-0.034659673
33	0xbcdf6cb3	-0.027273512
34	0x3d3209c5	0.04346635
35	0xbdd8ce91	-0.105862744
36	0x3cea0ddb	0.02857106
37	0xbd1e50d0	-0.038651288
38	0xbd868eae	-0.06570183
39	0xbd8e85af	-0.06959092
40	0x3d9b2aa6	0.07576494
41	0xbe17af5b	-0.14812987
42	0xbbebe310	-0.007198699
43	0x3bb4293b	0.005498079
44	0x3d4168da	0.047219135
45	0x3ca9d4d6	0.02073137
46	0xbc5ea580	-0.013589263
47	0xbc43edba	-0.011958534
48	0xbda8371a	-0.08213635
49	0x3ce026cb	0.027362248
50	0xbd0d328a	-0.034472026
51	0xbd28ed5c	-0.04124199
52	0xbdce4b2e	-0.10072933
53	0xbcce5b6c	-0.025190078
54	0xbdc3c84c	-0.09559688
55	0xbd5e7f02	-0.054320343
56	0xb9c79474	-0.00038066844
57	0x3be038c7	0.006842706
58	0x3d586a13	0.052835535
59	0x3d56719b	0.052354436
60	0x3d81887c	0.063248605
61	0x3cf36a5f	0.029713808
62	0xbc9bc2c4	-0.01901377
63	0x3c24d483	0.010060432
64	0xbc08c731	-0.008348272
65	0xbd19a73a	-0.037512995
66	0xbd3233c6	-0.043506406
67	0xbce4b22f	-0.027916996
68	0xbd5a0a2d	-0.05323236
69	0x3d500a1a	0.050790884
70	0x3dc2694f	0.09492742
71	0xbd214652	-0.039373703
72	0x3cb27be4	0.021787591
73	0xbb7a48d3	-0.003819038
74	0xbca6a769	-0.0203435
75	0x3d62f52b	0.05540959
76	0x3d9566ac	0.07294974
77	0xbccdea04	-0.025136001
78	0xbd019d6d	-0.031644274
79	0xbd7bef45	-0.061507482
80	0xbde65982	-0.11247541
81	0xbd5722f6	-0.052523576
82	0x3d81982c	0.063278526
83	0x3d39f443	0.04539896
84	0x3d103f08	0.03521636
85	0xbc723644	-0.014783446
86	0xbd16969e	-0.036764733
87	0xbd66c515	-0.056340296
88	0x3de30cd4	0.11086431
89	0x3d8b63d6	0.068061516
90	0x3aab3a0d	0.0013063565
91	0xbd8ba8ba	-0.068192914
92	0x3caeb85b	0.021328142
93	0xbda11d03	-0.07866862
94	0x3d1eb7da	0.038749553
95	0xbd97a787	-0.07405
96	0x3dbffc31	0.093742736
97	0xbc3758d9	-0.0111906165
98	0xbd5d4ec4	-0.054030195
99	0xbdc0134b	-0.0937868
100	0xbd6ec081	-0.058289055
101	0x3d2ab22a	0.041673817
102	0xbd3f6bdc	-0.046733722
103	0x3c8b6fd4	0.017021097
104	0x3dad581a	0.0846407
105	0x3e27e099	0.16394271
106	0xbd52ebd2	-0.051494427
107	0x3d475341	0.04866338
108	0xbd276988	-0.040872127
109	0x3d4607cf	0.04834729
110	0xbc6930b0	-0.014232799
111	0x3cda8a64	0.026677318
112	0x3dacc2a4	0.08435562
113	0xbda42b90	-0.080161214
114	0x3dd67d93	0.1047317
115	0xbcf5b0d9	-0.029991554
116	0x3d2ec7e2	0.04267109
117	0xbc09a7d8	-0.0084018335
118	0x3acc492e	0.0015585774
119	0xbd6b10e7	-0.057389166
120	0xbcadf4d9	-0.021234917
121	0x3d604b61	0.054759387
122	0x3dbff283	0.09372427
123	0xbd482a09	-0.048868213
124	0x3cf1fba4	0.029538937
125	0x3d88c55f	0.066782705
126	0xbda50931	-0.08058394
127	0x39718a32	0.00023035033
128	0xbba459e8	-0.0050156005
129	0xbc9547c9	-0.018222706
130	0xbcd25904	-0.025677212
131	0x3dde5cf1	0.10857571
132	0x3cddc502	0.02707148
133	0xbc66b527	-0.014081276
134	0xbc9ba35f	-0.0189988
135	0x3d3bdccd	0.04586487
136	0x3d5738f7	0.05254456
137	0xbd34fba0	-0.04418528
138	0xbda9d599	-0.08292694
139	0x3d7d0eaa	0.061781563
140	0x3c90636b	0.017625531
141	0xbdf23885	-0.118271865
142	0x3d0e505d	0.03474461
143	0xbd6097e8	-0.05483237
144	0x3b9e10bf	0.0048237736
145	0x3bac3ba7	0.0052561346
146	0xbd17ef77	-0.037093606
147	0x3d715e1e	0.058927648
148	0x3ab75f0c	0.0013990118
149	0x3cc771c0	0.024346232
150	0x3dbd9cbf	0.092584126
151	0x3d47a30b	0.048739474
152	0x3aacdef8	0.0013189008
153	0x3d425d02	0.04745198
154	0x3dfa42b5	0.122197546
155	0x3be7d0b6	0.007074441
156	0x3ccf0dd1	0.025275143
157	0x3d019497	0.031635847
158	0xbbc54f14	-0.0060213897
159	0xbd2a1f53	-0.04153378
160	0x3b3b0b23	0.0028540574
161	0xbd3f44e9	-0.046696577
162	0x3c9b9345	0.018991122
163	0xbb5a77dc	-0.0033335602
164	0x3ddfa8c4	0.10920861
165	0x3d2f326f	0.042772707
166	0x3d0521b8	0.03250286
167	0xbd23f26e	-0.04002612
168	0x3bc3a231	0.0059702625
169	0x3d2f3f68	0.04278508
170	0x3bce87fa	0.0063028308
171	0xbd08225d	-0.033235896
172	0xbde3f4a0	-0.11130643
173	0x3c57989b	0.013158943
174	0x3d21637c	0.039401516
175	0x3e0826f5	0.13296111
176	0xbd3c907d	-0.046036232
177	0xbd01ee7b	-0.031721573
178	0x3d25bedf	0.040465232
179	0xbd3a2398	-0.0454441
180	0xbc47fe01	-0.012206555
181	0x3dbdac96	0.09261434
182	0xbdafa167	-0.08575707
183	0x3e25de38	0.16198051
184	0x3d9aae3d	0.075527646
185	0xbe0a4cd7	-0.13505875
186	0xbcf525a5	-0.029925177
187	0xbda403a7	-0.08008509
188	0x3d080fa3	0.033218037
189	0x3ce09b48	0.027417794
190	0xbc009015	-0.007846852
191	0x3d3d8145	0.04626586
192	0xbcd32734	-0.02577553
193	0x3d5c6b86	0.05381348
194	0x3abad15b	0.0014253067
195	0x3d98d33b	0.07462164
196	0x3db29030	0.08718908
197	0x3c3c66f1	0.0114991525
198	0x3daf863b	0.08570524
199	0x3e0debaa	0.1385943
200	0x3d4efdb4	0.05053492
201	0xbcc4e080	-0.024032831
202	0xbd80bd61	-0.06286121
203	0xbddfaa3c	-0.109211415
204	0xbd90c209	-0.07068259
205	0xbd4a1767	-0.049338724
206	0xbdeeb627	-0.116558366
207	0x3b0d8642	0.0021594916
208	0xbab20481	-0.0013581665
209	0x3dfddaa6	0.123952195
210	0x3d2a8f27	0.041640427
211	0x3c3d2b91	0.011546032
212	0x3c727823	0.014799151
213	0xbde8079c	-0.113295764
214	0x3cc9ce44	0.024634488
215	0xbd3c4479	-0.045963738
216	0xbb9cf0b3	-0.004789436
217	0x3cdae947	0.026722563
218	0xbb86e084	-0.00411612
219	0xbd224d18	-0.039624304
220	0x3c4547c0	0.012041032
221	0xbdc349de	-0.095355734
222	0x3bbb4f75	0.005716259
223	0x3df66d9b	0.12032624
224	0xbda43c02	-0.08019258
225	0x3d482396	0.048862062
226	0xbd3b2434	-0.045688823
227	0xbd68c796	-0.056830965
228	0x3d6f8f60	0.058486342
229	0x3ce1f24c	0.027581356
230	0xbe0c9c29	-0.13731445
231	0x3b4a9e32	0.0030917046
232	0xbd84e9d3	-0.06489911
233	0x3c7fb9e6	0.0156082865
234	0xbd278b07	-0.04090407
235	0xbdbcaf0a	-0.092130736
236	0xbc497c25	-0.012297665
237	0x3d497c2a	0.049190678
238	0xbce8e830	-0.028431028
239	0xbd13e6be	-0.036108725
240	0x3d612f0c	0.054976508
241	0x3d0ef695	0.034903128
242	0xbd37da37	-0.04488584
243	0x3d4b965c	0.04970394
244	0x3db89273	0.09012308
245	0xbd518243	-0.051149618
246	0xbcf256b8	-0.029582366
247	0xbb84abfa	-0.0040488215
248	0x3dd445d2	0.1036488
249	0xbd0c4706	-0.03424742
250	0x3ce384a8	0.027773216
251	0x3c47b1c5	0.01218838
252	0x3d3dd1cf	0.046342667
253	0xbd12f1be	-0.035875075
254	0x3de551e8	0.11197263
255	0x3ca03818	0.019557998

base.main.7.bias f4 [512]
0	0xbbe223cd	-0.0069012404
1	0x3bd8f036	0.0066204323
2	0x3bd6df3a	0.0065573724
3	0x00000000	0.0
4	0x3bbb3aff	0.00571382
5	0x00000000	0.0
6	0x00000000	0.0
7	0xbbbfde72	-0.005855375
8	0xbbdc689a	-0.0067263367
9	0x3bd9e222	0.0066492716
10	0x00000000	0.0
11	0x3b98e670	0.004666142
12	0xbb4fd2b4	-0.0031711282
13	0x3bd8e2dd	0.006618841
14	0x3b8ea56c	0.004353216
15	0x00000000	0.0
16	0x3bdd6631	0.006756567
17	0xbbd3e238	-0.0064661764
18	0x3bdafcff	0.0066829915
19	0xbbd26350	-0.0064205304
20	0x00000000	0.0
21	0xbbdc19ff	-0.006716966
22	0x3bda421d	0.0066607133
23	0x3bbc6901	0.005749822
24	0x3bc0a09a	0.00587852
25	0xbbce60d5	-0.0062981644
26	0x3bb5af03	0.0055445447
27	0xbbcabe85	-0.0061872625
28	0x00000000	0.0
29	0x00000000	0.0
30	0xbbd91117	-0.0066243517
31	0xbbdefced	-0.0068050534
32	0x3bd64edd	0.006540163
33	0xbba1a8c1	-0.004933447
34	0x3ba07459	0.004896682
35	0x3bdb6694	0.006695578
36	0x00000000	0.0
37	0x00000000	0.0
38	0x00000000	0.0
39	0xbbe0ef19	-0.00686444
40	0x00000000	0.0
41	0xbbca0282	-0.0061648497
42	0x00000000	0.0
43	0x3bddb886	0.0067663817
44	0x3bdae40c	0.0066800173
45	0x3be06c7f	0.0068488712
46	0xbbd84297	-0.006599735
47	0x3bc326dc	0.00595556
48	0x00000000	0.0
49	0x3be0c676	0.006859596
50	0xbbdf0a50	-0.0068066493
51	0x3bdec4b5	0.0067983516
52	0xbbda6b75	-0.006665642
53	0x00000000	0.0
54	0x3bd70a0a	0.006562476
55	0xbba51692	-0.005038091
56	0x3be3287a	0.0069323154
57	0x00000000	0.0
58	0x00000000	0.0
59	0xbba4c10f	-0.005027897
60	0xbbe04432	-0.006844067
61	0x3a1ea28e	0.0006051444
62	0xbbdbf295	-0.0067122676
63	0x00000000	0.0
64	0xbbd27bc7	-0.006423447
65	0x00000000	0.0
66	0xbbd401a3	-0.0064699217
67	0x3bbbf5bc	0.005736081
68	0xbbcbf1d4	-0.0062238965
69	0x3bdc9762	0.0067319134
70	0xbbcafe6f	-0.0061948816
71	0xbbe2ee2d	-0.0069253654
72	0xbbda51d4	-0.0066625867
73	0x00000000	0.0
74	0x3bd2ad77	0.00642937
75	0x3bde06af	0.006775699
76	0xbbc9737c	-0.0061478
77	0xbbc4b664	-0.006003188
78	0x3bc8fdd9	0.0061337766
79	0xbbba0735	-0.0056771287
80	0x00000000	0.0
81	0x00000000	0.0
82	0x3be19f65	0.0068854564
83	0x00000000	0.0
84	0x3bc4927c	0.0059989076
85	0x3be21bc2	0.0069002816
86	0xbbb865c8	-0.0056273676
87	0x00000000	0.0
88	0x3be2a826	0.0069170175
89	0xbbd9b994	-0.006644437
90	0xbbd5982a	-0.0065183835
91	0x3bd3ee48	0.0064676143
92	0x00000000	0.0
93	0x3bc6951c	0.0060602557
94	0x3bd82742	0.006596477
95	0x3bd84630	0.006600164
96	0xbb83e553	-0.0040251403
97	0x3bd562c9	0.0065120202
98	0x3bd74f73	0.0065707504
99	0x00000000	0.0
100	0xbb831098	-0.003999781
101	0x00000000	0.0
102	0xbbe1dfc0	-0.006893128
103	0x3b32dd50	0.0027292557
104	0x00000000	0.0
105	0x3b8351b9	0.004007545
106	0xbbd730b0	-0.0065670833
107	0x3bc369fc	0.005963562
108	0x3bda3db5	0.006660188
109	0x00000000	0.0
110	0x3bdcbd82	0.0067364583
111	0xbbcdae49	-0.00627688
112	0x00000000	0.0
113	0xbbe0814a	-0.00685135
114	0x00000000	0.0
115	0xbb55bfbd	-0.0032615506
116	0xbbcb6eb8	-0.006208267
117	0x3bd3fefb	0.006469605
118	0xbb0619ef	-0.0020462235
119	0x00000000	0.0
120	0xbbd5ca64	-0.006524371
121	0x00000000	0.0
122	0x00000000	0.0
123	0x3be0cec5	0.0068605863
124	0xbbc5dfac	-0.0060386267
125	0xbbc117f0	-0.005892746
126	0x00000000	0.0
127	0x00000000	0.0
128	0x00000000	0.0
129	0x00000000	0.0
130	0x3bdd28ea	0.006749262
131	0x00000000	0.0
132	0x3bd68497	0.0065465677
133	0xbbd8fb30	-0.0066217408
134	0x3bbf563d	0.005839138
135	0xbbb88704	-0.0056313295
136	0xbbbeb344	-0.00581971
137	0x00000000	0.0
138	0x3bbf87bf	0.0058450396
139	0x00000000	0.0
140	0x3bade110	0.0053063706
141	0x00000000	0.0
142	0xbbcfd1bf	-0.0063421424
143	0x3bd33456	0.006445448
144	0x3bd149df	0.00638698
145	0xbbb68e8c	-0.005571192
146	0x00000000	0.0
147	0x00000000	0.0
148	0x3bdacfa8	0.0066775866
149	0x39d9f707	0.00041573515
150	0x3bdc63a5	0.0067257457
151	0x3be1ef86	0.0068950085
152	0x3be05ac7	0.006846759
153	0xbbdf9c04	-0.0068240184
154	0x3bcead19	0.006307256
155	0xbb9aafb4	-0.0047206525
156	0xbb02c7ab	-0.0019955437
157	0xbb4b2f63	-0.0031003586
158	0x3bc25133	0.00593009
159	0x3be3113b	0.0069295443
160	0x3bbae034	0.0057029966
161	0xbbd84f9f	-0.0066012884
162	0xbbe160d6	-0.006877999
163	0xbbdf5000	-0.0068149567
164	0x00000000	0.0
165	0x3bd7f4c0	0.006590456
166	0x3bdfd6ee	0.0068310415
167	0x00000000	0.0
168	0x3bd23882	0.0064154277
169	0x3bdc0ac2	0.0067151496
170	0x00000000	0.0
171	0xbbd631d0	-0.0065367
172	0x00000000	0.0
173	0xbbe048eb	-0.00684463
174	0xbb5cc5f8	-0.0033687335
175	0x3bd175ee	0.006392232
176	0xbbc3c8cc	-0.0059748646
177	0x00000000	0.0
178	0x3bc6b215	0.0060637095
179	0x00000000	0.0
180	0x3bb3a8cc	0.0054827686
181	0x3bcdc90e	0.006280071
182	0xbbdb67ab	-0.006695708
183	0x3b8b446f	0.0042501013
184	0xbbe24c65	-0.0069060796
185	0x3bd1d3f1	0.006403439
186	0xbb3387bb	-0.0027394134
187	0x00000000	0.0
188	0x00000000	0.0
189	0xbbdc1074	-0.0067158286
190	0x00000000	0.0
191	0x3bd8a3b0	0.00661131
192	0x3bc27088	0.005933825
193	0x00000000	0.0
194	0xbbdc98bc	-0.0067320745
195	0x3be1392f	0.006873272
196	0xbbbb76dd	-0.0057209567
197	0xbbdadda0	-0.006679252
198	0xbbdf44e3	-0.006813632
199	0x3bdf3ba6	0.0068125306
200	0x00000000	0.0
201	0x3bd3f6e0	0.006468639
202	0xbbd5409e	-0.006507947
203	0x3bbdd85a	0.0057936134
204	0x00000000	0.0
205	0xbbdfbab5	-0.006827677
206	0x00000000	0.0
207	0xbbdbfcdb	-0.0067134923
208	0xbbe02a72	-0.0068409974
209	0x3bde69d7	0.0067875194
210	0xbbb89089	-0.0056324643
211	0x00000000	0.0
212	0x3bdd99d2	0.0067627216
213	0xbbddec69	-0.006772567
214	0x3be1fc92	0.006896564
215	0x3b8aa360	0.0042309016
216	0xbbd7b05c	-0.006582303
217	0x3bddcbd5	0.0067686834
218	0x00000000	0.0
219	0xbbdf2dd8	-0.006810885
220	0x00000000	0.0
221	0x3bc6ebe3	0.0060706004
222	0x3bdf1fe9	0.006809224
223	0x3bc8e1fd	0.0061304555
224	0x00000000	0.0
225	0x00000000	0.0
226	0x00000000	0.0
227	0x3b264edf	0.00253766
228	0x00000000	0.0
229	0x00000000	0.0
230	0x3b6bc1e5	0.0035973724
231	0xbb89e536	-0.0042082323
232	0xbb243fd2	-0.0025062454
233	0xbbb7b5c5	-0.0056063854
234	0xbbe2317e	-0.0069028726
235	0x00000000	0.0
236	0x00000000	0.0
237	0xbbd6b0f6	-0.006551857
238	0x00000000	0.0
239	0xbbdad261	-0.006677911
240	0xbbdcf199	-0.006742668
241	0xbb9698b1	-0.004595839
242	0x00000000	0.0
243	0x00000000	0.0
244	0xbbab7772	-0.005232745
245	0x00000000	0.0
246	0x00000000	0.0
247	0xbbd9ebaa	-0.006650408
248	0x3ba4999b	0.005023194
249	0x3bde555f	0.0067850794
250	0x3bce277d	0.0062913285
251	0x00000000	0.0
252	0x00000000	0.0
253	0x00000000	0.0
254	0x3bd95729	0.0066327048
255	0x00000000	0.0

base.critic_linear.weight f4 [1, 512]
0	0xbdda21e9	-0.10650999
1	0x3ce215bd	0.027598256
2	0x3d9eac01	0.07747651
3	0xbd70047c	-0.058598027
4	0x3d7f6d30	0.06235999
5	0xbd121b6f	-0.035670694
6	0xbcb0229d	-0.02150088
7	0xbc30b741	-0.010785879
8	0xbce43eb4	-0.02786193
9	0x3d18da7a	0.03731773
10	0xbc8be6f3	-0.017077899
11	0x3cfc0fcb	0.03076925
12	0x3bc1e1f9	0.0059168306
13	0x3cd41365	0.025888154
14	0x3cdfba4a	0.02731051
15	0x3d7bebbe	0.06150412
16	0x3d186479	0.037205193
17	0xbd50b5a1	-0.050954465
18	0x3dd59c1a	0.10430165
19	0xbd0029ef	-0.03128999
20	0x3d462ce0	0.04838264
21	0xbcda7010	-0.026664764
22	0x3ce8acc9	0.028402703
23	0x3c58ddb8	0.013236456
24	0x3d93e034	0.07220498
25	0xbb372c10	-0.0027949847
26	0x3c377350	0.011196926
27	0xbb753fd4	-0.0037422078
28	0x3ccb2575	0.024798134
29	0x3c35a764	0.011087272
30	0xbc4a0705	-0.012330775
31	0xbcfe9dcd	-0.031081105
32	0x3d76f504	0.06029226
33	0xbcba5f7f	-0.022750614
34	0x3d123955	0.035699207
35	0x3d1ba69e	0.038000695
36	0xbd1c10b5	-0.03810187
37	0x3d87b1d2	0.066257134
38	0xbd78a55c	-0.060704574
39	0xbd5af54e	-0.053456597
40	0x3cccd931	0.025005909
41	0xbc97e064	-0.018539615
42	0xbdc8a21c	-0.09796545
43	0x3d1de85e	0.03855168
44	0x3d021a54	0.03176339
45	0x3d667987	0.05626824
46	0xbc9fbe24	-0.019499846
47	0x3c58b960	0.013227791
48	0xbd213745	-0.03935935
49	0x3d772741	0.06034017
50	0xbd00ef58	-0.031478256
51	0x3d32ca00	0.043649673
52	0xbc70c09d	-0.01469436
53	0xbd2c9292	-0.042131968
54	0x3cc3624a	0.023850579
55	0x3b8c589e	0.004283025
56	0x3df2e0fb	0.11859318
57	0x3b661bf5	0.0035111879
58	0xbd24be1e	-0.040220372
59	0xbaf79c3c	-0.0018891166
60	0xbd27b3c5	-0.040942926
61	0x3c0bf040	0.008541167
62	0xbc9682d3	-0.018372929
63	0xbd0383ed	-0.032108236
64	0xbba6d7f3	-0.005091661
65	0xbd4bc905	-0.049752254
66	0xbc564934	-0.013078976
67	0x3d818cb9	0.06325669
68	0xbd018a10	-0.031625807
69	0x3d3c4c4c	0.0459712
70	0xbafdf838	-0.0019376343
71	0xbdc090dd	-0.094026305
72	0xbc6f61b3	-0.014610696
73	0x3d037d4e	0.03210192
74	0x3c9d9b1c	0.019239001
75	0x3d22e06f	0.039764818
76	0xbc92bb28	-0.017911509
77	0xbc999f5b	-0.018752744
78	0x3d004d71	0.031323854
79	0xbd3e350b	-0.046437304
80	0xba150e96	-0.00056860724
81	0x3ce95590	0.028483182
82	0x3d94a36c	0.07257733
83	0x3d5cd5e3	0.053914916
84	0x3da72f6e	0.08163343
85	0x3da8ac35	0.08235971
86	0x39c0b230	0.00036753854
87	0x3ce1bf75	0.027557114
88	0x3dd9bbe4	0.106315404
89	0xbcc0f5ab	-0.023554644
90	0xbd6cfed1	-0.0578602
91	0x3d475865	0.048668284
92	0x3c7db475	0.015484919
93	0x3c7aa677	0.015298477
94	0x3ccabbfc	0.024747841
95	0x3d073460	0.033008933
96	0xb9ad1990	-0.00033016177
97	0x3cd44298	0.02591066
98	0x3da31400	0.07962799
99	0x3c2f1310	0.010685697
100	0x3b1cbdec	0.0023916913
101	0x3c909f7c	0.017654173
102	0xbd81a234	-0.06329766
103	0x3c0386c4	0.008027736
104	0xbd21085f	-0.039314624
105	0x3c4738ee	0.012159569
106	0xbc1b2924	-0.009470258
107	0x3c585074	0.013202775
108	0x3d1cabee	0.038249902
109	0xbd064616	-0.032781683
110	0x3d0eebe0	0.034892917
111	0xbcbc576f	-0.02299091
112	0x3c6ce94d	0.01445992
113	0xbd895a55	-0.067066826
114	0x3da12253	0.07867875
115	0x3bc98c92	0.0061507905
116	0xbcbba982	-0.022907976
117	0x3ca62b25	0.020284245
118	0xbc71b4a6	-0.014752543
119	0x3c11658e	0.00887431
120	0xbc013a88	-0.00788749
121	0xbcfb3513	-0.030664956
122	0xbd2dc1ee	-0.042421274
123	0x3d78458e	0.060613208
124	0xbb4ec506	-0.003155054
125	0xbadf1284	-0.0017019068
126	0x3daaa175	0.08331577
127	0xbd6cba14	-0.057794645
128	0x3d109124	0.035294667
129	0xbd529c40	-0.051418543
130	0x3d1ca11c	0.038239583
131	0x3ce6b6a3	0.02816326
132	0x3cb8f04e	0.022575524
133	0xbd5a3a30	-0.05327815
134	0x3c4af8b8	0.012388401
135	0x3b270e26	0.002549061
136	0xbc693b4a	-0.014235327
137	0xbd54750c	-0.051869437
138	0x3d8eb4d4	0.06968084
139	0x3d96deee	0.07366739
140	0x3c90f616	0.017695468
141	0x3da4c09f	0.08044552
142	0xbcd7be8e	-0.02633598
143	0x3d7e7096	0.06211909
144	0x3c9717fc	0.018444054
145	0xbd2a1867	-0.04152718
146	0xbc58067a	-0.013185138
147	0x3d5395f9	0.051656697
148	0x3cfe017e	0.03100657
149	0x3be81902	0.0070830593
150	0x3d0a3a4a	0.033746995
151	0x3da118aa	0.078660324
152	0x3d701c55	0.05862077
153	0xbd10edc3	-0.035382997
154	0x3d1d1aab	0.03835551
155	0xb91760e0	-0.00014436571
156	0x3af5f8fc	0.001876622
157	0x3bbb4c42	0.0057158777
158	0x3cd4db3b	0.025983443
159	0x3de9b082	0.11410619
160	0x3c650959	0.013979279
161	0xbd955255	-0.07291094
162	0xbd5f6701	-0.05454159
163	0xbd085f20	-0.033293843
164	0x38037419	3.134096e-05
165	0x3d7fea92	0.062479563
166	0x3d51a2f2	0.051180787
167	0x3d6e084e	0.05811339
168	0x3c9bf542	0.019037846
169	0x3d05d065	0.032669444
170	0xbcc3e045	-0.023910651
171	0xbd7f1efd	-0.062285412
172	0xbd15a55a	-0.036534645
173	0xbd81f4d0	-0.063455224
174	0xbceefcb0	-0.029173225
175	0x3d31243e	0.043247454
176	0x3a2b5c78	0.0006536911
177	0x3db3e606	0.08784108
178	0x3ceef431	0.029169174
179	0xbd5f04d6	-0.05444797
180	0x3c9e60fa	0.019333351
181	0x3d16d1b9	0.0368211
182	0xbce8a1f9	-0.028397547
183	0x3c2c3bc0	0.010512292
184	0xbd95f5ff	-0.07322311
185	0x3c98196b	0.018566808
186	0xbab63ac4	-0.0013903012
187	0x3ca5195d	0.020153696
188	0xbd438300	-0.047732353
189	0xbc9ad390	-0.018899709
190	0x3d39796a	0.045281805
191	0x3cd16a14	0.025563277
192	0x3cd530b8	0.026024207
193	0x3bbaec99	0.005704474
194	0xbca7c654	-0.020480312
195	0x3dab5f64	0.08367804
196	0xbc6d9dff	-0.014503001
197	0xbc81cf52	-0.015845928
198	0xbd05fc6d	-0.032711435
199	0x3d3edc83	0.046597015
200	0x3d8ac87f	0.06776523
201	0x3ca6cdde	0.020361837
202	0xbbf26de9	-0.007398356
203	0x3c4a8a20	0.012362033
204	0xbd52e5ce	-0.05148869
205	0xbd14ed5e	-0.036359183
206	0x3d038ec6	0.03211858
207	0xbc98cfbd	-0.018653745
208	0xbd2353a8	-0.039874703
209	0x3d2b587b	0.04183243
210	0xbbf355c7	-0.007425997
211	0xbcae52c3	-0.021279698
212	0x3d1ac39f	0.037784215
213	0xbd26d37b	-0.040729027
214	0x3da362df	0.079778425
215	0x3c602048	0.013679571
216	0xbc93bb62	-0.018033687
217	0x3d51f59b	0.05125962
218	0xbd37c332	-0.044863887
219	0xbd0404fe	-0.032231323
220	0x3ce975f3	0.028498625
221	0x3cf0df09	0.029403226
222	0x3d6b6c26	0.057476185
223	0x3d246e75	0.040144403
224	0xbd7235ed	-0.05913346
225	0x3d9061f3	0.07049932
226	0x3b195000	0.002339363
227	0x3c1145da	0.008866752
228	0x3d1d9056	0.038467728
229	0x3d95a30f	0.073064916
230	0x3c04a3b2	0.008095669
231	0xb9daad60	-0.00041709375
232	0x3b865ad8	0.004100185
233	0x3b2543a8	0.0025217328
234	0xbd90dca4	-0.07073334
235	0xbd5e9d49	-0.054349218
236	0x3bbc0f77	0.0057391482
237	0xbd31c40f	-0.043399867
238	0xbcccaba5	-0.02498419
239	0xbc7d306f	-0.015453442
240	0xbcb06243	-0.02153123
241	0x3b5ce9ba	0.0033708648
242	0x3d95b0f3	0.07309141
243	0x3d8bb1ae	0.06820999
244	0xbcf495a2	-0.029856507
245	0x3d784c3a	0.06061957
246	0xb95416f6	-0.00020226449
247	0xbd6fc539	-0.058537696
248	0x3c80b4d9	0.015711235
249	0x3d6271ba	0.05528424
250	0x3c88d72b	0.016704163
251	0x3cc09357	0.023507757
252	0x3d9d2e13	0.076748036
253	0xbc4138fb	-0.01179337
254	0x3cda2ccb	0.026632687
255	0x3bbbdad6	0.0057328744

dist.linear.weight f4 [4, 512]
0	0xba3d6445	-0.0007224719
1	0xbbcc9c03	-0.006244184
2	0xb98b5f77	-0.00026583273
3	0xba5103e4	-0.0007973297
4	0x3b8364b6	0.0040098084
5	0xb9d91b5c	-0.0004140985
6	0x39992d18	0.00029216032
7	0x3b23405c	0.0024910187
8	0xbbf1368c	-0.007361239
9	0xbbcccce8	-0.0062500127
10	0xb993f0d1	-0.00028217447
11	0x3ad5420b	0.0016270293
12	0xbbe244d5	-0.006905178
13	0xbbc9a8d0	-0.006154157
14	0x3b86f99d	0.0041191117
15	0xb91bfdf0	-0.00014876551
16	0xbb92cd1a	-0.0044800164
17	0x39b1b67d	0.00033896035
18	0x38d1d01f	0.00010004662
19	0x3b0477ed	0.0020213083
20	0xb9c223ea	-0.00037029322
21	0xbbdeb1ae	-0.0067960834
22	0xbba175a4	-0.004927354
23	0xbb73489e	-0.003712214
24	0x3b379af5	0.0028015946
25	0xbbe35b17	-0.006938349
26	0xbbd2d510	-0.0064340904
27	0xbbb39020	-0.0054798275
28	0xb994471d	-0.00028281743
29	0x39826901	0.00024873766
30	0xbbd8a753	-0.0066117435
31	0xbbc2fc20	-0.005950466
32	0x396ae4c4	0.00022401201
33	0x3b9789fb	0.004624603
34	0x3aeae6af	0.0017921532
35	0xbbe6d72e	-0.0070446944
36	0xb949220a	-0.00019181534
37	0x390eb922	0.00013611143
38	0xba127450	-0.000558679
39	0xbbd36a5e	-0.006451889
40	0xb4e0cd4e	-4.187263e-07
41	0x3b64ff36	0.0034942157
42	0x399cccfd	0.00029907367
43	0x3b4ccf26	0.00312514
44	0xbb968c44	-0.0045943577
45	0xbbcf6338	-0.0063289665
46	0xbbab3609	-0.0052249474
47	0xbb8a053f	-0.004212051
48	0x39a7ce0a	0.00032006233
49	0xbbde6f1a	-0.0067881467
50	0xbbe1c60a	-0.006890063
51	0x3a2718a4	0.0006374216
52	0xbb9e0e10	-0.0048234537
53	0xb9ac63f9	-0.00032880882
54	0xbbe6308a	-0.0070248293
55	0xbbc17dfa	-0.00590491
56	0xbbe67483	-0.0070329322
57	0x3a1beeb0	0.0005948348
58	0xba56a680	-0.00081882626
59	0x3b9e163d	0.0048244284
60	0xbb9f4d3d	-0.0048615024
61	0x3a6c4053	0.00090122706
62	0xbbb82413	-0.0056195348
63	0x38a406b8	7.821381e-05
64	0xbb91bece	-0.0044477945
65	0x3a2dd897	0.00066317007
66	0xbb92af47	-0.004476461
67	0x3b2fc4e7	0.0026820244
68	0x3a84dedc	0.0010137218
69	0xbb3aa1a5	-0.0028477695
70	0xbafd91a6	-0.0019345775
71	0xbbc7174a	-0.0060757743
72	0xbbd876d9	-0.0066059646
73	0xb99f34bc	-0.00030366133
74	0xbbbe7d84	-0.0058133025
75	0xbbee18cd	-0.00726614
76	0x3b99ef09	0.0046976847
77	0x3b13a835	0.002253068
78	0x3b656378	0.0035001915
79	0x3b392145	0.002824859
80	0xb8e119eb	-0.00010733664
81	0x39b7a109	0.0003502446
82	0xbbbc15b6	-0.005739893
83	0x3908bff4	0.00013041479
84	0x3bc0f27a	0.0058882805
85	0xbbd683f4	-0.0065464918
86	0xbbb65c03	-0.005565168
87	0xb99989d4	-0.00029285124
88	0xbb4735ca	-0.003039705
89	0xbb8839a9	-0.0041572643
90	0x390556a6	0.00012716147
91	0x3b1b01f9	0.00236523
92	0x36d4d48c	6.342836e-06
93	0xbae8fc54	-0.0017775395
94	0xbbc275c4	-0.005934449
95	0xbbc30ea3	-0.0059526726
96	0xb9867b60	-0.00025650393
97	0xbbcead87	-0.006307307
98	0xb83e3285	-4.534658e-05
99	0xb9f9e76b	-0.000476654
100	0x3b96b40a	0.004599099
101	0x3a08b110	0.00052143726
102	0xbbf03c0a	-0.007331376
103	0x3ba48b46	0.0050214855
104	0x3924b367	0.00015707091
105	0x3a40ab3d	0.0007349735
106	0xbb9c5105	-0.0047704005
107	0xbbc1828d	-0.0059054554
108	0xbbc41ab4	-0.0059846286
109	0xba4ec89e	-0.00078881707
110	0xbbc6f670	-0.006071858
111	0x3ba0992d	0.0049010725
112	0x391a01b1	0.00014687215
113	0xbb9f8763	-0.0048684343
114	0xba69b913	-0.0008915823
115	0xbbccaf2f	-0.0062464694
116	0x39f2a0ca	0.00046277634
117	0xbbc8552c	-0.006113669
118	0x3a2afda8	0.0006522783
119	0x398e3cbf	0.0002712961
120	0xbbc86018	-0.006114971
121	0xb88e4136	-6.783234e-05
122	0xb8b86c47	-8.793972e-05
123	0xbbf8b340	-0.0075897276
124	0xbbdc242d	-0.0067181797
125	0xbbce6b82	-0.006299437
126	0xba099267	-0.0005247951
127	0xb93cd0c7	-0.00018006853
128	0x3974bc2e	0.00023339756
129	0x394c0fc9	0.00019460836
130	0xbbb7ca0b	-0.005608802
131	0xb9908a96	-0.00027569075
132	0xbbc20c16	-0.005921851
133	0x3b8fd34b	0.0043892018
134	0xbb27e89a	-0.002562082
135	0xbb98604e	-0.0046501523
136	0x3af70a69	0.0018847707
137	0x39ecdab0	0.00045176363
138	0x3b0db870	0.0021624826
139	0x39af40b8	0.0003342682
140	0x3b967312	0.004591354
141	0xba15bf62	-0.0005712417
142	0x3b862f69	0.004095007
143	0x39a7c47f	0.00031999123
144	0xbbd9f50d	-0.006651527
145	0x3b6c0ef3	0.0036019653
146	0x39f122c3	0.00045993002
147	0x399d9b44	0.00030061055
148	0xbb0a4dd8	-0.0021103527
149	0x39dba30c	0.00041892414
150	0x3b91f4fa	0.0044542523
151	0xbbc2f93b	-0.0059501207
152	0xbbc634b1	-0.006048762
153	0xbbde4a4d	-0.0067837597
154	0x3b77fbd3	0.0037839308
155	0x3bca3639	0.0061710146
156	0x3a7c486c	0.0009623829
157	0xbbdfaf72	-0.0068263346
158	0x3b7a7f4e	0.0038222852
159	0xbb9ac1cf	-0.004722811
160	0xbbd876ba	-0.00660595
161	0xb9b17169	-0.00033844568
162	0xbbd22248	-0.006412778
163	0xbb9f1f47	-0.0048560235
164	0xb995fd46	-0.00028608198
165	0x3ba99d80	0.005176246
166	0xbbc347a7	-0.0059594694
167	0xb9565da1	-0.0002044351
168	0xbbb96093	-0.0056572645
169	0xbbce6a22	-0.006299273
170	0xb8d13015	-9.9748526e-05
171	0x3a43f78b	0.00074755464
172	0x386b1b25	5.6053646e-05
173	0xbbc05c56	-0.0058703823
174	0x3a9825a5	0.0011607899
175	0x3bae4381	0.0053181057
176	0xbbc0ca07	-0.0058834585
177	0x396050c7	0.00021392397
178	0x3bbf299b	0.005833817
179	0x3a84317f	0.0010085552
180	0x3b93b0eb	0.0045071742
181	0x3b29815c	0.0025864458
182	0xbbc0edd6	-0.0058877273
183	0x394afb06	0.00019357735
184	0xbb9af9d1	-0.0047294875
185	0xbbdc4ed0	-0.0067232624
186	0x3b1845a0	0.002323486
187	0x38bc9860	8.9929206e-05
188	0xb9a085bb	-0.00030617215
189	0xbb92c386	-0.0044788746
190	0xb66561d4	-3.4180603e-06
191	0xbbc7c21a	-0.0060961368
192	0x3b9aa4fd	0.004719375
193	0xb97dd04e	-0.0002420556
194	0xbbbf2f20	-0.005834475
195	0xbbb11554	-0.005404154
196	0x396980cd	0.00022268594
197	0xbbd73edd	-0.006568773
198	0xbbced7bb	-0.006312338
199	0xbbdd9fd8	-0.0067634396
200	0x3896c561	7.189322e-05
201	0xbb9b556a	-0.0047404068
202	0xbbd8c949	-0.006615792
203	0xbbb5162b	-0.0055263243
204	0xb9837a3f	-0.00025077348
205	0xbbc78e32	-0.006089949
206	0xb9921c54	-0.00027868396
207	0xbba90a06	-0.0051586656
208	0xbbc6de72	-0.006068998
209	0xbbd5ed5d	-0.00652854
210	0x3b53d9bb	0.0032325822
211	0x3a4f800c	0.0007915504
212	0xbba6aca2	-0.0050864974
213	0xbbc40b99	-0.005982828
214	0x3ba318bc	0.004977314
215	0xb97de03e	-0.00024211497
216	0xbba22b44	-0.0049490053
217	0xbb816cf1	-0.0039497544
218	0xba28abd3	-0.0006434295
219	0xbbc10944	-0.005890997
220	0x39d7965c	0.00041120022
221	0x3b85b5c5	0.0040805065
222	0xbbd9fda8	-0.0066525526
223	0x3a12e2cf	0.0005603255
224	0xb9932124	-0.00028062717
225	0x3a2e0bad	0.0006639313
226	0x386efd85	5.697973e-05
227	0x3b715570	0.0036824606
228	0xb95f995b	-0.00021324067
229	0x39ac52ef	0.00032868187
230	0xbbda3eee	-0.006660334
231	0x39b2575e	0.000340159
232	0xb89f0468	-7.5825315e-05
233	0xbbd29c50	-0.0064273253
234	0xbbc18ff7	-0.0059070545
235	0xb9e6138c	-0.00043883582
236	0x3a5304f7	0.0008049751
237	0x3b857e7b	0.0040739155
238	0xb9806963	-0.00024492582
239	0xbbd5c3cd	-0.0065235854
240	0xbbc0e604	-0.005886795
241	0xbb68bece	-0.003551412
242	0x398eae3b	0.00027214162
243	0xbaad98ab	-0.0013244351
244	0x3b4243b7	0.0029642412
245	0x395a67de	0.00020828794
246	0x39c87829	0.000382365
247	0x3b6c9a82	0.0036102836
248	0x3b8d0234	0.004303241
249	0xbbd217d0	-0.00641153
250	0xbb031784	-0.002000303
251	0xb85dca4c	-5.287891e-05
252	0xba21d273	-0.0006173022
253	0xba583bf4	-0.000824868
254	0xbbc8a238	-0.0061228536
255	0xb7a10689	-1.9195739e-05

dist.linear.bias f4 [4]
0	0xbbe26dfc	-0.006910084
1	0xbbe33305	-0.0069335722
2	0x3be223d0	0.006901242
3	0x3be35596	0.006937693
