experiment2/checkpoint/test/cifar10/a2c/lr0.0007_max_steps29_seed1_window5_cifar_model_ppo_ex2_agent1.pt (torch_old, 511346 bytes, 13 tensors)

base.main.0.weight f4 [6, 4, 5, 5]
0	0xbe3f5338	-0.18684089
1	0x3e38f331	0.1806152
2	0xbd1fda68	-0.039026648
3	0xbce43720	-0.027858317
4	0x3e22d275	0.15900595
5	0xbd9d7d8a	-0.0768996
6	0xbdff72f5	-0.12473098
7	0xbda76954	-0.081743866
8	0xbe1c06d7	-0.15236984
9	0xbe9b5a76	-0.30342454
10	0xbdb0da49	-0.086353846
11	0xbe5fad96	-0.21843562
12	0xbd7977f3	-0.060905408
13	0xbdf4170c	-0.11918458
14	0xbd77f621	-0.06053746
15	0x3e443835	0.19162066
16	0x3e6c1655	0.23055394
17	0xbd8666e8	-0.065625966
18	0xbe769c80	-0.24083138
19	0xbd8e99c6	-0.06962924
20	0xbd223bed	-0.03960793
21	0xbe59dacd	-0.21274872
22	0xbe0258f9	-0.12729253
23	0xbe1e7f1c	-0.15478176
24	0xbe30ccf9	-0.17265691
25	0x3e1e246d	0.15443583
26	0xbd1e8b66	-0.03870716
27	0x3ec370a0	0.38171864
28	0x3e0428b2	0.12906149
29	0x3e22919d	0.1587586
30	0xbb70a7fb	-0.0036721218
31	0x3e95b17a	0.29236966
32	0x3cbb9059	0.022895979
33	0x3db2120d	0.08694849
34	0x3e0e7e0b	0.13915269
35	0xbd597ead	-0.053099323
36	0x3e32ffc1	0.17480375
37	0xbdedcada	-0.116109565
38	0x3e5ee144	0.2176562
39	0xbc0c2057	-0.008552632
40	0x3d2cd55f	0.042195674
41	0x3ad1840f	0.0015984791
42	0x3d90497d	0.07045267
43	0x3de99c95	0.11406819
44	0x3e700d6e	0.23442623
45	0xbe868b89	-0.26278332
46	0x3e0599b9	0.13046922
47	0x3e5fc5eb	0.21852843
48	0xbd8f10d8	-0.069856346
49	0x3db422dc	0.087957114
50	0x3d53cf32	0.05171127
51	0xbe94a4b3	-0.29031906
52	0x3e129a3a	0.14316645
53	0x3dd56239	0.10419125
54	0x3c203fbd	0.009780821
55	0x3e67b211	0.2262652
56	0x3d4160b5	0.047211368
57	0x3c98fa01	0.018673899
58	0xbdbebe8c	-0.09313688
59	0x3ea10ea6	0.31456488
60	0xbd0873c1	-0.033313517
61	0x3e356e74	0.17717916
62	0x3c64c91c	0.013963964
63	0x3e6b933b	0.23005383
64	0x3de5cc3b	0.112205945
65	0x3c4dda9f	0.01256433
66	0x3d1eef34	0.03880234
67	0x3e2afa80	0.1669712
68	0x3dcf077e	0.10108851
69	0xbc54f87d	-0.012998697
70	0xbdb61137	-0.08890002
71	0x3d9fc4a0	0.07801175
72	0xbe3b9fec	-0.18322724
73	0x3e151b36	0.14561161
74	0xbcec621e	-0.02885538
75	0xbde28cc0	-0.11062002
76	0x3de9285b	0.1138465
77	0x3e501e9e	0.2032418
78	0xbd236325	-0.039889473
79	0x3c4409fc	0.011965271
80	0x3ce5d790	0.02805689
81	0x3dd81152	0.105501786
82	0xbd19798b	-0.037469428
83	0xbce79dfb	-0.028273573
84	0x3e034b44	0.1282168
85	0x3d7d1198	0.061784357
86	0x3d0a89a3	0.033822667
87	0x3d3e0634	0.046392635
88	0x3e475900	0.19467545
89	0x3ba72e13	0.005101928
90	0xbdadfd5d	-0.08495591
91	0x3da1e693	0.07905307
92	0xbe297bb0	-0.1655109
93	0xbd694e56	-0.056959473
94	0x3d8ef040	0.06979418
95	0x3e08b758	0.1335119
96	0xbdbe2f7a	-0.09286399
97	0xbe4d24e8	-0.2003361
98	0x3e0d37c2	0.13790801
99	0x3c0169c3	0.007898751
100	0x3da160e4	0.078798085
101	0xbed3ea0c	-0.413895
102	0xbe5f51af	-0.21808504
103	0xbd0cd479	-0.034382317
104	0x3d5e9069	0.05433694
105	0x3e18eec3	0.1493483
106	0xbd8f8d74	-0.07009402
107	0x3e04b163	0.12958293
108	0x3e83d66e	0.25749534
109	0x3c945d83	0.018110996
110	0x3e4e4465	0.20143278
111	0xbd3aaeb3	-0.045576762
112	0xbdea4262	-0.11438443
113	0xbcaffcec	-0.021482907
114	0xbe870388	-0.26369882
115	0xbdc81821	-0.09770227
116	0x3e34a61a	0.17641488
117	0x3d4eef6d	0.050521303
118	0xbe40399f	-0.1877198
119	0x3e1ca3a2	0.15296796
120	0xbe047d87	-0.1293851
121	0x3df56070	0.119812846
122	0xbd5b694a	-0.05356721
123	0x3e81eb4e	0.25374836
124	0xbc23aeb5	-0.009990384
125	0xbca109c2	-0.019657973
126	0x3db73298	0.08945197
127	0x3e414cba	0.18876925
128	0xbd9912fa	-0.074743226
129	0xbddbca8c	-0.10731992
130	0x3e670170	0.22559142
131	0xbc6e9f35	-0.014564325
132	0x3e1e9946	0.15488157
133	0x3d9a392f	0.07530438
134	0xbb6d8f1f	-0.0036248637
135	0xbd6c3599	-0.057668302
136	0xbe832acb	-0.25618586
137	0xbe4cf326	-0.20014629
138	0x3d8865b5	0.06660024
139	0xbd8d2d92	-0.068934575
140	0xbe0a6fc2	-0.13519195
141	0xbd91a0e2	-0.07110764
142	0xbd4b0541	-0.049565557
143	0x3cee3ff7	0.029083235
144	0xbdb9c584	-0.09070876
145	0xbe5070d6	-0.20355543
146	0x3e228df3	0.15874462
147	0xbb01890a	-0.001976552
148	0x3dd36430	0.103218436
149	0x3e7d0e95	0.24712594
150	0xbe58ecbf	-0.21184061
151	0xbe2ebe6c	-0.17064828
152	0x3e7b8dda	0.24565831
153	0x3e24f9d0	0.16110921
154	0x3e2fd0f2	0.1716955
155	0x3d592ac6	0.053019308
156	0xbdb111e7	-0.08645993
157	0x3e23828e	0.15967771
158	0x3e5c23df	0.21498059
159	0xbe4752f4	-0.19465238
160	0x3dd6ee7c	0.10494706
161	0xbdc7cbc4	-0.09755662
162	0xbe0292f8	-0.12751377
163	0xbc6978da	-0.014250005
164	0x3c97e985	0.018543968
165	0x3c4a699e	0.012354283
166	0x3a9dca05	0.0012038356
167	0xbe65dfe4	-0.22448689
168	0xbc8081a3	-0.015686816
169	0x3e397b3e	0.1811342
170	0xbd40ab07	-0.047038104
171	0x3e5e64ca	0.21718135
172	0x3db61169	0.088900395
173	0x3e2d6df6	0.16936478
174	0x3d457704	0.048209205
175	0xbe056688	-0.13027394
176	0x3e10b276	0.14130577
177	0xbe2f6d76	-0.171316
178	0xbd839698	-0.06425208
179	0x3c20ecd6	0.009822091
180	0x3d4f339a	0.05058632
181	0xbd865a17	-0.06560152
182	0x3e47d7c5	0.19515903
183	0xbdb8e2c1	-0.09027625
184	0x3c1ddf6b	0.0096357865
185	0x3db442aa	0.08801778
186	0xbc6d55b9	-0.01448577
187	0xbdb6ae97	-0.08920019
188	0xbd046105	-0.032319088
189	0xbd580bdd	-0.05274569
190	0xbe6fccd4	-0.2341798
191	0x3e45cb76	0.19315895
192	0xbdd59039	-0.10427899
193	0x3db28c66	0.08718185
194	0x3e3d7730	0.18502498
195	0xbc80802d	-0.015686119
196	0xbe5ca7a0	-0.21548319
197	0x3e15906b	0.14605872
198	0xbd6825b4	-0.05667658
199	0xbe15898a	-0.14603248
200	0xbe07bb4e	-0.13255045
201	0xbd6ffe75	-0.05859228
202	0x3c69bfad	0.0142668905
203	0x3ea5bbdf	0.32369897
204	0xbdd137c7	-0.10215717
205	0x3ee7cda2	0.45274073
206	0xbdf66e66	-0.120327756
207	0x3cc2152f	0.023691742
208	0xbc64c91a	-0.013963962
209	0xbdacfd92	-0.08446802
210	0xbe81c829	-0.25348023
211	0xbdf35b00	-0.11882591
212	0xbe3b0831	-0.18264844
213	0xbe0cb327	-0.13740216
214	0x3e209ee9	0.1568562
215	0xbe1164be	-0.14198586
216	0x3e3041ca	0.17212597
217	0xbe7d55db	-0.24739783
218	0xbe139ae2	-0.14414552
219	0x3ec60b69	0.3868058
220	0x3e0d5cdd	0.13804956
221	0x3da8d4f0	0.082437396
222	0x3e61b83f	0.2204294
223	0x3e63531d	0.22199674
224	0xbe2caea4	-0.16863495
225	0x3e568aa6	0.20951328
226	0xbd5943d2	-0.053043194
227	0x3d587f5b	0.05285583
228	0x3e59f9af	0.21286653
229	0xbde39353	-0.11112084
230	0xbde5292c	-0.111894935
231	0x3d33f086	0.043930553
232	0x3dfe8296	0.12427251
233	0xbe380f84	-0.17974669
234	0xbe181e44	-0.14855295
235	0xbb06f906	-0.0020595207
236	0x3da7e3b8	0.08197731
237	0xbd41229b	-0.047152143
238	0xbe94d529	-0.29068878
239	0x3bc83e4a	0.006110941
240	0xbccee1b6	-0.025254112
241	0xbded614e	-0.11590825
242	0x3dd3cbc5	0.103416
243	0x3e487856	0.19577155
244	0x3d03b1c4	0.032151952
245	0x3d7aa851	0.061195675
246	0x3d009987	0.031396415
247	0xbdf54f00	-0.11977959
248	0x3d01a65c	0.031652793
249	0xbddeb8fe	-0.10875128
250	0x3d3a274d	0.045447636
251	0x3db92520	0.09040284
252	0x3d39e9e2	0.045389064
253	0x3d8354eb	0.06412681
254	0xbd602198	-0.054719537
255	0x3db7aadd	0.089681365

base.main.0.bias f4 [6]
0	0xbb1a7eea	-0.0023574182
1	0xbbaccfff	-0.0052738185
2	0x3c316dc8	0.010829397
3	0x3b7e132a	0.0038768747
4	0xbb211b36	-0.002458287
5	0x3ac8f260	0.0015331022

base.main.2.weight f4 [16, 6, 5, 5]
0	0x3e047930	0.12936854
1	0xbe14e2d4	-0.14539653
2	0x3cec1390	0.028817922
3	0x3d25c17a	0.040467717
4	0x3e414a78	0.18876064
5	0x3c78704c	0.015163492
6	0x3d7a0fae	0.06105011
7	0xbd5bc426	-0.05365386
8	0xbdc687b3	-0.09693851
9	0xbcd5cfbc	-0.026100032
10	0x3dcb3b51	0.09923423
11	0x3c15e94d	0.0091498615
12	0xbe03c288	-0.12867177
13	0x3d88893c	0.066668004
14	0x3e6b2be0	0.22965956
15	0x3d8e51fd	0.06949232
16	0xbd2a3009	-0.041549716
17	0xbe408294	-0.18799812
18	0x3d3d1569	0.046162996
19	0xbd926d63	-0.0714977
20	0x3e8f1733	0.27947387
21	0xbd74886d	-0.05970042
22	0x3d972f1a	0.07382031
23	0x3ea016e2	0.31267458
24	0x3dff23ad	0.124579765
25	0xbdf9ec0e	-0.12203227
26	0x3d70ecd6	0.058819614
27	0xbe522a87	-0.20524035
28	0x3bf20a9d	0.007386519
29	0xbe263b74	-0.16233617
30	0x3d9d8e6c	0.076931804
31	0x3d524994	0.0513397
32	0xbb67bd8d	-0.0035360784
33	0x3e6040b8	0.21899688
34	0x3d848fcd	0.0647274
35	0x3c8f5c7c	0.017500155
36	0xbdcb6ffb	-0.09933468
37	0x3dc0a99d	0.09407351
38	0x3ca6fc11	0.020383867
39	0xbc90679b	-0.017627528
40	0x3db44a03	0.08803179
41	0xbd69f5b0	-0.05711907
42	0x3e302f44	0.1720553
43	0xbd4fa212	-0.05069167
44	0x3e2f3bc9	0.1711265
45	0x3ce6b66d	0.02816316
46	0x3da33f8e	0.079711065
47	0xbcf9a68e	-0.030474927
48	0x3e262eac	0.16228741
49	0x3e0f2d71	0.13982178
50	0x3e1c7821	0.152802
51	0x3dcf545c	0.10123512
52	0xbd9b7888	-0.07591349
53	0x3d9a016b	0.07519802
54	0x3d6140c5	0.05499341
55	0xbe79e55f	-0.24403904
56	0xbd9eeaf7	-0.0775966
57	0xbd5a17b9	-0.05324528
58	0xbd505ea0	-0.05087149
59	0x3c0d5e8e	0.008628501
60	0x3ddb2b7e	0.10701655
61	0xbe16e305	-0.14735039
62	0xbde74999	-0.112933345
63	0xbd9ef2d0	-0.077611566
64	0x3da603ba	0.081061795
65	0x3e16ec61	0.14738609
66	0xbde6c382	-0.11267759
67	0x3daea86d	0.085282184
68	0x3bd9a524	0.0066420007
69	0x3e342062	0.17590478
70	0x3dcee745	0.10102705
71	0xbd2ea6bc	-0.04263948
72	0xbe1c93db	-0.15290777
73	0xbca01868	-0.019542888
74	0xbddfebe1	-0.10933662
75	0xbd38fc62	-0.045162566
76	0xbdeb8a49	-0.11500985
77	0x3d9eb733	0.07749786
78	0x3e94fe16	0.29100102
79	0xbdd42f94	-0.10360637
80	0x3d8b0b59	0.06789274
81	0x3dd19a6f	0.10234534
82	0x3dd76a1f	0.10518288
83	0xbbbd146b	-0.0057702563
84	0x3da29567	0.079386525
85	0xbde14b7e	-0.11000727
86	0x3d2c3a73	0.04204793
87	0x3d8778d0	0.0661484
88	0x3d924ae6	0.07143192
89	0xbd75a3e8	-0.059970766
90	0xbd32c334	-0.04364319
91	0x3d634dc5	0.05549409
92	0x3de7189f	0.11283993
93	0x3dc86c52	0.097862855
94	0x3df0efc3	0.11764481
95	0x3b96745f	0.0045915092
96	0xbd11a4b8	-0.03555748
97	0x3e1737b9	0.1476735
98	0xbd32f38d	-0.0436893
99	0xbd02d8bd	-0.03194498
100	0xbc4b191f	-0.012396126
101	0xbda87cb7	-0.082269125
102	0x3dc59693	0.096478604
103	0xbc8de1ca	-0.017319579
104	0x3d43bc6a	0.047787108
105	0x3e6a952d	0.22908469
106	0xbdd5c80a	-0.10438545
107	0x3e72ad2f	0.23698877
108	0xbe3a4450	-0.18190122
109	0xbdc2f428	-0.09519225
110	0x3d2cd46f	0.04219478
111	0x3e658e83	0.22417645
112	0xbd9b1d06	-0.07573895
113	0x3e0b8246	0.13623914
114	0x3e1af14e	0.15131113
115	0x3db46fe7	0.08810406
116	0x3dd7d80d	0.10539255
117	0x3d6f14dd	0.058369506
118	0xbe016452	-0.12635925
119	0x3d82a035	0.06378213
120	0x3e095cd3	0.13414316
121	0xbd19a032	-0.03750629
122	0xbd071418	-0.032978147
123	0xbdce9609	-0.10087211
124	0xbd515453	-0.05110581
125	0x3df921ba	0.12164636
126	0x3e1c2fee	0.15252659
127	0x3d960442	0.07325031
128	0x3d08cbd5	0.033397514
129	0x3d9d64e0	0.07685256
130	0x3defedd3	0.11715283
131	0xbb907faf	-0.0044097523
132	0x3baf5970	0.005351238
133	0xbc877b71	-0.016538354
134	0xbdbe19fa	-0.092822984
135	0x3c8241e2	0.015900556
136	0x3dba2025	0.09088162
137	0xbe35d606	-0.17757425
138	0x3e8c8554	0.2744547
139	0x3ca37b3d	0.019956226
140	0x3e6cfbd0	0.23142934
141	0xbdbead88	-0.09310442
142	0xbe644b98	-0.22294462
143	0x3e298932	0.16556242
144	0xbd8d9967	-0.06914025
145	0x3e17b35e	0.14814517
146	0x3d699e03	0.057035457
147	0x3e096789	0.13418402
148	0xbd3d1dc4	-0.046170965
149	0x3b5898f5	0.0033050154
150	0xbb354e26	-0.0027664988
151	0xbd8535b0	-0.06504381
152	0x3c9c4f92	0.01908091
153	0x3cfb813d	0.030701274
154	0xbe3f4f8f	-0.18682693
155	0x3e1c6c93	0.15275793
156	0xbc93b3e2	-0.01803011
157	0x3e426c3d	0.18986602
158	0xbc8bb5bf	-0.017054437
159	0xbdabdfd2	-0.083923
160	0xbe15d650	-0.14632535
161	0xbd24fe7a	-0.04028175
162	0xbbeab74e	-0.007162965
163	0x3de19a76	0.11015789
164	0x3c069615	0.008214493
165	0x3e1ce3d4	0.15321285
166	0x3da4fed9	0.08056421
167	0x3d2604a1	0.04053176
168	0x3dfbbc8a	0.1229182
169	0x3e049867	0.12948762
170	0x3d866ddc	0.06563923
171	0xbc80bed7	-0.015716
172	0x3e6caa3e	0.23111817
173	0xbcadbf15	-0.02120928
174	0xbd776e92	-0.060408182
175	0x3dd97ae2	0.10619141
176	0xbe3c2ecf	-0.18377231
177	0xbbe245d0	-0.006905295
178	0x3e08f907	0.13376246
179	0xbd6942f8	-0.056948632
180	0x3d830791	0.063979276
181	0xbdabe4a7	-0.08393221
182	0x3e2faead	0.17156477
183	0xbd88662e	-0.06660114
184	0x3d971f9d	0.07379077
185	0xbc81ddbe	-0.015852805
186	0x3d00e5e1	0.03146923
187	0xbb2ace40	-0.0026062876
188	0x3c17d112	0.009266155
189	0x3e197215	0.14984925
190	0xbd9dcd4a	-0.077051714
191	0x3ddc4018	0.107544124
192	0xbdb4efd2	-0.088348046
193	0x3d013c04	0.031551376
194	0x3e72af78	0.23699749
195	0xbe0e77b3	-0.13912849
196	0xbc71e612	-0.014764326
197	0x3df3d06e	0.11904989
198	0x3d102e26	0.03520026
199	0x3c41313a	0.011791522
200	0xbd001a8f	-0.03127533
201	0x3cffc7dd	0.031223232
202	0x3e7a7e00	0.24462128
203	0x3df96475	0.12177364
204	0xbd2dcd90	-0.042432368
205	0x3cb85c93	0.02250508
206	0x3e89ba9d	0.26900187
207	0x3cbd8a28	0.023137167
208	0x3deea463	0.11652448
209	0xbc2f060a	-0.010682592
210	0x3e5960a1	0.21228267
211	0xbde08ed3	-0.109647416
212	0xbd8b0a40	-0.067890644
213	0xbcee535a	-0.02909248
214	0x3d812bac	0.06307158
215	0xbc85e1ae	-0.016342964
216	0x3d475888	0.048668414
217	0xbdb58ff4	-0.088653475
218	0x3be0f369	0.0068649543
219	0xbcdc1a81	-0.026868107
220	0xbda5758f	-0.08079063
221	0x3ca7d514	0.020487346
222	0xbdca4395	-0.098761715
223	0x3cdf1885	0.027233372
224	0xbd6bcceb	-0.057568472
225	0xbd6e3b14	-0.05816181
226	0xbd2665b6	-0.040624343
227	0xbd6713b0	-0.05641526
228	0xbd533b7d	-0.051570404
229	0x3da81e69	0.08208925
230	0xbdf0a23f	-0.11749696
231	0xbe0450ff	-0.12921523
232	0x3e636445	0.22206219
233	0xbd165f2c	-0.036711857
234	0x3bff8b4e	0.007798589
235	0x3ceac9a2	0.0286606
236	0x3e45aee2	0.19304994
237	0x3e03ac2f	0.12858652
238	0xbd502ae5	-0.050822157
239	0xbc134a25	-0.008989845
240	0xbc8c0deb	-0.01709648
241	0xbe0f0149	-0.13965334
242	0x3ae2453c	0.0017263065
243	0xbe55bfc7	-0.20873939
244	0x3df46c66	0.11934738
245	0x3c8416c7	0.016124142
246	0xbd5c086e	-0.053718977
247	0xbbae6bd8	-0.0053229146
248	0xbd038e88	-0.03211835
249	0x3e6fb45e	0.23408648
250	0x3e3ed3a9	0.1863543
251	0x3d413d57	0.04717764
252	0xbddee9a2	-0.10884406
253	0x3dec5df3	0.11541357
254	0x3e37b37d	0.17939563
255	0x3e360cce	0.17778322

base.main.2.bias f4 [16]
0	0xbb2caca8	-0.0026348028
1	0x3c987a39	0.018612968
2	0x39b80618	0.00035099755
3	0x3c319034	0.010837603
4	0x3aa606d8	0.0012666835
5	0x3b79f54d	0.0038140595
6	0xbc3ff75a	-0.011716688
7	0x3ab01fec	0.0013437248
8	0xbc08b068	-0.00834284
9	0xbc8690fc	-0.016426556
10	0xbc404027	-0.011734045
11	0xbc41b4f6	-0.01182293
12	0xbc3b6faa	-0.011440197
13	0x3b8685dc	0.0041053127
14	0xbc570f9c	-0.01312628
15	0xbb6c1ec2	-0.0036029075

base.main.4.weight f4 [6, 16, 5, 5]
0	0xbd2f91d6	-0.04286369
1	0x3d3cebff	0.0461235
2	0xbe1e37e2	-0.15451005
3	0xbdb7a553	-0.0896708
4	0x3bdc208b	0.0067177466
5	0x3bc79884	0.0060911793
6	0x3e3ac92e	0.18240806
7	0xbd3fc5f2	-0.046819635
8	0x3d6e861d	0.05823337
9	0xbcb26730	-0.02177772
10	0x3da6da10	0.08147061
11	0xbd15133e	-0.036395304
12	0xbb6a34af	-0.0035736968
13	0x3ab1f548	0.0013577128
14	0x3c2a23ce	0.010384513
15	0xbdaf509e	-0.085602984
16	0x3dc185b6	0.094493315
17	0x3ca683e2	0.020326559
18	0x3de1727a	0.11008163
19	0xbd9d5509	-0.07682235
20	0x3b99181d	0.004672064
21	0x3d7d6559	0.06186423
22	0x3d1310f4	0.03590484
23	0x3db58a3d	0.088642575
24	0xbdb5492a	-0.088518456
25	0xbd5e1f3a	-0.054229
26	0xbc55269e	-0.013009695
27	0xbe680e1d	-0.22661634
28	0x3da6b4ee	0.08139978
29	0xbd7d13fc	-0.061786637
30	0x3d125ae6	0.03573122
31	0xbbab3f51	-0.0052260538
32	0x3d59eb99	0.0532032
33	0xbce8dd74	-0.02842591
34	0x3c090b02	0.008364441
35	0xbd87541f	-0.06607842
36	0xbdc903e0	-0.09815192
37	0xbd8349ed	-0.064105846
38	0x3d6d9fb5	0.058013637
39	0xbd1496ad	-0.036276508
40	0xbe01f4a1	-0.12690975
41	0xbda26ac0	-0.07930517
42	0x3d7ab87e	0.0612111
43	0x3d10f072	0.035385557
44	0xbc86b673	-0.01644442
45	0xbc8c8dd9	-0.017157482
46	0xbd88c709	-0.06678588
47	0x3d0da0d2	0.0345772
48	0xbdd89fdb	-0.10577365
49	0xbc5ca5ef	-0.013467296
50	0xbdd2dc28	-0.10295898
51	0x3c9ae406	0.018907558
52	0xbd68fbba	-0.05688069
53	0xbd53648b	-0.051609557
54	0xbb92a8c3	-0.0044756844
55	0xbdba50bb	-0.09097429
56	0x3d77d506	0.06050589
57	0xbd4cd6ce	-0.05000954
58	0x3c6191eb	0.0137677
59	0x3ccada22	0.024762217
60	0xbd67dc6b	-0.05660669
61	0x3db4ce1c	0.08828375
62	0xbd96b6a6	-0.07359056
63	0x3dfed036	0.12442057
64	0xbd32335e	-0.04350602
65	0x3da6f1bf	0.08151578
66	0xbc70027e	-0.014649032
67	0xbdcd7f47	-0.10034042
68	0xbdc5a4c9	-0.09650571
69	0x3d2ae199	0.041719053
70	0xbbc3f7b9	-0.0059804586
71	0xbd403ca3	-0.046932828
72	0xbc96a9d8	-0.018391535
73	0xbe18f6fd	-0.14937969
74	0xbb975350	-0.004618086
75	0xbc3daaa5	-0.011576329
76	0xbe3a4d64	-0.18193585
77	0xbac38992	-0.0014918318
78	0xbc885b35	-0.016645053
79	0x3dff8166	0.12475853
80	0xba3a661c	-0.00071105524
81	0xbd42bb2c	-0.047541782
82	0x3d7c8d5d	0.061658252
83	0x3e007d59	0.12547816
84	0xbbe974fa	-0.0071245404
85	0xbcdf253d	-0.027239436
86	0xbd7018c1	-0.058617357
87	0xbd0a8e0f	-0.033826884
88	0x3d25894c	0.04041414
89	0x3dacbaac	0.08434042
90	0xbd63b0ad	-0.055588413
91	0xbdbdb994	-0.09263912
92	0x3d271768	0.040793806
93	0x3c52ea3f	0.012873231
94	0x3d87c988	0.06630236
95	0x3d9d0628	0.0766719
96	0x3d92dcc8	0.07171017
97	0xbd5758aa	-0.05257479
98	0xba0c6900	-0.00053562224
99	0x3d05bd84	0.03265144
100	0xbc762920	-0.015024453
101	0x3b54d4cd	0.0032475472
102	0x3d769156	0.060197197
103	0xbc8cb988	-0.017178312
104	0xbc56e732	-0.013116645
105	0xbdaf49c7	-0.08558994
106	0xbd3e2c07	-0.046428706
107	0xbd7b5a2d	-0.061365295
108	0xbc9fddef	-0.019515006
109	0x3e01b28b	0.12665765
110	0x3c8edc46	0.017439019
111	0x3d15fcbb	0.036617976
112	0x3c43e750	0.011957005
113	0x3cf17cd4	0.029478468
114	0xbdf33cd5	-0.11876837
115	0xbc2c6b59	-0.010523641
116	0xbdac88d6	-0.08424537
117	0xbdf6c211	-0.12048734
118	0xbd86d0f9	-0.06582827
119	0x3d5cdc85	0.05392124
120	0xbd8206f8	-0.063489854
121	0x3d89c627	0.06727248
122	0x3d0c099e	0.03418886
123	0xbc85e74b	-0.01634564
124	0xbda53eaf	-0.080685966
125	0xbcdf28d0	-0.02724114
126	0xbdab68c9	-0.083695956
127	0x3ca02d53	0.019552862
128	0x3dc9afec	0.098480076
129	0xbc49984f	-0.01230438
130	0xbe0148ff	-0.12625502
131	0x3d64ff71	0.05590767
132	0x3ce131ee	0.027489629
133	0x3d858bfc	0.065208405
134	0xbceeb1dd	-0.029137546
135	0x3da819d2	0.0820805
136	0xbd8e6b04	-0.06954005
137	0xbd535e95	-0.051603872
138	0xbba05bd2	-0.0048937583
139	0xbd71ab4f	-0.059001263
140	0x3c36c3d0	0.011155084
141	0xbd2fad13	-0.042889666
142	0xbd9bb5be	-0.07603024
143	0xbe163021	-0.14666797
144	0x3d958cbd	0.07302234
145	0x3d9ba5c3	0.07599976
146	0xbdc05956	-0.093920395
147	0x3db20d43	0.08693936
148	0x3cae40e8	0.021271184
149	0xbdecee86	-0.11568932
150	0xbc79e709	-0.015252837
151	0xbddae0c2	-0.106874004
152	0x3e19f8af	0.15036272
153	0xbd334dae	-0.043775253
154	0xbd61a4b8	-0.05508873
155	0x3d8441c3	0.064578556
156	0xbd21390e	-0.039361052
157	0xbe39179b	-0.18075411
158	0xbd93e001	-0.0722046
159	0x3d13cb58	0.036082596
160	0x3d3710dc	0.044693813
161	0x3c7b5a8a	0.01534141
162	0xbb685bc6	-0.0035455092
163	0xbcf262a4	-0.029588051
164	0x3d5e3890	0.05425316
165	0xbc1e9bfa	-0.009680742
166	0xbc7a6da8	-0.015284933
167	0x3d623bd6	0.055232845
168	0xbdb42759	-0.087965675
169	0x3cf74979	0.030186402
170	0x3e1e869a	0.15481034
171	0x3e006fbd	0.12542625
172	0x3d5a70e2	0.05333031
173	0xbc8ddde9	-0.01731773
174	0xbd2c0d07	-0.04200461
175	0x3d0dcb62	0.03461779
176	0x3dcbf775	0.09959308
177	0x3d973535	0.07383195
178	0xbd60608e	-0.05477958
179	0xbdabe876	-0.08393948
180	0x3d9f6414	0.0778276
181	0x3dbe1007	0.09280401
182	0xbd3a271e	-0.04544746
183	0xbe261801	-0.16220094
184	0xbdcdd213	-0.10049834
185	0xbcec2dec	-0.028830491
186	0xbbbef08a	-0.0058270143
187	0xbbba8f3c	-0.0056933444
188	0x3d3dc8ef	0.046334203
189	0xbcbccda4	-0.023047276
190	0x3c829441	0.015939834
191	0x3e13590d	0.14389439
192	0x3d00a767	0.031409647
193	0xbd1a8887	-0.03772786
194	0xbc2c8969	-0.010530808
195	0xbd35c2f6	-0.044375382
196	0xbcee4d52	-0.029089604
197	0xbce7e0cf	-0.02830544
198	0xbdd5816c	-0.10425076
199	0xbdae626c	-0.08514866
200	0x3d51ffda	0.05126939
201	0x3cab9f48	0.020949975
202	0x3cde9b97	0.0271738
203	0xbd871847	-0.065964274
204	0x3ca149f3	0.019688582
205	0xbd31e625	-0.043432374
206	0xbdb32641	-0.08747531
207	0xbd81fe87	-0.06347375
208	0xbd331dbd	-0.043729533
209	0xbdc0f609	-0.094219275
210	0xbbc15259	-0.005899709
211	0x3e22cc32	0.15898207
212	0x3c7eda64	0.015554998
213	0x3d53d233	0.051714133
214	0x3d8c705f	0.068573706
215	0xbd5d9da8	-0.05410543
216	0x3e017a2f	0.12644266
217	0x3d1e0aa5	0.03858437
218	0x3c92cdc9	0.017920392
219	0xbd046577	-0.032323327
220	0x3d21045f	0.03931081
221	0xbddc9626	-0.10770826
222	0x3d112cfd	0.035443295
223	0xbdc14cd6	-0.094384834
224	0x3c29d4c9	0.010365673
225	0xbcbcb73f	-0.023036597
226	0x3de53bd7	0.11193054
227	0xbd049494	-0.032368258
228	0xbd0a487d	-0.033760536
229	0x3c2dd0be	0.01060885
230	0x3b292cd9	0.0025814085
231	0xbda623da	-0.08112307
232	0xbd0bec6f	-0.034161028
233	0xbd5ac589	-0.05341104
234	0xbbd72dfe	-0.006566762
235	0x3de42bfa	0.111412
236	0xbdb84773	-0.08998003
237	0xbd37daaa	-0.04488627
238	0xbd22248e	-0.039585643
239	0x3d518986	0.051156543
240	0x3a3ceab0	0.0007206602
241	0xbd21d88c	-0.039513156
242	0xbd91dbcb	-0.07122
243	0xbda6a416	-0.08136766
244	0x3d506d27	0.050885346
245	0xbdb3f530	-0.08787
246	0xbdb21d89	-0.0869704
247	0xbd9eb3e1	-0.07749153
248	0xbda806a4	-0.082043916
249	0x3d5d7f0c	0.05407624
250	0xbcc4f535	-0.024042705
251	0x3c11a822	0.008890184
252	0x3da93809	0.08262641
253	0xbbc752ed	-0.0060828836
254	0xbd87f5a2	-0.066386476
255	0xbd6b0cb7	-0.057385173

base.main.4.bias f4 [6]
0	0xbbad8160	-0.0052949637
1	0xbca50f8d	-0.020149017
2	0x00000000	0.0
3	0xbbdef17f	-0.006803691
4	0xbbc913f8	-0.0061364137
5	0xbbe1e967	-0.006894279

base.main.7.weight f4 [512, 216]
0	0x3d191782	0.037375934
1	0x3d24bc00	0.040218353
2	0x3d29d6c1	0.04146457
3	0xbe003a3a	-0.12522212
4	0x3d501aea	0.050806917
5	0x3cfb5147	0.030678404
6	0x3d9bb782	0.07603361
7	0x3a498378	0.0007687132
8	0x3d9e4a60	0.0772903
9	0x3d9bbec8	0.07604748
10	0xbca24980	-0.019810438
11	0x3dc6edbc	0.09713313
12	0xbd0d9414	-0.034565046
13	0xbd7c2e33	-0.061567497
14	0x3d60331c	0.05473624
15	0x3d431b88	0.047633678
16	0xbd09520e	-0.03352552
17	0xbd7f0942	-0.06226469
18	0xba3b50d2	-0.0007145527
19	0xbd00304d	-0.031296063
20	0x3d281097	0.041031446
21	0x3bd61e02	0.006534339
22	0x3c74a235	0.014931251
23	0xbd17fd86	-0.037107013
24	0x3cb7d1e8	0.022438958
25	0x3cb828ec	0.02248045
26	0xbd89c157	-0.0672633
27	0xbaed1942	-0.0018089192
28	0xbcdc909d	-0.026924426
29	0x3d5e8cec	0.054333612
30	0xbc4b0f2c	-0.012393754
31	0x3d3f3019	0.04667673
32	0xbcceef20	-0.025260508
33	0xbca83e45	-0.020537505
34	0x3d3304e1	0.043705825
35	0xbdcc48bd	-0.09974811
36	0x3d2bf5b8	0.041982383
37	0xbcf99c42	-0.030470017
38	0xbd711650	-0.05885917
39	0xbd80a76f	-0.062819354
40	0x3db55003	0.08853152
41	0xbe17af5b	-0.14812987
42	0xbbebe310	-0.007198699
43	0x3c4b3905	0.012403731
44	0x3d5d74d6	0.0540665
45	0x3d0b3fc4	0.03399636
46	0xbbdf45af	-0.006813727
47	0xbbdb4605	-0.0066916966
48	0xbda08d45	-0.07839445
49	0x3d269036	0.040664874
50	0xbce9dede	-0.028548654
51	0xbd0e92aa	-0.03480784
52	0xbdc070de	-0.09396528
53	0xbc40915b	-0.011753405
54	0xbdb316a0	-0.0874455
55	0xbd3b22ba	-0.045687415
56	0x3c053774	0.008130897
57	0x3c49406e	0.012283428
58	0x3d73771d	0.059439767
59	0x3d56719b	0.052354436
60	0x3d9c7801	0.076400764
61	0x3d25d9cb	0.040490907
62	0xbb5bd38a	-0.0033542835
63	0x3cb311fa	0.021859158
64	0x3b960b9a	0.0045790197
65	0xbccf06d9	-0.02527182
66	0xbcfd36e0	-0.030909956
67	0xbc740faf	-0.014896317
68	0xbd270ee2	-0.040785678
69	0x3d6b8a56	0.057504974
70	0x3ddc9e08	0.107723296
71	0xbd03d6f7	-0.03218743
72	0x3cb27be4	0.021787591
73	0xbb7a48d3	-0.003819038
74	0xbca6a769	-0.0203435
75	0x3d62f52b	0.05540959
76	0x3d9566ac	0.07294974
77	0xbccdea04	-0.025136001
78	0xbd019d6d	-0.031644274
79	0xbd7bef45	-0.061507482
80	0xbde65982	-0.11247541
81	0xbd5722f6	-0.052523576
82	0x3d81982c	0.063278526
83	0x3d39f443	0.04539896
84	0x3d103f08	0.03521636
85	0xbc723644	-0.014783446
86	0xbd16969e	-0.036764733
87	0xbd66c515	-0.056340296
88	0x3de30cd4	0.11086431
89	0x3d8b63d6	0.068061516
90	0x3aab3a0d	0.0013063565
91	0xbd8ba8ba	-0.068192914
92	0x3caeb85b	0.021328142
93	0xbda11d03	-0.07866862
94	0x3d1eb7da	0.038749553
95	0xbd97a787	-0.07405
96	0x3dbffc31	0.093742736
97	0xbc3758d9	-0.0111906165
98	0xbd5d4ec4	-0.054030195
99	0xbdc0134b	-0.0937868
100	0xbd6ec081	-0.058289055
101	0x3d2ab22a	0.041673817
102	0xbd3f6bdc	-0.046733722
103	0x3c8b6fd4	0.017021097
104	0x3dad581a	0.0846407
105	0x3e27e099	0.16394271
106	0xbd52ebd2	-0.051494427
107	0x3d475341	0.04866338
108	0xbd276988	-0.040872127
109	0x3d4607cf	0.04834729
110	0xbc6930b0	-0.014232799
111	0x3cda8a64	0.026677318
112	0x3dba91b8	0.09109825
113	0xbd96be77	-0.07360547
114	0x3dd67d93	0.1047317
115	0xbcf5b0d9	-0.029991554
116	0x3d2ec7e2	0.04267109
117	0xbc09a7d8	-0.0084018335
118	0x3acc492e	0.0015585774
119	0xbd6b10e7	-0.057389166
120	0xbc7a9919	-0.01529529
121	0x3d604b61	0.054759387
122	0x3dcce0bc	0.10003802
123	0xbd2ca591	-0.042150084
124	0x3d23f132	0.040024944
125	0x3d88c55f	0.066782705
126	0xbda50931	-0.08058394
127	0x39718a32	0.00023035033
128	0xbba459e8	-0.0050156005
129	0xbc8e0f4f	-0.017341284
130	0xbcd25904	-0.025677212
131	0x3dde5cf1	0.10857571
132	0x3cddc502	0.02707148
133	0xbc66b527	-0.014081276
134	0xbc9ba35f	-0.0189988
135	0x3d3bdccd	0.04586487
136	0x3d5738f7	0.05254456
137	0xbd34fba0	-0.04418528
138	0xbda9d599	-0.08292694
139	0x3d7d0eaa	0.061781563
140	0x3c90636b	0.017625531
141	0xbdf23885	-0.118271865
142	0x3d0e505d	0.03474461
143	0xbd6097e8	-0.05483237
144	0x3b9e10bf	0.0048237736
145	0x3bac3ba7	0.0052561346
146	0xbd17ef77	-0.037093606
147	0x3d715e1e	0.058927648
148	0x3ab75f0c	0.0013990118
149	0x3cc771c0	0.024346232
150	0x3dbd9cbf	0.092584126
151	0x3d47a30b	0.048739474
152	0x3aacdef8	0.0013189008
153	0x3d425d02	0.04745198
154	0x3dfa42b5	0.122197546
155	0x3be7d0b6	0.007074441
156	0x3ccf0dd1	0.025275143
157	0x3d019497	0.031635847
158	0xbbc54f14	-0.0060213897
159	0xbd10f65c	-0.035391197
160	0x3b3b0b23	0.0028540574
161	0xbd3f44e9	-0.046696577
162	0x3c9b9345	0.018991122
163	0xbb5a77dc	-0.0033335602
164	0x3ddfa8c4	0.10920861
165	0x3d2f326f	0.042772707
166	0x3d0521b8	0.03250286
167	0xbd23f26e	-0.04002612
168	0x3bc3a231	0.0059702625
169	0x3d2f3f68	0.04278508
170	0x3bce87fa	0.0063028308
171	0xbd08225d	-0.033235896
172	0xbde3f4a0	-0.11130643
173	0x3c57989b	0.013158943
174	0x3d21637c	0.039401516
175	0x3e0826f5	0.13296111
176	0xbd230d27	-0.039807465
177	0xbd01ee7b	-0.031721573
178	0x3d25bedf	0.040465232
179	0xbd3a2398	-0.0454441
180	0xbc47fe01	-0.012206555
181	0x3dbdac96	0.09261434
182	0xbdafa167	-0.08575707
183	0x3e25de38	0.16198051
184	0x3d9aae3d	0.075527646
185	0xbe0a4cd7	-0.13505875
186	0xbcf525a5	-0.029925177
187	0xbda403a7	-0.08008509
188	0x3d080fa3	0.033218037
189	0x3ce09b48	0.027417794
190	0xbc009015	-0.007846852
191	0x3d3d8145	0.04626586
192	0xbcd32734	-0.02577553
193	0x3d5c6b86	0.05381348
194	0x3abad15b	0.0014253067
195	0x3d98d33b	0.07462164
196	0x3db29030	0.08718908
197	0x3c8fe071	0.017563077
198	0x3daf863b	0.08570524
199	0x3e0debaa	0.1385943
200	0x3d4efdb4	0.05053492
201	0xbcc4e080	-0.024032831
202	0xbd80bd61	-0.06286121
203	0xbddfaa3c	-0.109211415
204	0xbd90c209	-0.07068259
205	0xbd4a1767	-0.049338724
206	0xbde193dd	-0.11014531
207	0x3b0d8642	0.0021594916
208	0xbab20481	-0.0013581665
209	0x3dfddaa6	0.123952195
210	0x3d2a8f27	0.041640427
211	0x3c3d2b91	0.011546032
212	0x3c727823	0.014799151
213	0xbde8079c	-0.113295764
214	0x3cfc1841	0.030773284
215	0xbd25b0cd	-0.040451813
216	0xba4d2c78	-0.0007826756
217	0x3d02a3b5	0.031894404
218	0xbb5f3f37	-0.0034064779
219	0xbd224d18	-0.039624304
220	0x3bc97b34	0.00614872
221	0xbdcae8cb	-0.09907683
222	0x3c3cef4a	0.01153166
223	0x3debb034	0.115082175
224	0xbda43c02	-0.08019258
225	0x3d378583	0.04480506
226	0xbd3b2434	-0.045688823
227	0xbd7356b3	-0.059408855
228	0x3d6f8f60	0.058486342
229	0x3cb2dfa3	0.021835154
230	0xbe11cdac	-0.14238614
231	0x3acce0cf	0.0015630963
232	0xbd8da05c	-0.06915352
233	0x3c7fb9e6	0.0156082865
234	0xbd23f277	-0.040026154
235	0xbdc5f323	-0.09665515
236	0xbc7bfdad	-0.015380305
237	0x3d32eea3	0.043684613
238	0xbcf64ab0	-0.03006491
239	0xbd208f2a	-0.039199032
240	0x3d612f0c	0.054976508
241	0x3d0664b2	0.032810874
242	0xbd416765	-0.047217745
243	0x3d3b676c	0.045752928
244	0x3db89273	0.09012308
245	0xbd522de7	-0.051313307
246	0xbcf256b8	-0.029582366
247	0xbc237872	-0.009977447
248	0x3dca09d9	0.098651595
249	0xbd21f2d0	-0.039538205
250	0x3ce384a8	0.027773216
251	0x3c47b1c5	0.01218838
252	0x3d3d6fa7	0.046249058
253	0xbd0e1e1e	-0.03469669
254	0x3de29ddf	0.11065268
255	0x3c739411	0.014866845

base.main.7.bias f4 [512]
0	0xbb8cb1ed	-0.0042936713
1	0x3e6342ce	0.22193453
2	0xb8a4e340	-7.862458e-05
3	0xbbf1c4f8	-0.007378217
4	0xbbde24f8	-0.0067793094
5	0xbb862dbc	-0.0040948074
6	0xbb164556	-0.002292951
7	0xbc200681	-0.009767176
8	0xbbe7259c	-0.007054044
9	0x00000000	0.0
10	0x00000000	0.0
11	0x3e58dbcb	0.21177594
12	0xbc1ee547	-0.009698219
13	0x3e5e4ebe	0.21709725
14	0xbb79d68a	-0.003812226
15	0x3e4fab4f	0.20280193
16	0xb92d98e0	-0.00016555516
17	0xbc5de798	-0.013543986
18	0xba0d3294	-0.000538626
19	0xbbfd5a20	-0.007731691
20	0xbbdf4810	-0.0068140104
21	0xbbe2bde9	-0.0069196117
22	0x3e878121	0.26465705
23	0xbb6a36da	-0.003573826
24	0x00000000	0.0
25	0xbc2f7eb8	-0.010711364
26	0xba5c8ab0	-0.0008413
27	0xbbf4c046	-0.00746921
28	0xbb04dbe6	-0.0020272671
29	0xbbdb5596	-0.0066935522
30	0xbc065165	-0.008198117
31	0xbc206778	-0.009790294
32	0xb9c4be1b	-0.00037525673
33	0xbaa2e9c8	-0.0012429291
34	0x3e52c548	0.2058307
35	0xbb1047fe	-0.0022015567
36	0xbbb8325c	-0.0056212377
37	0xbbdcde95	-0.006740401
38	0xbb7f6eb3	-0.0038975894
39	0xbbe282cc	-0.006912565
40	0x3e665ee3	0.22497134
41	0xbbf7325e	-0.007543846
42	0xbbe4879f	-0.006974175
43	0xb9b088e0	-0.00033671316
44	0xb9687a50	-0.00022170809
45	0x3e33dfae	0.17565796
46	0xb9682020	-0.00022137212
47	0xb981ca90	-0.00024755718
48	0xbba521a5	-0.005039411
49	0xb78c9c80	-1.6762177e-05
50	0xbc484ec7	-0.012225813
51	0xbabec30c	-0.0014553978
52	0xbc3906c2	-0.011293115
53	0xb94a9e70	-0.00019323244
54	0xbb64e270	-0.0034925006
55	0xbc08fb5f	-0.008360713
56	0xbb0d507f	-0.0021562872
57	0xbaa504ec	-0.0012589968
58	0xbb6ce2e2	-0.0036145975
59	0xbb7d306d	-0.00386336
60	0xbbc005d0	-0.005860068
61	0x3e7da084	0.24768263
62	0xbbd69e81	-0.006549657
63	0xbc0f7465	-0.008755778
64	0xbc01227f	-0.00788176
65	0xb919cc20	-0.0001466726
66	0xbc1d2643	-0.009591642
67	0xb9dcfce0	-0.00042150076
68	0xbbe3c724	-0.0069512296
69	0xbbb55b8f	-0.0055345963
70	0xbc47d920	-0.012197763
71	0xbc002cca	-0.007823179
72	0xbc0f108a	-0.008731971
73	0xbaf82654	-0.0018932321
74	0x3e655a7b	0.22397797
75	0x3e4a2f81	0.19744684
76	0xbbcecde3	-0.0063111647
77	0xbbdc2245	-0.0067179524
78	0x3e4f1e8f	0.20226501
79	0xbc56e180	-0.013115287
80	0xbc1c0585	-0.0095228
81	0xbb07c734	-0.00207181
82	0x3e3fbcae	0.1872432
83	0xb89d22a8	-7.4927986e-05
84	0xbbba1cb5	-0.0056796917
85	0xb9ab0b2c	-0.00032623985
86	0xb89380f0	-7.033523e-05
87	0xbb0a97f2	-0.0021147695
88	0xb933be6c	-0.00017141708
89	0xbc6d93ef	-0.014500602
90	0x3e884260	0.2661314
91	0x3e5184ae	0.2046077
92	0x3e65a9a7	0.22427998
93	0x3e8a9482	0.27066427
94	0xb8a92840	-8.066045e-05
95	0xbaa61eb4	-0.0012673945
96	0xba37ef9c	-0.00070166006
97	0x3e587e0b	0.21141832
98	0xbb90f648	-0.0044238903
99	0xbb92e6ae	-0.0044830656
100	0xbc0a690a	-0.008447895
101	0x00000000	0.0
102	0xbb0c3ea4	-0.0021399641
103	0xbb22538c	-0.0024769036
104	0xbbe3cfd2	-0.0069522643
105	0x3e82690f	0.25470778
106	0x3e46ca60	0.19413137
107	0xbb059316	-0.002038186
108	0x3e36a858	0.17837656
109	0xbbf2d8b5	-0.0074110874
110	0x3e6c6af9	0.23087682
111	0xbc010961	-0.007875771
112	0x3e65b4b4	0.22432214
113	0xbbe44000	-0.006965637
114	0xba28c705	-0.00064383476
115	0xbc48a5d4	-0.012246568
116	0xbbf83e15	-0.00757576
117	0xba17bec0	-0.0005788617
118	0xbbe1df88	-0.006893102
119	0xbbc705ca	-0.006073688
120	0xbba67fce	-0.0050811535
121	0xbbea8d66	-0.0071579693
122	0xbc571c5a	-0.013129318
123	0xbb452858	-0.0030083861
124	0xbc122000	-0.008918762
125	0xbb475f74	-0.0030421885
126	0x00000000	0.0
127	0xbbe3efa1	-0.006956056
128	0xb8c54fb0	-9.408535e-05
129	0xbbde4f2e	-0.0067843413
130	0x3e482b05	0.1954766
131	0x00000000	0.0
132	0x3e81485f	0.25250527
133	0xbb9bc552	-0.004753747
134	0xbade8dc9	-0.0016979511
135	0xbb304858	-0.002689859
136	0xbb0839d9	-0.0020786433
137	0xbbc71686	-0.006075683
138	0xb91ffaac	-0.00015256804
139	0x00000000	0.0
140	0x3e672ff8	0.22576892
141	0xbaec9534	-0.0018049837
142	0xbb8b7e97	-0.004257034
143	0x00000000	0.0
144	0x3e9cd7ee	0.3063349
145	0x3e3e8ce4	0.18608433
146	0xbbeae5ea	-0.007168521
147	0xb994d7c0	-0.00028389506
148	0x3e687cd9	0.22703876
149	0x3e8c965f	0.27458474
150	0x3e493d15	0.19652207
151	0xba455e58	-0.0007529012
152	0xbc1c9326	-0.009556567
153	0xbbca04ae	-0.0061651086
154	0xb8d66a00	-0.00010224059
155	0xbc1a45da	-0.009416068
156	0xbb5731b0	-0.0032836013
157	0xba02e68f	-0.00049934624
158	0xbc152bbc	-0.009104665
159	0xb9a84730	-0.00032096496
160	0x3e5d2d1b	0.21599238
161	0xbc0f7aae	-0.008757276
162	0xbbfc4cfa	-0.007699606
163	0xbbf6d5c5	-0.0075328075
164	0xbbe3d89c	-0.006953312
165	0xbb418790	-0.0029530264
166	0x3e544efa	0.20733252
167	0xbbcfab63	-0.0063375696
168	0x3e40071a	0.18752709
169	0x3e1a2d32	0.15056303
170	0xbc301f2e	-0.010749621
171	0x00000000	0.0
172	0xbaf6a932	-0.0018818735
173	0xbbe1d186	-0.006891432
174	0xb989ed00	-0.00026307255
175	0xb98f3da0	-0.00027321
176	0xbc1ab0f6	-0.009441605
177	0xb9e67ca8	-0.00043961895
178	0xbb1709d6	-0.0023046634
179	0x3e2ffcc6	0.17186269
180	0x3e67917d	0.22614093
181	0x3e78c2a3	0.24292998
182	0x00000000	0.0
183	0x3e954b63	0.29159078
184	0xbc149c40	-0.009070456
185	0x3e658719	0.22414817
186	0x3e868df5	0.2628018
187	0x00000000	0.0
188	0xbc0928da	-0.008371556
189	0xbbe4c95e	-0.0069820127
190	0xb942b680	-0.00018569268
191	0xb99b8ba6	-0.0002966795
192	0x3e64e5b4	0.2235325
193	0x3e89e19d	0.26929942
194	0xbc8577e0	-0.016292512
195	0xb9b41f18	-0.00034355442
196	0xbbe74c0d	-0.0070586265
197	0xbc0575f6	-0.0081458
198	0xbba283c1	-0.004959554
199	0xba1a1940	-0.00058783963
200	0x3e4dbd9a	0.20091859
201	0xbb4283e7	-0.002968067
202	0xbc08f63a	-0.008359486
203	0xb889be40	-6.568106e-05
204	0x00000000	0.0
205	0xbbc74fab	-0.006082495
206	0xbb3eb2a8	-0.0029098187
207	0xbc119acd	-0.008887005
208	0xbc09e9bd	-0.008417544
209	0x3e502781	0.2032757
210	0xbc056055	-0.008140643
211	0x00000000	0.0
212	0xb99ff5ec	-0.0003051007
213	0xbc1e283a	-0.009653145
214	0xb7eafe40	-2.8013368e-05
215	0xbaac3db6	-0.001314095
216	0xbc395382	-0.011311414
217	0xbbc259ec	-0.0059311297
218	0xbbe44d7c	-0.0069672447
219	0xbbbac7ae	-0.005700073
220	0x3e47f543	0.19527154
221	0x3e379ea6	0.17931613
222	0xb9c67016	-0.00037849013
223	0x3e447261	0.19184257
224	0xbbe1619b	-0.0068780906
225	0xb9b44fd0	-0.0003439174
226	0x3e6ddd1f	0.23228882
227	0xbb4834c2	-0.0030549024
228	0x00000000	0.0
229	0xbbc88bbf	-0.0061201747
230	0x3e7d2921	0.2472272
231	0xbc099070	-0.008396253
232	0x00000000	0.0
233	0xbc388b61	-0.011263699
234	0xbc01f3e4	-0.007931683
235	0xbc15a03f	-0.009132444
236	0xbb6b0df6	-0.0035866476
237	0xbaef5db4	-0.0018262179
238	0xbbb1a8f2	-0.005421751
239	0xbc0d1735	-0.00861149
240	0xbc0a106c	-0.008426767
241	0xbb8574c5	-0.004072758
242	0xbbab69f7	-0.005231138
243	0xbc7e1178	-0.015507095
244	0xbc6eb160	-0.014568657
245	0xb900e1d4	-0.00012291159
246	0xb9c81520	-0.00038162712
247	0xba31088c	-0.0006753288
248	0x3e830cb3	0.25595626
249	0x3e421162	0.18951944
250	0x3e83d85c	0.25751007
251	0x3e565aac	0.20933026
252	0x3e3eac5c	0.18620437
253	0xbbbdbbf0	-0.005790226
254	0xb9eede26	-0.0004556041
255	0xbbaf57e8	-0.0053510554

base.critic_linear.weight f4 [1, 512]
0	0xbddd37d4	-0.10801664
1	0x3da5a606	0.08088307
2	0x3d88b0b1	0.06674326
3	0xbd249743	-0.040183317
4	0x3d4758a1	0.048668507
5	0xbd0ee0d5	-0.034882385
6	0xbca3c514	-0.019991435
7	0xbc6faba9	-0.014628329
8	0xbcab0d63	-0.020880407
9	0x3cf9205c	0.030410938
10	0xbc8be6f3	-0.017077899
11	0x3da14c1a	0.07875843
12	0xbc619d5a	-0.013770426
13	0x3d9de3ec	0.07709488
14	0x3c2e3ef7	0.010635129
15	0x3dc7ff08	0.0976544
16	0x3c9366ff	0.017993448
17	0xbd6a8fa7	-0.057265904
18	0x3dc20a22	0.09474589
19	0xbcff7e32	-0.031188104
20	0x3d2d55ab	0.042318027
21	0xbcc16acf	-0.0236105
22	0x3db582b5	0.08862821
23	0x3c14196c	0.009039264
24	0x3d85da03	0.06535723
25	0xbcb4434e	-0.02200475
26	0x3c682bd6	0.014170608
27	0xbc77dc5e	-0.015128223
28	0x3cd567f8	0.026050553
29	0x3c7d4303	0.015457871
30	0xbc6e7af6	-0.014555683
31	0xbcf1b8c1	-0.029507043
32	0x3d397d89	0.045285735
33	0xbd37924c	-0.044817254
34	0x3da1dffe	0.07904051
35	0x3cdbf55b	0.026850393
36	0xbd0cd98f	-0.034387168
37	0x3d83ce08	0.06435782
38	0xbd81ad17	-0.063318424
39	0xbd8138da	-0.06309672
40	0x3db1cbfa	0.086814836
41	0xbc07443a	-0.008256013
42	0xbdbb0043	-0.09130909
43	0x3d126030	0.035736263
44	0x3c9952e5	0.018716285
45	0x3d925b7b	0.07146355
46	0xbccef517	-0.025263352
47	0x3c053958	0.008131348
48	0xbd304bad	-0.04304092
49	0x3d19530c	0.037432715
50	0xbcb428c1	-0.02199209
51	0x3d0a1c0d	0.033718158
52	0xbcbe1050	-0.023201138
53	0xbd250367	-0.040286448
54	0x3c77580a	0.015096674
55	0x380392e0	3.1369622e-05
56	0x3deb3ac4	0.11485818
57	0x3bbf248f	0.0058332155
58	0xbd35a591	-0.04434735
59	0xbc1dbce9	-0.009627559
60	0xbd2fcbd1	-0.042918984
61	0x3db37034	0.087616354
62	0xbc96d656	-0.01841275
63	0xbc9bf2e2	-0.019036714
64	0x3aa25023	0.0012383502
65	0xbd50b212	-0.05095107
66	0xbc216f9b	-0.009853269
67	0x3d7a9167	0.061173823
68	0xbd00fd45	-0.031491537
69	0x3d1bc028	0.03802505
70	0xbb06900c	-0.0020532636
71	0xbdd06577	-0.10175603
72	0xbc7b362f	-0.015332743
73	0x3d01fb71	0.031733934
74	0x3da16bca	0.07881887
75	0x3d96059b	0.07325288
76	0xbca7d696	-0.020488065
77	0xbca04df8	-0.019568428
78	0x3d956d3d	0.07296226
79	0xbd29b6ac	-0.041433975
80	0xbb81e51c	-0.0039640795
81	0x3c9d6b7a	0.019216288
82	0x3dc08cc4	0.09401849
83	0x3d6cd8f7	0.0578241
84	0x3d7b1cb7	0.06130668
85	0x3da0f978	0.078600824
86	0xbc07403d	-0.008255062
87	0x3cca8190	0.024719983
88	0x3dc9170b	0.09818848
89	0xbcd43979	-0.025906311
90	0x3d20a730	0.039221942
91	0x3da7499f	0.08168339
92	0x3da9cf7d	0.082915284
93	0x3db4fa51	0.088368066
94	0x3c89c894	0.016819276
95	0x3d0fa421	0.035068635
96	0xbbedf4c8	-0.007261846
97	0x3da403b9	0.080085225
98	0x3d95546b	0.07291492
99	0x3c40689e	0.011743693
100	0xbbc37dcd	-0.0059659244
101	0x3c909f7c	0.017654173
102	0xbd8eea64	-0.069783
103	0x3af58d58	0.001873414
104	0xbd050635	-0.032476623
105	0x3db05e83	0.08611777
106	0x3d26192e	0.040551357
107	0x3c1b5bec	0.009482365
108	0x3d878236	0.06616633
109	0xbcdb5c9e	-0.026777562
110	0x3dac169f	0.08402752
111	0xbce383ae	-0.02777275
112	0x3da83d4b	0.08214816
113	0xbd88cf7b	-0.06680199
114	0x3da34a7b	0.079731904
115	0x3add2ac4	0.0016873707
116	0xbcd216cc	-0.025645636
117	0x3c4c4d76	0.01246964
118	0xbc106730	-0.008813664
119	0x3b07a374	0.002069679
120	0xbc91ac23	-0.017782276
121	0xbce62ec8	-0.028098479
122	0xbd2cc290	-0.042177737
123	0x3d641d8b	0.055692237
124	0xbbedfe41	-0.0072629754
125	0xbc35441d	-0.011063603
126	0x3daaa175	0.08331577
127	0xbd538ffd	-0.05165099
128	0x3ce3e5bc	0.027819507
129	0xbd5df2a0	-0.054186463
130	0x3d9f27d7	0.07771271
131	0x3ce6b6a3	0.02816326
132	0x3dae3d81	0.08507825
133	0xbd69e942	-0.057107218
134	0x3a7c5818	0.0009626164
135	0xbc67751e	-0.014127044
136	0xbce1b8af	-0.027553884
137	0xbd3f8537	-0.046757903
138	0x3d70172f	0.05861586
139	0x3d96deee	0.07366739
140	0x3da2e160	0.07953143
141	0x3da308e7	0.07960682
142	0xbd0cd4e2	-0.03438271
143	0x3d6274a8	0.055287033
144	0x3db93253	0.09042802
145	0x3cffcbf4	0.031225182
146	0xbb4751b8	-0.0030413698
147	0x3d26f910	0.04076487
148	0x3daea478	0.08527464
149	0x3db5d438	0.08878368
150	0x3d99c4cd	0.0750824
151	0x3da1116a	0.078646496
152	0x3d4f0b37	0.050547805
153	0xbd4ddb6d	-0.05025809
154	0x3d05e110	0.03268534
155	0xbbac6da4	-0.0052620936
156	0x3c63fc4b	0.013915132
157	0xbb431aed	-0.0029770688
158	0x3c25750e	0.010098709
159	0x3dd776d5	0.10520712
160	0x3d97260f	0.07380306
161	0xbd8866c3	-0.06660225
162	0xbd5a540a	-0.053302802
163	0xbcb53ba7	-0.022123171
164	0xbb16b0e6	-0.0022993623
165	0x3d4997dd	0.049217094
166	0x3d9ce111	0.076601155
167	0x3d56af96	0.052413546
168	0x3d8770e7	0.06613331
169	0x3d586714	0.052832678
170	0xbc762b74	-0.0150250085
171	0xbd89900a	-0.067169264
172	0xbd294a82	-0.04133082
173	0xbd718cbd	-0.05897211
174	0xbd0fce3a	-0.035108782
175	0x3d028063	0.03186072
176	0xbc290a85	-0.010317449
177	0x3da5b2f1	0.08090771
178	0x3c8aa019	0.016922044
179	0x3cf51e95	0.02992181
180	0x3da3b101	0.07992745
181	0x3daaa9d1	0.08333171
182	0xbd0ff855	-0.035148937
183	0x3db9928a	0.09061153
184	0xbd8e7d6c	-0.06957516
185	0x3da755d5	0.08170668
186	0x3d928961	0.07155109
187	0x3ca5195d	0.020153696
188	0xbd46b6fe	-0.04851436
189	0xbc4e8ce6	-0.012606835
190	0x3d23e672	0.04001469
191	0x3cb9fff4	0.022705056
192	0x3da33640	0.07969332
193	0x3da9ca60	0.08290553
194	0xbce11045	-0.027473578
195	0x3d94206f	0.07232749
196	0xbccd758d	-0.025080467
197	0xbcc0cef8	-0.02353619
198	0xbd4ca561	-0.049962405
199	0x3d146d89	0.036237273
200	0x3dbf866a	0.09351809
201	0x3ca86d3c	0.0205599
202	0xbcb6f262	-0.022332374
203	0xbbbf2eca	-0.005834435
204	0xbd52e5ce	-0.05148869
205	0xbd4cf575	-0.050038774
206	0x3cf2dfd2	0.029647741
207	0xbc5fa70c	-0.013650667
208	0xbd07f354	-0.03319104
209	0x3d9da6f2	0.07697858
210	0xbb73563c	-0.0037130257
211	0xbcae52c3	-0.021279698
212	0x3cfa0117	0.030518098
213	0xbd46a77f	-0.04849958
214	0x3d8e3ae1	0.06944824
215	0x3bfa6b96	0.00764222
216	0xbca4e00b	-0.020126363
217	0x3d0d77cc	0.034538075
218	0xbd0991da	-0.03358636
219	0xbd180cb9	-0.03712151
220	0x3d933079	0.0718698
221	0x3d84be1a	0.064815715
222	0x3ccdbc6c	0.02511426
223	0x3d91ab3b	0.07112738
224	0xbd5a2c38	-0.053264827
225	0x3d843e02	0.064571396
226	0x3dab664e	0.083691224
227	0xbb610350	-0.003433425
228	0x3d1d9056	0.038467728
229	0x3da4de02	0.08050157
230	0x3da25397	0.079261
231	0xbac76032	-0.0015211164
232	0xbb2f1a09	-0.00267184
233	0xbbcbe2c0	-0.006222099
234	0xbd99a0ec	-0.075013965
235	0xbd6f41b9	-0.058412287
236	0x3c7285aa	0.014802376
237	0xbd3eb2fb	-0.046557408
238	0xbcc8f4dd	-0.024530822
239	0xbcc6bae1	-0.024259033
240	0xbd07d184	-0.033158794
241	0xbbdddf92	-0.0067710364
242	0x3d921ba5	0.07134179
243	0x3d5e74b4	0.054310516
244	0xbce9a88e	-0.028522756
245	0x3d5f34a6	0.05449357
246	0xbc037ee6	-0.00802586
247	0xbd7d2b67	-0.06180897
248	0x3da64982	0.08119489
249	0x3da9002f	0.08251988
250	0x3db5303d	0.08847091
251	0x3d9b443a	0.075813726
252	0x3da76e5d	0.08175347
253	0xbc08550d	-0.008321059
254	0x3c3217c9	0.010869929
255	0xbbac876d	-0.0052651674

dist.linear.weight f4 [4, 512]
0	0x3bb526b6	0.0055282963
1	0x3e9a8949	0.30182865
2	0x3b8050e1	0.0039158915
3	0xbaede0ca	-0.0018148657
4	0x3b8dbb90	0.0043253377
5	0x3c22df21	0.009940893
6	0x3c61bc0a	0.013777742
7	0x3bc0fc19	0.0058894274
8	0x39094920	0.0001309258
9	0x388f9640	6.8467576e-05
10	0xb993f0d1	-0.00028217447
11	0x3e9cdb60	0.3063612
12	0x3ba07952	0.004897275
13	0x3e9cecda	0.30649453
14	0x3b24acac	0.0025127335
15	0x3e9c9e62	0.30589586
16	0x3ba2dbec	0.0049700644
17	0x3c356b11	0.01107289
18	0x3c227deb	0.0099177165
19	0x3ae0e5e4	0.0017158356
20	0x3b374342	0.0027963673
21	0xbbc5b401	-0.006033421
22	0x3e9b356c	0.30314195
23	0x3c0624e1	0.008187504
24	0xba3a8709	-0.0007115459
25	0x3b0132cc	0.0019714115
26	0xb9afced2	-0.00033532694
27	0x3b8a73ab	0.0042252145
28	0x391e004a	0.00015068162
29	0x3bbb0f65	0.0057086223
30	0x3aa2ae74	0.001241161
31	0x3b01323a	0.0019713775
32	0x3c079a8f	0.008276596
33	0x3c465e00	0.012107372
34	0x3ea1f714	0.31633818
35	0x3b88ee2d	0.0041787834
36	0x3aaa4312	0.0012989959
37	0x399aecc2	0.00029549567
38	0x3c0f54e8	0.008748271
39	0x3be7d6e6	0.0070751784
40	0x3e9c6eae	0.30553192
41	0x3a0986fc	0.00052462495
42	0xbb8d2710	-0.004307635
43	0x3a98cd61	0.0011657887
44	0x3bc7a2c2	0.0060924003
45	0x3e9d4c58	0.30722308
46	0x3bf68770	0.0075234696
47	0xbb9dc1c7	-0.00481436
48	0x3b9a3571	0.0047060777
49	0x3c8e8fe5	0.017402599
50	0x38184e40	3.63125e-05
51	0x3ad7601e	0.0016431843
52	0x3c00c41b	0.007859255
53	0x3c44b403	0.012005809
54	0x3b1e911d	0.002419538
55	0x3ace275b	0.0015728282
56	0x3c5a180c	0.013311397
57	0xbb88515e	-0.0041600903
58	0x3b2e02d6	0.0026551983
59	0xbaa16bd8	-0.0012315465
60	0x3b5fe517	0.0034163648
61	0x3e9d9916	0.30780858
62	0xbb85647c	-0.0040708166
63	0xbc174402	-0.009232523
64	0xba8dfe4e	-0.0010833235
65	0x3c082434	0.008309413
66	0xbbdbfa09	-0.006713156
67	0x3b89817e	0.004196345
68	0xbbab04c0	-0.005219072
69	0x3b9cf609	0.004790072
70	0x3b8e91a9	0.00435086
71	0x3bd199fe	0.006396531
72	0x390649f3	0.00012806784
73	0x3bbeb82d	0.0058202953
74	0x3ea0a7f1	0.3137813
75	0x3e9fd447	0.31216642
76	0xbbaa9f57	-0.005206983
77	0x3b9bbc62	0.0047526816
78	0x3ea0e6f8	0.31426215
79	0xb8ca1d00	-9.637512e-05
80	0x3b96d442	0.00460294
81	0x3c3c2f98	0.011485957
82	0x3e9f5d10	0.3112569
83	0x3c31033a	0.010803992
84	0xba3ae794	-0.0007129845
85	0x3b69ecec	0.0035694195
86	0x3c34ab10	0.011027113
87	0x3c2534a4	0.010083351
88	0x3c1d6ef0	0.009608969
89	0xbb303a79	-0.0026890321
90	0x3e9c4dd4	0.30528128
91	0x3e9d07fb	0.3067015
92	0x3ea05533	0.31315002
93	0x3e9f952e	0.31168503
94	0x3aa52b4b	0.0012601403
95	0x3ba3cd42	0.004998834
96	0x3c21a8f9	0.009866946
97	0x3e9d7c5f	0.3075895
98	0x3b0ad3cb	0.0021183367
99	0x3c025cfb	0.007956739
100	0x3b38e1fa	0.0028210864
101	0x3a08b110	0.00052143726
102	0x3c72f3ba	0.014828617
103	0xbb44606c	-0.0029964698
104	0xbbc43baa	-0.005988558
105	0x3e9a4d15	0.30136934
106	0x3ea33473	0.31875953
107	0x3afdb7e1	0.0019357168
108	0x3e9da115	0.30786958
109	0xbbb59947	-0.0055419537
110	0x3ea6d5bc	0.3258494
111	0xb99353d0	-0.0002810047
112	0x3e9a05d6	0.30082577
113	0xbbc2b60c	-0.005942112
114	0x3bf20c2b	0.0073867044
115	0x3c15984c	0.009130549
116	0x3bb0a713	0.0053910105
117	0x3b28c44c	0.0025751768
118	0xbbc05bb8	-0.0058703087
119	0x3b3be171	0.002866831
120	0x3a954f46	0.0011391423
121	0x3995df22	0.00028585742
122	0x3c2404ac	0.0100108795
123	0x3c61aec5	0.013774578
124	0xbb6cfcbe	-0.0036161388
125	0x3c3c6d21	0.011500628
126	0xba099267	-0.0005247951
127	0xbb993283	-0.004675211
128	0x3c21cce2	0.009875508
129	0x3ba9d7e5	0.0051832073
130	0x3e9d0c04	0.3067323
131	0xb9908a96	-0.00027569075
132	0x3e9aa68c	0.3020519
133	0x3c0c1cc9	0.008551785
134	0xbb18ca0e	-0.0023313793
135	0x3c3a4285	0.011368399
136	0x3c28f698	0.010312699
137	0xbbcd6ad9	-0.0062688407
138	0x3bd6f6d9	0.0065601883
139	0x39af40b8	0.0003342682
140	0x3e9aed30	0.30259085
141	0x3c2ddf90	0.0106123835
142	0x39e34380	0.00043347105
143	0x39a946d6	0.0003228697
144	0x3e9ee7b9	0.31036165
145	0x3ea06d16	0.31333226
146	0x3af1080c	0.0018389239
147	0x3b81429f	0.0039447094
148	0x3e9ea147	0.3098242
149	0x3e9bb6f3	0.30413017
150	0x3e9b2a6c	0.30305803
151	0x3b1632a2	0.0022918363
152	0x3c282658	0.010263048
153	0x3c7395b3	0.014867234
154	0x3a972bce	0.001153344
155	0x3b477b5c	0.0030438518
156	0xbabafcfe	-0.0014266071
157	0x3bc580ec	0.0060273316
158	0x3c54bc5c	0.0129843615
159	0x3bf39c7c	0.007434426
160	0x3e9c2497	0.30496666
161	0xbc1755cc	-0.009236764
162	0x3aa995e4	0.0012938348
163	0x3b0ec23a	0.0021783249
164	0x3c2560ac	0.010093849
165	0x3ae4a1ba	0.0017443218
166	0x3e9e903a	0.3096941
167	0x3c180ef0	0.009280905
168	0x3e9d082b	0.30670294
169	0x3e9cf4b6	0.3065545
170	0xba8026aa	-0.0009777148
171	0x3a44027e	0.0007477178
172	0x3c43113c	0.011905964
173	0x3b04764e	0.0020212117
174	0x3c4987fd	0.012300489
175	0x3a313536	0.0006759943
176	0x3b3ab872	0.0028491286
177	0x3be0fa12	0.006865748
178	0x3bd3a310	0.0064586475
179	0x3ea0d66c	0.3141359
180	0x3e9b807f	0.30371472
181	0x3e9da47e	0.3078956
182	0xb9fb62b2	-0.00047947984
183	0x3ea077d4	0.31341422
184	0xbadf7726	-0.0017049059
185	0x3e9c2d15	0.30503145
186	0x3ea200a6	0.3164112
187	0x38bc9860	8.9929206e-05
188	0x3bfe54ee	0.0077615893
189	0xba49781a	-0.0007685438
190	0x3bd6838f	0.0065464447
191	0x3b857241	0.004072458
192	0x3e9b5f6c	0.3034624
193	0x3e99dd5a	0.3005169
194	0x3b9feadc	0.0048802923
195	0x3bc53a99	0.0060189483
196	0x3b0a4a25	0.0021101322
197	0x3b0a9ac6	0.002114938
198	0x3c4ea2cc	0.012612056
199	0x3ae3ffe1	0.0017394983
200	0x3e9d8860	0.30768108
201	0x3b1bffd8	0.0023803618
202	0x3b90d673	0.0044200956
203	0x3bbe9d8f	0.0058171223
204	0xb9837a3f	-0.00025077348
205	0x3c0d885d	0.008638469
206	0x3bcf282e	0.0063219285
207	0xb938d3c0	-0.0001762649
208	0x3af09c88	0.0018357197
209	0x3e9cca8b	0.30623278
210	0x39f6bb91	0.00047060524
211	0x3a4f800c	0.0007915504
212	0x3b59b3ff	0.0033218858
213	0x3b8c0d1c	0.0042740237
214	0x3bbe8087	0.0058136615
215	0xbb97000d	-0.0046081604
216	0xb9076e00	-0.00012915581
217	0x3c0dbec4	0.008651439
218	0xbb178ef2	-0.0023125974
219	0x3bc5a2e3	0.0060313805
220	0x3e9e4185	0.30909362
221	0x3e9d239c	0.3069123
222	0x3c94be90	0.018157274
223	0x3e9fe1fd	0.31227103
224	0xbb8ea09b	-0.0043526418
225	0x3bb0ef1b	0.0053995973
226	0x3e9d9ae1	0.30782226
227	0xb9db4f31	-0.00041829937
228	0xb95f995b	-0.00021324067
229	0x3c32e8b9	0.010919743
230	0x3e9c6f5b	0.30553707
231	0xbad09a62	-0.001591515
232	0xb89a9b2d	-7.372196e-05
233	0x3bd05142	0.006357343
234	0x3ba56820	0.005047813
235	0x3bcb87b4	0.0062112454
236	0x3b348cae	0.0027549672
237	0x3c0d9625	0.008641754
238	0x3b4550bc	0.0030107936
239	0x3b9dc4c6	0.004814717
240	0x3c4e3f45	0.012588327
241	0xbb97208b	-0.0046120337
242	0x3898275a	7.2552546e-05
243	0x3c7f1d15	0.015570899
244	0xbad0fe84	-0.0015944992
245	0x3bf59dc7	0.007495615
246	0x3c134501	0.00898862
247	0x3c4e3dc2	0.012587966
248	0x3e9d56aa	0.30730182
249	0x3e9d45a0	0.30717182
250	0x3e9a9926	0.30194968
251	0x3ea0e1ef	0.31422374
252	0x3ea17a84	0.31538785
253	0xbb8ea0db	-0.0043526716
254	0x3b6e11a3	0.003632643
255	0x3c4b5e29	0.012412586

dist.linear.bias f4 [4]
0	0x3ea123b3	0.3147255
1	0x3e91c491	0.2847028
2	0x3ea4595a	0.3209942
3	0x3eb3273f	0.3499088
