experiment2/checkpoint/test/cifar10/a2c/lr0.0007_max_steps29_seed1_window5_cifar_model_ppo_ex2_agent2.pt (torch_old, 511346 bytes, 13 tensors)

base.main.0.weight f4 [6, 4, 5, 5]
-0.12135089 -0.13528821 0.08760315 0.24683301 -0.13586318 0.00069221045 0.032566965 -0.14322475
-0.12442035 0.06012371 0.12056787 -0.0008353886 -0.14368856 0.029665107 -0.07454856 0.105117664
-0.31452426 -0.19247642 0.030296484 -0.121349625 -0.17054544 0.13716313 -7.196854e-05 0.15267369
-0.12604463 -0.16990054 -0.0056514507 -0.10122999 0.0878567 0.09930844 0.16420086 -0.24731012
-0.1346206 -0.13423245 -0.0027458624 -0.21921436 -0.3841148 -0.10733471 -0.12937386 -0.18132496
-0.056783274 -0.09533016 -0.12677874 -0.012727398 0.0148175545 0.15466261 0.17988293 0.103286795
0.16400494 -0.113554195 0.13492407 -0.13902758 0.24634747 0.035373222 -0.0694697 0.066798076
0.19686405 0.08113483 -0.06844368 0.12897916 -0.06297333 -0.1725697 -0.23400478 0.001259357
-0.061215635 -0.01683138 0.03797169 0.05532566 -0.12774387 0.06176335 -0.36565024 0.03540241
0.093090184 -0.01444922 0.0035648905 0.09417144 -0.15798633 -0.1557677 -0.17988563 0.18857014
-0.04247171 0.02046174 -0.23889433 0.15214443 -0.06618448 0.0448885 0.07615994 0.07729552
0.07828149 0.17128141 -0.22764277 0.07298528 0.26271433 -0.008652351 0.087225966 -0.05862978
0.039865147 0.17749472 -0.15708624 0.15477568 0.0555974 -0.09498264 0.05450713 0.071870856
-0.106273025 -0.2389714 0.0027680723 -0.09019593 0.33855405 -0.0046498403 0.13890979 -0.31153864
-0.070185855 0.11897684 0.16715139 -0.10939639 0.02066549 -0.06781852 -0.0786538 -0.18069693
-0.014460154 0.06320233 -0.03065906 0.09694707 -0.06872925 -0.053064648 -0.11745433 -0.050088443
-0.017707594 0.22006866 0.018560937 0.10634861 -0.15381376 -0.32023773 0.08201751 0.1283135
0.11577192 -0.24510746 0.25436413 -0.20734243 0.01002758 -0.14097242 -0.10582238 -0.062388767
-0.030306244 -0.0021114296 -0.122309275 0.0036840034 0.06756264 0.16163571 -0.19581944 -0.018004049
-0.032880943 0.15597989 0.3566871 0.12873855 -0.11129109 -0.10266352 0.1299305 0.14741921
-0.2350952 0.0012882679 -0.07982676 0.29066378 -0.025063716 0.029256843 0.05910475 0.090695865
0.042590134 -0.046732698 0.12028385 0.040547084 -0.301105 0.060646135 0.007687213 -0.2583373
-0.0009308895 0.07674244 0.30674687 0.03075336 -0.16339174 0.17483501 -0.121370204 -0.16591173
0.0011613703 0.12930785 0.08425338 0.2283975 -0.08214258 0.14260109 -0.1989485 0.08118438
-0.124153055 0.07084961 0.20533442 -0.11125241 0.092351876 -0.020130653 0.04160189 -0.11410362
-0.04862897 -0.15574834 0.073155515 -0.12227403 0.03543416 0.24947731 0.05443678 0.09905953
0.222588 0.08975861 -0.18392783 0.08443393 -0.020705167 0.32854605 -0.26256096 -0.13033813
0.10474464 0.2650814 -0.049029797 0.022088554 -0.07153662 0.1707274 -0.12338023 -0.0041171457
-0.17138296 -0.09830718 -0.20939595 -0.04082332 0.09490967 0.24323638 -0.20861548 0.18333295
0.018251324 0.12338127 -0.017452866 0.13474824 0.055987235 0.0018658057 -0.1450862 -0.007621133
-0.025356919 0.33694345 -0.12972182 0.038909223 0.26423782 -0.07580229 0.24522308 0.07760224
0.10530852 -0.09869428 0.008346048 -0.0744799 -0.11951158 -0.043817505 -0.13254866 -0.12761928
00000000: d186 f8bd fe88 0abe 4869 b33d cbc1 7c3e
00000010: b81f 0bbe 7575 353a f064 053d 82a9 12be
00000020: 19d0 febd 4844 763d 4aec f63d fbfd 5aba
00000030: 1823 13be 3d04 f33c eaac 98bd ee47 d73d
00000040: 5309 a1be 8a18 45be 5530 f83c 2786 f8bd
00000050: 77a3 2ebe 7e74 0c3e d1ed 96b8 7e56 1c3e
00000060: d811 01be 68fa 2dbe ce2f b9bb ab51 cfbd
00000070: 37ee b33d 3962 cb3d 4524 283e dd3e 7dbe
00000080: fcd9 09be 3b74 09be edf3 33bb bb79 60be
00000090: b2aa c4be 4dd2 dbbd 957a 04be 40ad 39be
000000a0: 9495 68bd 753c c3bd 49d2 01be 9486 50bc
000000b0: 54c5 723c e05f 1e3e 3b33 383e 0788 d33d
000000c0: e9f0 273e 1a8f e8bd 8929 0a3e 3f5d 0ebe
000000d0: 8342 7c3e 83e3 103d 2146 8ebd 6ecd 883d
000000e0: bb96 493e 052a a63d 332c 8cbd 1d13 043e
000000f0: 29f8 80bd 1db6 30be f39e 6fbe 0211 a53a
00000100: 3fbd 7abd f6e1 89bc 3488 1b3d 299d 623d
00000110: 4acf 02be 91fb 7c3d 8236 bbbe 1e02 113d
00000120: 11a6 be3d 6cbc 6cbc f0a0 693b f5dc c03d
00000130: 2bc7 21be 9181 1fbe f033 38be 8818 413e
00000140: d1f6 2dbd 619f a73c b7a0 74be c0cb 1b3e
00000150: bb8b 87bd 01dd 373d bef9 9b3d 1d4d 9e3d
00000160: 0c52 a03d 6564 2f3e 301b 69be 4e79 953d
00000170: 7e82 863e 97c2 0dbc 87a3 b23d c825 70bd
00000180: a349 233d 2dc1 353e 37db 20be 847d 1e3e
00000190: 19ba 633d 4286 c2bd de42 5f3d 0731 933d
000001a0: aca5 d9bd ebb4 74be 8c68 353b a5b8 b8bd
000001b0: f556 ad3e b05d 98bb 5e3e 0e3e fe81 9fbe
000001c0: 9abd 8fbd 21aa f33d bc29 2b3e 370b e0bd
000001d0: ac4a a93c 70e4 8abd 3e15 a1bd 9e08 39be
000001e0: 48ea 6cbc 3970 813d b628 fbbc 2f8c c63d
000001f0: ecc1 8cbd 515a 59bd e58b f0bd 8a29 4dbd
00000200: 840f 91bc ae59 613e 1b0d 983c 4dcd d93d
00000210: 5b81 1dbe 33f6 a3be ccf8 a73d 9d64 033e
00000220: d419 ed3d 73fd 7abe 043c 823e 9351 54be
00000230: b84a 243c 135b 10be 67b9 d8bd 5d8b 7fbd
00000240: cd44 f8bc e95f 0abb 497d fabd 526f 713b
00000250: 485e 8a3d d583 253e e484 48be 3a7d 93bc
00000260: 2bae 06bd 31b9 1f3e b19f b63e 0ad4 033e
00000270: 95ec e3bd 4041 d2bd 800c 053e 10f5 163e
00000280: ccbc 70be 19db a83a 367c a3bd e2d1 943e
00000290: 6c52 cdbc 0cac ef3c d317 723d c1be b93d
000002a0: fe72 2e3d c96a 3fbd 6157 f63d b314 263d
000002b0: 6f2a 9abe 1568 783d 04e5 fb3b c944 84be
000002c0: f006 74ba 242b 9d3d ed0d 9d3e 78ee fb3c
000002d0: 2a50 27be f307 333e f190 f8bd c4e4 29be
000002e0: 1f39 983a 4769 043e 098d ac3d 09e1 693e
000002f0: 5e3a a8bd 0506 123e 28b9 4bbe ff43 a63d
00000300: f543 febd 9a19 913d 3043 523e 4ed8 e3bd
00000310: fb22 bd3d 0ae9 a4bc be66 2a3d 29af e9bd
00000320: 2c2f 47bd 7e7c 1fbe 8fd2 953d cf6a fabd
00000330: 6923 113d fb76 7f3e 1af9 5e3d b9df ca3d
00000340: 1cee 633e 5dd3 b73d 9457 3cbe b2eb ac3d
00000350: e29d a9bc 3037 a83e 646e 86be 5c77 05be
00000360: 5c84 d63d c0b8 873e 78d3 48bd 0ef3 b43c
00000370: cb81 92bd 2ad3 2e3e c6ae fcbd 1fe9 86bb
00000380: 047f 2fbe 4655 c9bd e46b 56be 5b36 27bd
00000390: 0060 c23d f512 793e 4c9f 55be a2bb 3b3e
000003a0: cd83 953c 52af fc3d 50f9 8ebc 71fb 093e
000003b0: df52 653d 0d8e f43a 7a91 14be b2ba f9bb
000003c0: 50b9 cfbc da83 ac3e ccd5 04be 475f 1f3d
000003d0: 2e4a 873e 3b3e 9bbd c21b 7b3e eced 9e3d
000003e0: feab d73d 3a20 cabd ddbd 083c eb88 98bd
000003f0: 7dc2 f4bd fc79 33bd d6ba 07be a1ae 02be

base.main.0.bias f4 [6]
-0.017288743 0.0 0.0 0.0 -0.013657266 0.0
00000000: 1fa1 8dbc 0000 0000 0000 0000 0000 0000
00000010: bac2 5fbc 0000 0000

base.main.2.weight f4 [16, 6, 5, 5]
-0.026713515 -0.10084664 -0.2610095 -0.03131409 0.16452132 0.032823235 -0.045989137 -0.045291465
-0.10323751 -0.030917943 0.32869855 -0.051964488 0.12365557 -0.18691328 -0.08247176 -0.16009653
-0.08134234 -0.18415509 0.17983851 -0.045128647 0.025623115 0.034418922 0.09276088 0.1315088
-0.060995393 -0.002758836 0.080571674 0.1608645 0.16777621 -0.17038815 -0.029195027 -0.16427875
-0.0013882397 0.16444607 -0.01476674 0.049262736 0.033898596 -0.015054577 0.050136127 0.06986551
-0.17815894 -0.026693227 -0.0009470563 -0.06110078 0.0015786148 0.034053 0.07750681 -0.2609303
0.056805193 0.09437243 -0.006846089 -0.07928013 0.086687274 0.03617816 -0.20665008 0.14605057
-0.15025859 -0.08956282 0.03118122 -0.014447124 -0.1433247 -0.11131327 -0.022765338 -0.00092455855
-0.08663465 0.10627263 -0.000117308555 0.18516678 -0.025582979 -0.24892686 -0.031011013 -0.08943959
-0.010002437 -0.0918143 -0.011427237 0.051561184 -0.01137245 -0.007818352 -0.070255436 0.07623958
-0.1239541 -0.025913682 -0.00866455 -0.12810634 0.013653037 -0.019651245 0.014697098 0.08996858
-0.10583422 0.11068968 0.10720634 0.15134045 -0.10606177 0.14568518 -0.11206434 -0.0126169175
0.04495305 -0.019720474 0.12176897 0.07691318 -0.13294746 -0.07820507 -0.057277333 -0.11141417
0.006730986 -0.035716604 0.09861255 -0.05865165 0.23056945 0.10509425 -0.138486 -0.03009154
-0.040922344 0.18494062 -0.05641505 -0.106039785 0.016148746 -0.243213 -0.05506921 -0.06002407
-0.028389039 -0.090188704 0.14908785 0.033454295 -0.14957479 -0.15264285 0.07032014 -0.05465854
0.29403776 -0.0914427 -0.06849918 -0.11587259 -0.09259889 0.17345497 -0.11209428 -0.23098405
-0.030677026 0.11395101 0.12793286 0.12756796 -0.14340127 0.124817185 0.05249192 0.24526815
-0.12764545 0.11604982 -0.108525954 -0.292126 0.03223267 -0.07983309 -0.22090167 0.32926238
0.14104283 -0.029324953 -0.026039308 -0.023360863 0.0057792333 0.20018092 0.12199421 -0.18054388
-0.2634826 -0.08637291 -0.14082211 0.043737 0.06380059 0.07239986 0.027494268 0.07059257
-0.17358336 -0.15216321 -0.055534728 -0.058555223 0.014822936 -0.0008423757 0.12989788 -0.13455406
0.04416825 0.039028585 0.12751879 0.05216947 -0.012399289 -0.09839825 -0.10490981 0.14867796
0.066678956 -0.00051775627 0.21450005 0.017181883 -0.053065017 0.021454912 -0.11368347 0.09825007
0.13227391 -0.16096388 0.17340368 0.06583522 -0.11468295 -0.17522995 -0.07805428 0.051597755
-0.040257294 -0.18385921 0.054833613 -0.09799837 -0.07612802 -0.07676358 -0.10038549 0.07148756
0.010703083 0.022659447 0.016154537 0.17069171 -0.26702175 0.05199622 0.018500114 0.18447965
-0.17892694 0.056013525 -0.056460306 0.23091695 -0.11900515 0.053557724 0.023322878 -0.036804162
-0.07021354 -0.07138416 -0.12953758 -0.22538856 -0.07536235 -0.3278808 -0.1914918 -0.16469407
-0.07293251 -0.21536489 0.067336336 0.07409448 0.23626052 0.037927665 -0.05008637 -0.06851716
0.16027421 -0.004834769 0.02314582 0.029458141 -0.10062031 -0.054639246 0.1489081 -0.06615304
-0.1218667 -0.12001281 -0.065063626 0.14969997 -0.107840635 -0.054396134 -0.13342966 0.045878645
00000000: 4dd6 dabc af88 cebd 0aa3 85be 3443 00bd
00000010: 4778 283e a871 063d 1b5f 3cbd 8b83 39bd
00000020: 306e d3bd a047 fdbc 2d4b a83e b7d8 54bd
00000030: 223f fd3d 3266 3fbe f4e6 a8bd 58f0 23be
00000040: d096 a6bd 2793 3cbe 9627 383e d1d8 38bd
00000050: 91e7 d13c dbfa 0c3d 6bf9 bd3d 3eaa 063e
00000060: 4ed6 79bd 96cd 34bb c302 a53d aab9 243e
00000070: 87cd 2b3e 3b7a 2ebe 692a efbc b038 28be
00000080: 98f5 b5ba 8d64 283e 32f0 71bc b9c7 493d
00000090: 41d9 0a3d 79a7 76bc 8a5b 4d3d a615 8f3d
000000a0: 4c6f 36be c1ab dabc df43 78ba d044 7abd
000000b0: 86e9 ce3a 297b 0b3d e4bb 9e3d a898 85be
000000c0: 90ac 683d 5546 c13d 2855 e0bb 9f5d a2bd
000000d0: 1989 b13d 8d2f 143d 149c 53be 488e 153e
000000e0: 63dd 19be b66c b7bd c26f ff3c a1b3 6cbc
000000f0: b6c3 12be 36f8 e3bd 607e babc 135e 72ba
00000100: 826d b1bd 77a5 d93d 8d03 f6b8 5c9c 3d3e
00000110: 6593 d1bc afe6 7ebe cf0a febc 1b2c b7bd
00000120: 43e1 23bc 2309 bcbd 4e39 3bbc d231 533d
00000130: 8353 3abc 8c18 00bc 15e2 8fbd 7f23 9c3d
00000140: a6db fdbd ee48 d4bc c2f5 0dbc 4f2e 03be
00000150: fdb0 5f3c a6fb a0bc 19cc 703c 7241 b83d
00000160: 9dbf d8bd 45b1 e23d ff8e db3d fef8 1a3e
00000170: ea36 d9bd 7f2e 153e fd81 e5bd 30b7 4ebc
00000180: b020 383d d58c a1bc 0262 f93d a884 9d3d
00000190: 6123 08be fb29 a0bd a39b 6abd 1d2d e4bd
000001a0: 9a8f dc3b 934b 12bd 60f5 c93d b63c 70bd
000001b0: 661a 6c3e a73b d73d 46cf 0dbe 8982 f6bc
000001c0: 309e 27bd 1361 3d3e 7813 67bd 632b d9bd
000001d0: 604a 843c d40c 79be 4090 61bd cddb 75bd
000001e0: 2190 e8bc dbb4 b8bd 7caa 183e 5f07 093d
000001f0: 222a 19be 684e 1cbe 0104 903d a2e1 5fbd
00000200: 1e8c 963e 4f46 bbbd 4c49 8cbd 9c4e edbd
00000210: 7da4 bdbd 2e9e 313e b091 e5bd 1587 6cbe
00000220: 634e fbbc 265f e93d d500 033e 2da1 023e
00000230: c8d7 12be 27a0 ff3d c401 573d 9327 7b3e
00000240: 7db5 02be 87ab ed3d db42 debd 8a91 95be
00000250: 6706 043d 887f a3bd 0c34 62be 1495 a83e
00000260: 886d 103e e23a f0bc 6350 d5bc 485f bfbc
00000270: b95f bd3b 3afc 4c3e 1ad8 f93d 7fe0 38be
00000280: 31e7 86be 48e4 b0bd ac33 10be 9225 333d
00000290: e2a9 823d 6146 943d a93b e13c d692 903d
000002a0: d6bf 31be acd0 1bbe 6278 63bd 9ad7 6fbd
000002b0: e6db 723c e0d2 5cba f303 053e 8ac8 09be
000002c0: c4e9 343d 70dc 1f3d 4994 023e a7af 553d
000002d0: 6326 4bbc 0685 c9bd f4da d6bd 093f 183e
000002e0: fa8e 883d 09ba 07ba e7a5 5b3e 05c1 8c3c
000002f0: b45a 59bd 36c2 af3c e1d2 e8bd 5537 c93d
00000300: d072 073e b7d3 24be bc90 313e 9ed4 863d
00000310: e5de eabd 7b6f 33be ecda 9fbd 2b58 533d
00000320: d5e4 24bd 9745 3cbe 3699 603d 5fb3 c8bd
00000330: 02e9 9bbd 3936 9dbd e896 cdbd 1268 923d
00000340: fc5b 2f3c 4ea0 b93c 8556 843c cfc9 2e3e
00000350: 13b7 88be fdf9 543d 8d8d 973c 3ce8 3c3e
00000360: a038 37be 706e 653d ec42 67bd 7e75 6c3e
00000370: f9b8 f3bd 585f 5b3d 9f0f bf3c f6bf 16bd
00000380: 1ecc 8fbd dc31 92bd 80a5 04be 42cc 66be
00000390: 9357 9abd fedf a7be 6d16 44be 90a5 28be
000003a0: a45d 95bd 9d88 5cbe a2e7 893d d9be 973d
000003b0: 47ee 713e 0a5a 1b3d 5e27 4dbd ba52 8cbd
000003c0: ec1e 243e fb6c 9ebb 4d9c bd3c 3352 f13c
000003d0: 0512 cebd 67cd 5fbd 5d7b 183e 3f7b 87bd
000003e0: 4095 f9bd 47c9 f5bd 1440 85bd f34a 193e
000003f0: 8ddb dcbd 7bce 5ebd c9a1 08be 3feb 3b3d

base.main.2.bias f4 [16]
0.0 0.0005615698 -0.014183119 0.0 8.014636e-05 -0.013995039 0.0 -0.019238098
-0.0068790065 -0.010841325 -0.013690857 0.0 0.0 0.0 0.0 -0.0061163907
00000000: 0000 0000 5036 133a 5060 68bc 0000 0000
00000010: 4014 a838 734b 65bc 0000 0000 3799 9dbc
00000020: 4a69 e1bb d09f 31bc 9e4f 60bc 0000 0000
00000030: 0000 0000 0000 0000 0000 0000 016c c8bb

base.main.4.weight f4 [6, 16, 5, 5]
0.0022029313 -0.060193338 0.08060903 0.08397179 0.025287643 -0.011036399 0.10547074 -0.08650199
0.1611218 -0.005044043 0.007695089 -0.0627164 -0.19663097 0.003285519 0.031390287 0.007783049
0.13249099 -0.015230117 -0.075404085 0.082474075 -0.054749005 0.014476137 0.06015951 -0.07895035
-0.011654778 0.057005223 -0.032360926 -0.12401832 -0.033647567 0.0040395795 0.03698513 -0.015610991
0.05304491 0.053730316 -0.04273356 -0.062458143 0.012838179 -0.04583955 0.109763384 -0.05463712
0.049894795 0.027905317 0.022608293 0.04615341 0.0991602 0.1131276 0.09637012 0.009719569
0.089543045 -0.06984904 0.13189958 0.05084042 -0.088882245 0.07085542 -0.09298537 -0.07665758
-0.040186584 -0.12142369 0.08848115 -0.0023803862 0.070055336 0.056116227 -0.059324894 0.04818548
0.011352855 -0.012589855 -0.04690953 0.01121338 0.009047424 -0.07213268 0.0008383922 -0.015800515
0.00428301 -0.0922213 0.08684943 -0.04532817 0.0407444 -0.09861172 -0.058306333 0.07610927
-0.0049895877 0.021031491 0.018322803 -0.024341121 -0.0061947075 0.056393925 0.06479254 0.090502866
-0.006195073 0.029176656 -0.010317403 -0.12544432 -0.00048567573 -0.058884714 0.04719812 -0.034915853
-0.027430201 0.027196221 0.04843263 -0.00773487 0.107919626 -0.0006361096 0.01425833 0.027909994
0.031595074 0.095434986 -0.033334427 0.037439365 -0.04082916 0.13380963 -0.039627936 -0.12890586
0.10585021 -0.13086027 -0.023152359 0.03965656 0.06770782 0.03918857 -0.1457213 0.0054121623
0.09793932 0.18827105 -0.059157636 -0.080078155 -0.01926661 -0.033438206 -0.032191724 -0.019965904
0.055516392 0.014503658 0.0020756663 0.0038844922 -0.1735698 -0.028963579 0.11371795 -0.012902595
-0.0042261523 0.007818613 0.029948294 -0.09683131 -0.07088962 -0.04254228 0.060311005 0.11373653
0.09954067 0.032703243 -0.036606576 0.09050279 -0.16387357 -0.029049505 -0.038246416 0.010967719
-0.15170367 0.120069414 0.077232346 -0.017608266 -0.029006625 0.033784695 -0.0037817264 0.008336765
-0.087024964 0.032082804 -0.014715057 -0.050431557 0.043868877 0.09691881 0.018470518 -0.023009287
-0.03287126 -0.0003689132 -0.118166044 -0.06341338 0.052686617 -0.08405247 0.038009454 -0.04930115
0.028467163 0.03383057 0.08288215 0.052585576 0.024979532 -0.041640725 0.18117222 0.077629864
-0.07457799 -0.022813598 -0.072402865 -0.016411573 0.06971368 0.0048973905 -0.13869 -0.08246021
-0.002755996 -0.0024434703 0.09348945 -0.005680521 0.04182043 -0.046353314 -0.10475285 -0.0138683915
0.1003375 -0.06460258 0.0717814 0.048983797 -0.034058303 -0.079639114 0.0028811581 -0.046199813
-0.011895994 0.07138893 0.030260704 -0.02229725 -0.06824741 0.07391838 0.020651475 -0.039276436
0.026300028 -0.08013859 -0.12855509 -0.069150776 -0.15208416 -0.21010202 -0.06323352 0.029794455
-0.03101684 -0.13079795 -0.052546218 -0.14047837 -0.057483524 -0.046127122 0.009791352 0.119340055
0.029593576 0.16258837 -0.1049478 -0.04361787 0.040399402 0.055551346 -0.0086076055 0.023701102
-0.08926273 -0.022782259 0.09278656 0.0024956686 -0.049573205 0.025606748 -0.0023508472 0.0010822415
0.067813925 -0.041848708 -0.00044335588 0.04473127 0.06877723 0.013265834 -0.014746205 0.020252228
00000000: 0e5f 103b 4a8d 76bd 5916 a53d 67f9 ab3d
00000010: 0828 cf3c 03d2 34bc 0b01 d83d f527 b1bd
00000020: 1dfd 243e 8048 a5bb 1627 fc3b 7571 80bd
00000030: a159 49be dd51 573b 1a93 003d f208 ff3b
00000040: b8ab 073e be87 79bc 756d 9abd 2be8 a83d
00000050: 7e40 60bd 522d 6d3c d169 763d b9b0 a1bd
00000060: aff3 3ebc 4f7e 693d e48c 04bd 51fd fdbd
00000070: 08d2 09bd 735e 843b b87d 173d 3ec5 7fbc
00000080: 9f45 593d 5214 5c3d 6309 2fbd 1cd4 7fbd
00000090: 3a57 523c 41c2 3bbd a0cb e03d 2ccb 5fbd
000000a0: 7c5e 4c3d b199 e43c 0735 b93c 5c0b 3d3d
000000b0: 8114 cb3d 71af e73d b35d c53d d43e 1f3c
000000c0: 5862 b73d 030d 8fbd af10 073e 0b3e 503d
000000d0: e507 b6bd a51c 913d 1d6f bebd a6fe 9cbd
000000e0: b09a 24bd fcac f8bd 9b35 b53d 4100 1cbb
000000f0: 2c79 8f3d 21da 653d a9fe 72bd 235e 453d
00000100: 5301 3a3c ae45 4ebc 3524 40bd 53b8 373c
00000110: a63b 143c 4cba 93bd 8cc7 5b3a 1570 81bc
00000120: 7e58 8c3b 85de bcbd 1dde b13d 08aa 39bd
00000130: 9ae3 263d f1f4 c9bd 9fd2 6ebd 2ddf 9b3d
00000140: b27f a3bb 3c4a ac3c b419 963c 0867 c7bc
00000150: f9fc cabb 51fd 663d f4b1 843d 9159 b93d
00000160: 0a00 cbbb e203 ef3c 530a 29bc 7a74 00be
00000170: 4ba2 feb9 1931 71bd d152 413d ed03 0fbd
00000180: 4db5 e0bc 9cca de3c 4b61 463d cb74 fdbb
00000190: f704 dd3d 98c0 26ba c59b 693c 80a3 e43c
000001a0: d669 013d 6b73 c33d ae89 08bd 055a 193d
000001b0: 7a3c 27bd 6405 093e e750 22bd e6ff 03be
000001c0: ffc7 d83d 3c00 06be 04aa bdbc eb6e 223d
000001d0: 66aa 8a3d 3284 203d f737 15be 8258 b13b
000001e0: 6994 c83d 20ca 403e 474f 72bd 0400 a4bd
000001f0: 02d5 9dbc 80f6 08bd 78db 03bd 898f a3bc
00000200: 2865 633d c0a0 6d3c e707 083b f792 7e3b
00000210: 48bc 31be 0745 edbc f5e4 e83d 6865 53bc
00000220: 897b 8abb a419 003c 2056 f53c 7e4f c6bd
00000230: 942e 91bd d040 2ebd ac08 773d b3ee e83d
00000240: fbdb cb3d d6f3 053d c7f0 15bd 8759 b93d
00000250: 79ce 27be 3af9 edbc 46a8 1cbd f3b1 333c
00000260: 3558 1bbe f4e6 f53d fe2b 9e3d 363f 90bc
00000270: 4d9f edbc d261 0a3d d7d6 77bb ed96 083c
00000280: 253a b2bd 4269 033d 6c17 71bc 5291 4ebd
00000290: daaf 333d 5e7d c63d 7c4f 973c f97d bcbc
000002a0: 04a4 06bd b16a c1b9 0a01 f2bd e0de 81bd
000002b0: eccd 573d b423 acbd cdaf 1b3d 01f0 49bd
000002c0: f833 e93c ec91 0a3d 1ebe a93d f963 573d
000002d0: e0a1 cc3c 778f 2abd 3685 393e 68fc 9e3d
000002e0: 58bc 98bd 95e3 babc f447 94bd 9071 86bc
000002f0: 0cc6 8e3d 4a7a a03b c004 0ebe e6e0 a8bd
00000300: f19d 34bb a122 20bb 6677 bf3d aa23 babb
00000310: e64b 2b3d f9dc 3dbd aa88 d6bd 4038 63bc
00000320: bf7d cd3d 5c4e 84bd 2002 933d 3ca3 483d
00000330: b880 0bbd d519 a3bd d0d1 3c3b 043c 3dbd
00000340: 6ae7 42bc 5c34 923d 4ce5 f73c b9a8 b6bc
00000350: 4cc5 8bbd 8562 973d 482d a93c 54e0 20bd
00000360: 2873 d73c b31f a4bd f2a3 03be ec9e 8dbd
00000370: f3bb 1bbe fc24 57be 9380 81bd 8013 f43c
00000380: 0717 febc e6ef 05be b43a 57bd 90d9 0fbe
00000390: d873 6bbd cbef 3cbd e86b 203c 8f68 f43d
000003a0: 3a6e f23c 917d 263e dfee d6bd a7a8 32bd
000003b0: d879 253d cf89 633d ea06 0dbc d028 c23c
000003c0: 61cf b6bd dca1 babc e106 be3d 5f8e 233b
000003d0: 460d 4bbd 3ec5 d13c ac10 1abb 00da 8d3a
000003e0: 07e2 8a3d 8d69 2bbd 3872 e8b9 2338 373d
000003f0: 14db 8c3d f158 593c 119a 71bc 00e8 a53c

base.main.4.bias f4 [6]
-0.009486251 -0.005896799 -0.0017481943 -0.0067099556 -0.01585511 0.0006025897
00000000: 386c 1bbc ef39 c1bb ab23 e5ba 30df dbbb
00000010: 93e2 81bc 1cf7 1d3a

base.main.7.weight f4 [512, 216]
0.054982882 -0.017689064 -0.029257739 0.073498406 -0.028059483 -0.046457957 0.032159116 0.13387075
0.027233833 -0.021243004 -0.07073158 0.03274514 0.053361204 -0.010567006 0.009203196 -0.06522076
0.017954893 -0.010703165 -0.034820177 -0.08815732 0.025513405 -0.041460294 0.10845456 0.052407496
0.048763275 -0.08456611 -0.022566184 0.017303824 0.03254749 0.04283424 0.035988078 0.049504973
0.019768873 0.027098982 0.07335992 -0.017136175 -0.06554297 0.021453561 -0.18780245 -0.03394206
0.038457822 0.009268006 -0.055433337 -0.04571039 -0.044958062 -0.012286564 -0.10963367 0.053147033
-0.051893365 -0.07024733 0.03167987 -0.008432601 0.065324485 -0.095392495 0.025488598 0.018870443
-0.009368609 0.0031218764 -0.077119716 0.089745484 -0.068143405 0.031519044 0.0008148064 -0.038357507
-0.017088609 -0.08831312 0.0053423974 0.09440915 -0.08591601 0.022330645 0.058793493 0.050527327
-0.10243988 0.04128052 0.00026381016 -0.017867042 0.008846434 0.005543321 -0.040220723 0.029049521
0.035347603 -0.06304751 0.10668853 0.03668172 0.036735762 -0.034858756 -0.13053317 0.09251752
-0.13232619 -0.14622244 -0.058166116 0.014203118 -0.050787047 0.042346142 -0.057276934 0.030663995
-0.101574175 -0.017702965 0.08702872 -0.115692474 -0.025025424 -0.04478409 -0.07260282 -0.031238168
-0.022883175 0.046577122 0.033827547 -0.04760862 -0.031003213 -0.0254064 0.09163544 -0.038314983
-0.08689585 -0.08058957 0.0075867693 0.04908546 0.08769714 -0.058481913 0.028767258 -0.079139866
-0.0025628605 0.04216934 0.007405356 0.04190413 -0.050057467 0.030544866 -0.036743708 -0.036607422
0.011191514 -0.008412694 -0.064903215 0.10339782 0.02166112 0.047753178 -0.06343215 -0.08030697
-0.08693097 -0.070698805 0.018694842 -0.05398751 -0.035452954 -0.058593776 0.06380157 -0.09331182
-0.07201205 0.024157034 -0.059753627 0.093864314 0.053999685 -0.03239046 0.008315396 0.077783704
-0.05950778 -0.11173552 0.09657013 -0.075930394 -0.11463351 0.06713865 0.029492512 0.017388526
-0.029178688 -0.0933149 -0.114004016 -0.09051876 -0.054007605 -0.16545941 0.024054067 0.053233005
0.13030955 -0.09344366 -0.037942216 0.023216264 -0.009446744 0.081113376 -0.098444805 0.08586031
0.033053234 0.04658895 0.1034904 0.028187584 -0.13412063 -0.019414019 0.010206705 0.047991082
-0.112114675 -0.013201859 0.021114916 0.036199976 -0.051586263 0.07380467 0.003776213 0.026994737
-0.0065260753 -0.04135656 -0.0895216 0.12525102 0.06704447 0.013856789 -0.12580961 -0.0059595904
0.03506066 -0.04548975 0.017862359 -0.05950282 -0.07392968 0.081038766 -0.11548958 -0.035991676
-0.15985438 -0.0043583647 0.04408983 -0.12703466 -0.13331261 0.037017133 0.08883274 -0.03418422
0.02171111 -0.021543901 -0.010670564 -0.010418868 -0.031838935 -0.049696147 -0.035501294 -0.005652223
0.05965903 -0.021818362 -0.023400389 -0.11383474 0.13564746 -0.04613022 0.023706902 0.07374116
-0.031848297 -0.039985053 9.1299415e-05 0.014732329 -0.004888903 -0.035535388 -0.041113492 -0.011292308
-0.011026062 -0.017110603 0.05472445 0.038897857 -0.040092632 -0.119850434 -0.11456431 -0.07824332
0.036540188 9.641939e-05 -0.054297477 -0.0560692 0.019620964 -0.062773526 -0.028483786 -0.039608404
00000000: bb35 613d a8e8 90bc edad efbc 5586 963d
00000010: 00dd e5bc b34a 3ebd 47b9 033d 6a15 093e
00000020: 7d19 df3c cf05 aebc b8db 90bd c51f 063d
00000030: 4791 5a3d 3c21 2dbc 00c9 163c 7692 85bd
00000040: 2416 933c 545c 2fbc 9a9f 0ebd d38b b4bd
00000050: 7d01 d13c 45d2 29bd 6d1d de3d 3ea9 563d
00000060: 00bc 473d ff30 adbd b8dc b8bc c0c0 8d3c
00000070: 8450 053d f572 2f3d 3c68 133d bac5 4a3d
00000080: 55f2 a13c affe dd3c ba3d 963d 2a61 8cbc
00000090: 653b 86bd 61bf af3c 494f 40be d406 0bbd
000000a0: f385 1d3d d6d8 173c 110e 63bd d13a 3bbd
000000b0: f225 38bd 964d 49bc 9e87 e0bd b4b0 593d
000000c0: 238e 54bd d5dd 8fbd c0c2 013d e428 0abc
000000d0: d8c8 853d 245d c3bd 77cd d03c 3096 9a3c
000000e0: cb7e 19bc 6598 4c3b f1f0 9dbd 7bcc b73d
000000f0: c58e 8bbd 1d1a 013d bb98 553a c31c 1dbd
00000100: 69fd 8bbc 82dd b4bd 470f af3b 9659 c13d
00000110: bcf4 afbd c2ee b63c 72d1 703d bef5 4e3d
00000120: 00cc d1bd c315 293d 0050 8a39 e75d 92bc
00000130: a2f0 103c bfa4 b53b 7cbe 24bd 43f9 ed3c
00000140: a6c8 103d 0e1f 81bd 847f da3d 923f 163d
00000150: 3d78 163d 0ec8 0ebd 7daa 05be d379 bd3d
00000160: 8480 07be 56bb 15be 983f 6ebd 32b4 683c
00000170: 1406 50bd 2673 2d3d 389b 6abd 0f33 fb3c
00000180: 1f06 d0bd cf05 91bc 1d3c b23d 2df0 ecbd
00000190: 1e02 cdbc 866f 37bd cab0 94bd 30e7 ffbc
000001a0: 7f75 bbbc a7c7 3e3d c18e 0a3d 4201 43bd
000001b0: 73fa fdbc 1521 d0bc 5dab bb3d 2cf0 1cbd
000001c0: 74f6 b1bd 250c a5bd 6f9a f83b d60d 493d
000001d0: 8f9a b33d bb8a 6fbd 50a9 eb3c 1514 a2bd
000001e0: aaf5 27bb c2b9 2c3d a1a8 f23b aaa3 2b3d
000001f0: 0f09 4dbd 3a39 fa3c 9280 16bd aaf1 15bd
00000200: 9d5c 373c 65d5 09bc faeb 84bd 3cc2 d33d
00000210: a972 b13c d698 433d b7e8 81bd fb77 a4bd
00000220: dd08 b2bd 89ca 90bd ed25 993c 0222 5dbd
00000230: 1e37 11bd 0700 70bd 66aa 823d 441a bfbd
00000240: 0e7b 93bd f9e4 c53c 38c0 74bd ef3b c03d
00000250: c62e 5d3d dcab 04bd 4c3d 083c 104d 9f3d
00000260: 6ebe 73bd 98d5 e4bd 8fc6 c53d 6581 9bbd
00000270: f9c4 eabd fd7f 893d 489a f13c 6272 8e3c
00000280: 2508 efbc e21b bfbd f07a e9bd e661 b9bd
00000290: 1437 5dbd 316e 29be 090d c53c da0a 5a3d
000002a0: de6f 053e 645f bfbd 4c69 1bbd 0930 be3c
000002b0: 84c6 1abc c51e a63d 6e9d c9bd 88d7 af3d
000002c0: d462 073d 0ed4 3e3d c6f2 d33d a6e9 e63c
000002d0: eb56 09be 260a 9fbc 063a 273c 4c92 443d
000002e0: 619c e5bd 9c4c 58bc 30f9 ac3c 6d46 143d
000002f0: 1e4c 53bd e726 973d 577a 773b 1124 dd3c
00000300: b0d8 d5bb 7f65 29bd 1a57 b7bd ce41 003e
00000310: 9c4e 893d 9607 633c 3cd4 00be ab48 c3bb
00000320: c49b 0f3d 7653 3abd 1554 923c 3bb9 73bd
00000330: 7268 97bd a7f7 a53d cd85 ecbd 026c 13bd
00000340: deb0 23be 9dd0 8ebb 8a97 343d 6015 02be
00000350: 1a83 08be 479f 173d f1ed b53d c104 0cbd
00000360: 7fdb b13c d67c b0bc 97d3 2ebc e6b3 2abc
00000370: 8b69 02bd 308e 4bbd ce69 11bd 4836 b9bb
00000380: 075d 743d 6cbc b2bc 2cb2 bfbc 3022 e9bd
00000390: 2be7 0a3e 0bf3 3cbd fa34 c23c 9b05 973d
000003a0: 5c73 02bd 5ec7 23bd 0078 bf38 de5f 713c
000003b0: 1733 a0bb 8e8d 11bd 9f66 28bd 5f03 39bc
000003c0: a8a6 34bc 892b 8cbc bf26 603d 5c53 1f3d
000003d0: 2c38 24bd 2574 f5bd b1a0 eabd 093e a0bd
000003e0: 2aab 153d c434 ca38 0867 5ebd d1a8 65bd
000003f0: 25bc a03c 688f 80bd d456 e9bc 6c3c 22bd

base.main.7.bias f4 [512]
-0.0064438023 0.0 -0.0024037925 -0.004954588 -0.010522761 -0.0062213973 -0.0060651386 -0.00451774
-0.0065508825 -0.0068236818 -0.0010979832 -0.0067655537 -0.0032335422 0.4383108 0.0 -0.007661797
-0.005180923 -0.002311482 -0.009655827 -9.269756e-05 -0.0075906203 -0.002386936 0.0 -0.0066228732
-0.012599684 -0.00591385 -0.00724472 -0.0053412262 -0.007496775 -0.012555183 0.2898232 0.3310883
-0.00042244466 -0.000121703604 -0.00827039 -0.0020308772 -0.0002192356 0.0 -0.0028435737 -0.0025913483
-0.002419364 -0.0018102815 0.3984952 -0.0009386875 -0.0066237063 -0.0067676427 -0.00011592824 -0.00023037684
-0.0006584772 -0.0004505044 -0.0037332145 0.41850808 -0.0073111956 -0.005172346 -0.0045878645 -0.00036051823
-0.006592266 -0.012024568 -0.006629062 0.369732 -0.007270992 -0.0132920295 -0.00018518954 -0.002524181
-0.0068917973 -0.0031922928 -0.0066215033 -0.010838341 -0.00781687 -0.00439942 -0.0017095092 -0.0022392112
-0.0064610327 -0.0064833523 -0.0034418984 -0.00064706977 -4.1913823e-05 0.3466005 -0.005334856 -0.0005468304
-0.00035909924 -0.010486906 -0.0008205529 0.0 -0.006611081 -0.012423474 -0.0010279007 -0.00013743865
-0.011280432 0.0 -0.015461264 0.37468582 -9.0082176e-05 -0.0023308634 -0.004896389 -0.00784638
-0.004022949 -0.0023314222 -0.0063596247 0.0 -0.000117756426 -0.006772235 -0.01307256 -0.0071643386
-0.005822334 0.32852867 0.43755972 -0.0057117944 -0.0005339442 -0.00012084795 -0.0027536207 -0.006678275
-0.00842307 -0.00018723495 -0.003219809 -0.0020168414 -0.00017004833 0.0 -0.00043134508 -0.008634863
-0.004949202 0.0 -0.000873595 -0.0042039333 -0.007647518 -0.00991778 -2.824678e-05 -0.004547524
-0.0126144085 -0.015317679 -0.002416685 -0.008321963 -0.0073163155 -0.0022703912 -0.0063368515 -0.011439843
0.34523883 -0.0066667725 0.36457437 -0.0033160811 -0.00024199486 -0.0022259098 -0.0010048682 -0.0009787471
-5.9666345e-05 -0.0023304909 -0.010513553 -0.00015480688 -0.006524193 -0.0040944265 0.0 -0.007327849
0.3564027 0.3640807 -0.009755244 -0.006724035 -0.00016082264 -0.0075943754 -0.00082996127 -0.012936974
-0.009168144 0.0 0.36439028 0.0 0.3584745 0.0 -0.0035832236 -0.008394154
-0.0036265617 -0.010825949 -0.0068457685 -0.006883613 -0.005805555 -0.00058994314 -0.0032112938 0.40970567
-0.009288018 -0.0014222651 -0.0056536244 -0.0001599096 -0.00042975787 -0.0070747873 -0.00738292 -0.01012663
0.0 -0.0081076175 0.0 0.0 -0.00022828102 0.34039146 -0.0053002723 -0.0020926816
0.33827394 0.38111576 -0.0003430145 -0.006525066 -5.6292512e-05 -0.0023032902 -0.012683052 -0.0046494044
-0.0007986941 0.0 0.0 -0.007110478 -0.006853808 -0.01341111 0.40345302 -0.004287208
-0.0047941497 -0.0022734087 -0.0009749584 -0.0023356478 0.37156394 -0.002886348 -0.004543528 -0.0064251726
0.0 -0.0071858196 -0.0040642098 -0.0069323927 -0.0006164613 -0.0054282346 -0.00814701 -0.002396862
-0.008172966 -0.0066597504 -0.0076246453 -0.006980245 0.37443238 0.0 -0.0062501756 0.0
-0.008073619 -0.0008198095 -0.0002502898 -0.0002250179 -0.00018800062 -0.006025002 -0.00020730356 -0.00999809
-0.00048721058 0.0 -0.00026767107 -0.008597999 0.0 -0.0077462643 0.35000136 -0.0024347955
-0.001903814 -0.0008560666 -0.004946468 0.39053628 -0.0077323513 -0.00096853776 -0.010006338 -0.0075500575
00000000: 8826 d3bb 0000 0000 f288 1dbb 195a a2bb
00000010: a967 2cbc dddc cbbb 12be c6bb 8d09 94bb
00000020: c9a8 d6bb 3199 dfbb 34ea 8fba 94b1 ddbb
00000030: d6e9 53bb 466a e03e 0000 0000 d00f fbbb
00000040: bbc4 a9bb 3c7c 17bb 7933 1ebc a066 c2b8
00000050: bdba f8bb 246e 1cbb 0000 0000 b004 d9bb
00000060: e86e 4ebc f8c8 c1bb 1e65 edbb 7405 afbb
00000070: 82a7 f5bb 41b4 4dbc b563 943e 6884 a93e
00000080: 907b ddb9 203b ffb8 8880 07bc 7718 05bb
00000090: 9ce2 65b9 0000 0000 405b 3abb 9cd3 29bb
000000a0: 318e 1ebb f846 edba 9007 cc3e 4012 76ba
000000b0: ad0b d9bb 1ac3 ddbb 801e f3b8 5091 71b9
000000c0: a89d 2cba ad31 ecb9 f2a8 74bb b146 d63e
000000d0: c192 efbb c87c a9bb cc55 96bb f003 bdb9
000000e0: ef03 d8bb b202 45bc 9a38 d9bb 834d bd3e
000000f0: 8041 eebb d0c6 59bc 702f 42b9 bb6c 25bb
00000100: 96d4 e1bb c935 51bb 32f9 d8bb 4c93 31bc
00000110: 5412 00bc 0329 90bb 9c11 e0ba bbbf 12bb
00000120: 12b7 d3bb 4d72 d4bb 7991 61bb 1ea0 29ba
00000130: a0cc 2fb8 9f75 b13e 04d0 aebb 2b59 0fba
00000140: 7c45 bcb9 46d1 2bbc 5f1a 57ba 0000 0000
00000150: c4a1 d8bb d48b 4bbc a0ba 86ba 681d 10b9
00000160: 90d1 38bc 0000 0000 3e51 7dbc d2d6 bf3e
00000170: 80ea bcb8 66c1 18bb e371 a0bb 1a8e 00bc
00000180: f1d2 83bb c6ca 18bb 6664 d0bb 0000 0000
00000190: 00f4 f6b8 a0e9 ddbb 4a2e 56bc d4c2 eabb
000001a0: 47c9 bebb e934 a83e d407 e03e 012a bbbb
000001b0: 64f8 0bba c06f fdb8 1776 34bb 6ed5 dabb
000001c0: eb00 0abc 8054 44b9 6e03 53bb fc2c 04bb
000001d0: 004f 32b9 0000 0000 2826 e2b9 3e79 0dbc
000001e0: ea2c a2bb 0000 0000 f801 65ba 26c1 89bb
000001f0: 0898 fabb 2f7e 22bc 80f3 ecb7 6503 95bb
00000200: aaac 4ebc 01f7 7abc 3f61 1ebb d858 08bc
00000210: b4bd efbb d8ca 14bb 5da5 cfbb 2e6e 3bbc
00000220: 25c3 b03e f174 dabb 7ea9 ba3e 9c52 59bb
00000230: 00c0 7db9 92e0 11bb c8b5 83ba 4e49 80ba
00000240: 4042 7ab8 26bb 18bb 0a41 2cbc a853 22b9
00000250: e6c8 d5bb 8a2a 86bb 0000 0000 741e f0bb
00000260: 6a7a b63e c968 ba3e 75d4 1fbc 4b55 dcbb
00000270: 80a2 28b9 3dda f8bb c291 59ba 9af5 53bc
00000280: fc35 16bc 0000 0000 5d91 ba3e 0000 0000
00000290: f889 b73e 0000 0000 84d4 6abb a287 09bc
000002a0: 9cab 6dbb 525f 31bc 7852 e0bb ee8f e1bb
000002b0: 863c bebb 6aa6 1aba 9274 52bb f1c4 d13e
000002c0: c52c 18bc 4c6b baba 0a42 b9bb 68ad 27b9
000002d0: 2051 e1b9 9ed3 e7bb 6cec f1bb 2aea 25bc
000002e0: 0000 0000 d0d5 04bc 0000 0000 0000 0000
000002f0: b85e 6fb9 ca47 ae3e e8ad adbb 5f25 09bb
00000300: 3e32 ad3e 9b21 c33e a0d6 b3b9 39d0 d5bb
00000310: a01b 6cb8 ccf2 16bb 93cc 4fbc 085a 98bb
00000320: 745f 51ba 0000 0000 0000 0000 03ff e8bb
00000330: e995 e0bb 46ba 5bbc 6591 ce3e b57b 8cbb
00000340: 3e18 9dbb 78fd 14bb 5a94 7fba ab11 19bb
00000350: a13d be3e e228 3dbb e0e1 94bb 418a d2bb
00000360: 0000 0000 0677 ebbb 102d 85bb 2029 e3bb
00000370: 049a 21ba 55df b1bb 097b 05bc ac14 1dbb
00000380: e7e7 05bc 093a dabb 29d8 f9bb 8aba e4bb
00000390: 9ab5 bf3e 0000 0000 46ce ccbb 0000 0000
000003a0: 3647 04bc 7ce8 56ba 5439 83b9 c8f2 6bb9
000003b0: 0822 45b9 616d c5bb a05f 59b9 07cf 23bc
000003c0: 4c70 ffb9 0000 0000 3456 8cb9 9fde 0cbc
000003d0: 0000 0000 60d4 fdbb 6133 b33e 1791 1fbb
000003e0: 6689 f9ba a869 60ba fb15 a2bb 5ff4 c73e
000003f0: aa5f fdbb 78e5 7dba a0f1 23bc 7966 f7bb

base.critic_linear.weight f4 [1, 512]
-0.03804348 0.040066633 0.055443883 -0.038521513 -0.007477277 6.8038236e-05 0.0006781295 -0.030844847
-0.05031559 -0.05300775 0.024611015 0.06388375 0.012261289 0.09506176 0.0025402915 0.0018919581
-0.010115856 -0.012477927 -0.0046935305 0.014524896 -0.05999117 0.048815362 0.037864964 -0.061547287
0.000111123256 -0.016967835 0.00169749 0.043826837 -0.016089506 -0.0013244438 0.13017745 0.107234076
0.02808945 0.021577181 0.0027870256 0.03226877 0.0488659 0.019486943 -0.002324371 0.040337574
0.038629048 -0.007454681 0.09689649 -0.10533679 -0.02077378 -0.037322596 0.030853858 0.018458607
0.023608297 0.05752598 0.0013201052 0.10172183 -0.06680476 -0.0051628035 -0.029370418 0.04122495
-0.055936456 -0.0044473205 -0.013993377 0.10802948 -0.08361713 0.00094523805 0.020062922 0.049554035
-0.040025108 -0.0036703188 -0.034735538 -0.0047669117 -0.037372988 -0.0057555633 -0.042621378 0.040953275
-0.039718363 -0.041805822 -0.02310821 0.030675177 0.020908454 0.10143337 0.0022917846 0.04032292
0.047333565 -0.009701372 0.07003899 0.042890165 -0.0074129975 -0.027217686 0.0069332654 0.011712186
-0.006920833 -0.048140742 -0.04710164 0.100515164 -0.02865412 0.03828786 -0.02227774 0.018629793
-0.033339057 0.039475325 -0.03140182 -0.047916856 0.0273891 -0.03796287 0.065066725 0.0010480345
0.041534774 0.10608557 0.09536466 0.03715933 0.014195942 0.028057735 0.010895708 -0.024329148
0.0045926794 0.09823705 -0.038604036 -0.014842724 -0.03407011 0.09500345 0.03250681 0.08619372
-0.0062000714 -0.07839316 0.043923937 -0.031643443 -0.0050230213 0.021703925 0.029198643 -0.029094843
-0.035828445 -0.019352747 0.06161351 -0.027449632 -0.026917957 0.0057254573 -0.0069706673 0.0011695166
0.116822526 -0.07093106 0.10361864 -0.024988847 0.040127657 0.00033326726 0.054814294 -0.10397405
0.025186105 0.006971271 -0.0044619967 0.03649608 -0.046644256 -0.07179757 -0.005014883 -0.068888284
0.09785682 0.110102095 -0.045084767 -0.08766265 0.052563168 -0.016674487 0.0349831 -0.02484304
-0.028219985 -0.028935777 0.110317945 -0.01739042 0.09692937 -0.038587246 -0.051774718 -0.0026064345
0.012660901 0.017636959 -0.025543716 -0.036461804 -0.012025578 0.038316835 -0.06294803 0.099981055
0.019941447 -0.062680006 -0.039661966 0.011430855 -0.027405983 -0.025362883 0.010904258 0.040249
-0.078975216 0.0010302372 0.03952282 -0.025784355 0.021815654 0.101846784 -0.037210982 -0.014948322
0.11537627 0.103530355 -0.02492787 0.027560815 0.03941273 0.05749322 0.0012369659 -0.0045258044
0.04007012 -0.06542913 -0.026523031 -0.010662607 -0.06569992 0.121229626 0.102580294 -0.030690916
-0.0014378708 0.06050849 0.05127184 0.12340185 0.106996976 -0.0044586295 0.0024435897 -0.036546826
-0.011902657 0.005370658 -0.04319882 -0.0053431145 0.04962091 0.058104772 0.0031019696 0.017714448
-0.00062039314 -0.069199294 -0.037971083 -0.0013569193 0.096458495 0.011248541 -0.0065661687 -0.07318341
0.025984792 0.018523447 0.067105174 0.048380453 0.04851953 -0.03476814 0.09088794 -0.051968466
0.049506973 0.0012096176 0.03692749 0.005741016 -0.031695686 0.010604715 0.096786134 0.06449061
-0.013469048 0.015135683 -0.009107096 0.10385106 -0.012218755 0.011396484 -0.026000476 -0.0419394
00000000: 7bd3 1bbd e91c 243d 2019 633d bcc8 1dbd
00000010: f203 f5bb c0af 8e38 80c4 313a 55ae fcbc
00000020: b817 4ebd a81e 59bd 0a9d c93c 7cd5 823d
00000030: 93e3 483c bdaf c23d 057b 263b 94fb f73a
00000040: fabc 25bc 3870 4cbc 30cc 99bb d4f9 6d3c
00000050: 4db9 75bd 9ef2 473d 4b18 1b3d 0219 7cbd
00000060: d80a e938 2100 8bbc 507e de3a c583 333d
00000070: 24ce 83bc f698 adba 3d4d 053e 8a9d db3d
00000080: d91b e63c a1c2 b03c 88a6 363b 422c 043d
00000090: 9c27 483d 15a3 9f3c 7954 18bb 0339 253d
000000a0: 7e39 1e3d 6646 f4bb ab71 c63d d1ba d7bd
000000b0: c62d aabc 94df 18bd 3bc1 fc3c 8136 973c
000000c0: 3066 c13c 5da0 6b3d 6107 ad3a 8953 d03d
000000d0: efd0 88bd bc2c a9bb 3b9a f0bc 7edb 283d
000000e0: a01d 65bd d4ba 91bb 7a44 65bc 8f3e dd3d
000000f0: 753f abbd dac9 773a ff5a a43c 2cf9 4a3d
00000100: 5ef1 23bd bb89 70bb da46 0ebd c133 9cbb
00000110: 6b14 19bd 2a99 bcbb c193 2ebd 9fbe 273d
00000120: b9af 22bd 953c 2bbd 6e4d bdbc 824a fb3c
00000130: 3548 ab3c 4cbc cf3d c431 163b a529 253d
00000140: d7e0 413d 81f2 1ebc 9a70 8f3d 99ad 2f3d
00000150: bbe8 f2bb a0f7 debc 7230 e33b 78e4 3f3c
00000160: 28c8 e2bb 3a2f 45bd a6ed 40bd e5da cd3d
00000170: 0cbc eabc bbd3 1c3d cf7f b6bc 829d 983c
00000180: 898e 08bd e1b0 213d 329f 00bd 7744 44bd
00000190: 1b5f e03c f47e 1bbd b441 853d 345e 893a
000001a0: 5e20 2a3d 6443 d93d 8c4e c33d 6234 183d
000001b0: 1996 683c 56d9 e53c e983 323c ec4d c7bc
000001c0: 307e 963b 8230 c93d 441f 1ebd e62e 73bc
000001d0: 1a8d 0bbd 2b91 c23d dc25 053d 5586 b03d
000001e0: f829 cbbb 988c a0bd 96e9 333d 8e9c 01bd
000001f0: 2898 a4bb 6ecc b13c fe31 ef3c 4f58 eebc
00000200: d9c0 12bd a789 9ebc 735e 7c3d 0dde e0bc
00000210: 0c83 dcbc 9e9c bb3b 326a e4bb 774a 993a
00000220: a640 ef3d 4e44 91bd 0236 d43d 69b5 ccbc
00000230: e65c 243d 60ba ae39 f484 603d 59f0 d4bd
00000240: 1753 ce3c 426f e43b f135 92bb ea7c 153d
00000250: 0c0e 3fbd 9b0a 93bd e353 a4bb 4d15 8dbd
00000260: 2869 c83d 357d e13d ceaa 38bd 7a88 b3bd
00000270: 7a4c 573d ef98 88bc 704a 0f3d a283 cbbc
00000280: 992d e7bc b90a edbc 60ee e13d 5b76 8ebc
00000290: e882 c63d a90d 1ebd ba11 54bd b7d0 2abb
000002a0: ab6f 4f3c 627b 903c 0e41 d1bc f958 15bd
000002b0: ee06 45bc 1df2 1c3d e6ea 80bd dec2 cc3d
000002c0: 3f5c a33c 605e 80bd 9674 22bd 7b48 3b3c
000002d0: 8382 e0bc d2c5 cfbc c6a7 323c 23dc 243d
000002e0: c2bd a1bd 0609 873a aee2 213d b639 d3bc
000002f0: beb6 b23c 0c95 d03d 8b6a 18bd cfe9 74bc
00000300: 654a ec3d b907 d43d 8835 ccbc 38c7 e13c
00000310: 3e6f 213d 037e 6b3d b021 a23a 334d 94bb
00000320: 9120 243d b5ff 85bd d446 d9bc 37b2 2ebc
00000330: ae8d 86bd 3d47 f83d 9e15 d23d 846b fbbc
00000340: f076 bcba c0d7 773d 6c02 523d 1cba fc3d
00000350: 3b21 db3d b219 92bb a224 203b 20b2 15bd
00000360: 5d03 43bc 58fc af3b 3ff1 30bd 4b15 afbb
00000370: 4c3f 4b3d 45ff 6d3d 6a4a 4b3b e41d 913c
00000380: e1a1 22ba 5cb8 8dbd 9187 1bbd a8da b1ba
00000390: 088c c53d cd4b 383c 0429 d7bb 2fe1 95bd
000003a0: 0fde d43c 7cbe 973c 706e 893d 952a 463d
000003b0: 6abc 463d 0a69 0ebd 7523 ba3d e3dc 54bd
000003c0: d3c7 4a3d 088c 9e3a 4841 173d 221f bc3b
000003d0: 56d3 01bd 66bf 2d3c cf37 c63d a713 843d
000003e0: 48ad 5cbc a8fb 773c ee35 15bc ddaf d43d
000003f0: 2c31 48bc 52b8 3a3c f3fe d4bc a6c8 2bbd

dist.linear.weight f4 [4, 512]
-0.005214422 0.00060635316 -0.005458814 0.0014185873 -0.0068506105 -0.0011866776 -0.006228143 -0.0024306455
-0.0007879527 4.1706662e-05 -0.011852971 -0.0038773736 -0.005937921 0.2712601 0.00017912369 0.005363702
-0.0058413655 -0.0064838137 0.005805795 -0.013123463 -0.009982637 -0.0051403977 -0.00013895775 -0.004194414
-0.004159742 -0.000573553 -0.0062671998 -0.0082818335 0.005842363 0.004149014 0.25909355 0.2721806
-0.002435956 -0.011664109 -0.0026138467 0.00305059 -0.021280702 0.0002751231 -0.0065375357 -0.0054596765
-0.004283538 -0.010637609 0.27555704 -0.0041290447 -0.0003208635 0.0016049657 -0.0027920478 -0.008569145
-0.006569596 -0.020393426 -0.0041500665 0.26629707 -0.005359335 -0.0011463417 0.0016389999 -0.00229415
-0.0063054697 -0.006687819 0.0028221186 0.26009563 -0.003826449 -0.0046193115 -0.0069565047 -0.0063667693
-0.0030593658 -0.008470189 -0.007959581 -0.005478307 -0.008274706 0.0046304334 -0.008120759 -0.0021684815
-0.006385821 -0.0055616307 -0.0036091092 -0.0020662749 -0.014148295 0.26546517 -0.005755244 -0.014193104
-0.009494637 -0.0063260477 -0.013851728 -0.0005674385 -0.0010521191 -0.003998064 -0.006834758 -0.014042202
0.0017719863 0.0008654608 -0.01210034 0.28054768 -0.0010417538 -0.0020374353 0.000108917826 0.007875345
0.0018508045 -0.004367383 -0.006541619 -0.00024195931 -0.0046921917 0.0021461528 0.006653682 -0.0018132986
0.0008122245 0.26664937 0.26500735 6.343075e-05 -0.0071551953 -0.007839293 -0.004502193 0.0015268634
0.0013649309 -0.016175529 0.0010629944 -0.0077720513 -0.008183168 0.00023764813 -0.014768167 0.0067856126
0.0013872073 0.00012765272 -0.015642153 -0.005461216 -0.008761127 -0.003725155 -0.0025193978 0.0011284545
-0.009204028 -0.0065340386 -0.0058955653 -0.0090021705 -0.008825365 -0.0061934255 0.004483769 -0.0032450391
0.26754236 -0.005552266 0.26407695 -0.0064379335 -0.005980657 -0.0011777151 -0.007652021 -0.008622041
-0.022533376 -0.0035553575 0.0064798933 -0.010787643 -0.0030334613 -0.0030193857 0.00024114989 0.00089470687
0.26924998 0.27154118 0.005524688 -0.005888273 -0.0056402204 0.004091972 -0.0114925075 -0.0045666955
-0.006264781 0.00019751163 0.27342626 0.0011080336 0.26708075 0.00028153008 0.0042089047 -0.0067594354
-0.0075143096 0.0057385266 -0.0043796566 -0.0019764751 -0.0058851014 -0.019024776 -0.0067472328 0.26759014
-3.054169e-05 0.004921007 0.0029941692 -0.009474751 -0.00092062156 -0.011169907 0.0035864392 0.005462407
0.00036611134 -0.0014779293 1.5638763e-05 0.00032952093 -0.006522212 0.26845378 -0.0073213694 -0.009269155
0.25858805 0.27161494 -0.009900089 -0.0010874944 -0.009090238 -0.0038511446 -0.0052852044 -9.006022e-05
-0.014440334 -0.00021974205 -0.0005773528 0.003188994 -0.00025604945 0.002586816 0.2723167 -0.00508408
-0.0061638607 -0.0020082844 -0.008581801 -0.0067393654 0.26010904 -0.008198375 -0.0038891034 -0.0053340923
0.00023222712 0.001485535 -0.008328185 -0.0030810935 -0.010525284 -0.0058643543 -0.0064970423 -0.00676428
-0.0073518 -0.0032077348 -0.011334238 -0.0046242955 0.26764238 -1.4712596e-05 0.00027120073 0.00035022188
0.006125003 -0.014165135 -0.014917971 -0.013493377 -0.022624275 -0.002662241 -0.004825663 -0.007946549
-0.010243325 0.00014798646 -0.01520476 0.0041592047 0.00028198457 -0.0017518965 0.27076375 -0.006912124
-0.0072501684 -0.0028446084 0.0003280805 0.26252145 -0.008221837 -0.005759331 -0.0076233377 -0.007525271
00000000: bedd aabb acf3 1e3a dadf b2bb e4ef b93a
00000010: 167b e0bb 4b8a 9bba 7315 ccbb 774b 1fbb
00000020: 9c8e 4eba 30ee 2e38 f732 42bc 891b 7ebb
00000030: e492 c2bb 9be2 8a3e 26d3 3b39 fec1 af3b
00000040: ed68 bfbb 2c76 d4bb 8a3e be3b cb03 57bc
00000050: 378e 23bc c870 a8bb 30b5 11b9 4b71 89bb
00000060: 724e 88bb 7e5a 16ba 155d cdbb 87b0 07bc
00000070: 4b71 bf3b 74f4 873b e9a7 843e 415b 8b3e
00000080: 8fa4 1fbb d21a 3fbc 124d 2bbb 68ec 473b
00000090: de54 aebc 663e 9039 d338 d6bb 16e7 b2bb
000000a0: ec5c 8cbb 5e49 2ebc d015 8d3e f04c 87bb
000000b0: 9239 a8b9 b65d d23a cafa 36bb 9965 0cbc
000000c0: c445 d7bb 1d10 a7bc 48fd 87bb 1758 883e
000000d0: 5c9d afbb d840 96ba b6d3 d63a 7359 16bb
000000e0: 1d9e cebb 7e25 dbbb 4bf3 383b 412b 853e
000000f0: 29c5 7abb 985d 97bb 64f3 e3bb 55a0 d0bb
00000100: a47f 48bb 8cc6 0abc e768 02bc 5f83 b3bb
00000110: a292 07bc e4ba 973b ef0c 05bc 151d 0ebb
00000120: 2640 d1bb 573e b6bb ce86 6cbb 576a 07bb
00000130: 40ce 67bc 0deb 873e 7c96 bcbb 318a 68bc
00000140: 658f 1bbc bc4a cfbb 5cf2 62bc 27c0 14ba
00000150: 42e7 89ba 3102 83bb 1bf6 dfbb 4411 66bc
00000160: fe41 e83a 17e0 623a 8140 46bc f2a3 8f3e
00000170: 758b 88ba 7e86 05bb d06a e438 9707 013c
00000180: b296 f23a 441c 8fbb 145b d6bb 75b6 7db9
00000190: f5c0 99bb 78a6 0c3b 2107 da3b 34ac edba
000001a0: 77eb 543a 4486 883e 0baf 873e 2006 8538
000001b0: 2176 eabb 6170 00bc 2287 93bb 0921 c83a
000001c0: 7be7 b23a 8b82 84bc 2c54 8b3a b1ac febb
000001d0: b212 06bc 2f31 7939 2ff6 71bc d859 de3b
000001e0: f4d2 b53a 84da 0539 f923 80bc 00f4 b2bb
000001f0: d48a 0fbc bb21 74bb 7b1c 25bb a6e8 933a
00000200: 7ecc 16bc 7d1b d6bb 962f c1bb d77d 13bc
00000210: 4498 10bc 38f2 cabb 95ec 923b b9aa 54bb
00000220: 50fb 883e c8ef b5bb 1835 873e 4df5 d2bb
00000230: 63f9 c3bb 905d 9aba cebd fabb 7643 0dbc
00000240: ea97 b8bc 0001 69bb 4955 d43b a7be 30bc
00000250: 09cd 46bb e3e0 45bb 2edd 7c39 c38a 6a3a
00000260: 22db 893e 7207 8b3e 7108 b53b 6af2 c0bb
00000270: 99d1 b8bb f315 863b 124b 3cbc 38a4 95bb
00000280: cb48 cdbb 201b 4f39 87fe 8b3e 703b 913a
00000290: cfbe 883e 549a 9339 daea 893b 417e ddbb
000002a0: 993a f6bb 400a bc3b 3983 8fbb c087 01bb
000002b0: cfd7 c0bb d9d9 9bbc e417 ddbb 9301 893e
000002c0: e419 00b8 6640 a13b d339 443b fc3b 1bbc
000002d0: de55 71ba fc01 37bc 770a 6b3b fefd b23b
000002e0: a2f2 bf39 14b7 c1ba fd2f 8337 8dc3 ac39
000002f0: 48b8 d5bb c672 893e 19e8 efbb a7dd 17bc
00000300: a765 843e 1d11 8b3e fc33 22bc 428a 8eba
00000310: 39ef 14bc 7c63 7cbb 822f adbb b6de bcb8
00000320: 2797 6cbc 8f6a 66b9 7e59 17ba 71fe 503b
00000330: 603e 86b9 9287 293b 186d 8b3e 5b98 a6bb
00000340: 36fa c9bb 6c9d 03bb af9a 0cbc e5d5 dcbb
00000350: 032d 853e 7a52 06bc 54e0 7ebb 9cc9 aebb
00000360: fe81 7339 48b6 c23a f172 08bc 2cec 49bb
00000370: 3e72 2cbc c529 c0bb 24e5 d4bb e5a6 ddbb
00000380: 5ee7 f0bb dc38 52bb 3db3 39bc 6787 97bb
00000390: 6c08 893e 1ed6 76b7 f22f 8e39 fc9d b739
000003a0: 40b4 c83b e214 68bc 816a 74bc 5313 5dbc
000003b0: 8b56 b9bc fe78 2ebb 9820 9ebb 3e32 02bc
000003c0: 9ed3 27bc d02c 1b39 631d 79bc f049 883b
000003d0: 54d7 9339 e49f e5ba 8ca1 8a3e 197f e2bb
000003e0: d292 edbb 9c6c 3abb 3802 ac39 3669 863e
000003f0: e2b4 06bc c5b8 bcbb 31cd f9bb 8c96 f6bb

dist.linear.bias f4 [4]
0.23824495 0.23346774 0.24618106 0.29056942
00000000: 7cf6 733e 2b12 6f3e e316 7c3e 84c5 943e
