experiment1/checkpoint/test/cifar10/a2c/lr0.0007_max_steps29_seed1_window5_cifar_model2.pt (torch_old, 504338 bytes, 13 tensors)

base.main.0.weight f4 [6, 4, 5, 5]
-0.18638466 0.19569467 -0.031527404 -0.023384472 0.16172808 -0.07644286 -0.109650664 -0.074244365
-0.14789464 -0.30070108 -0.08553647 -0.20524034 -0.05340304 -0.10679523 -0.051845063 0.1779789
0.2224591 -0.07021363 -0.24622469 -0.070385784 -0.040146105 -0.20907663 -0.13174444 -0.14783451
-0.1641859 0.1610777 -0.026435442 0.38404948 0.13399285 0.16182572 0.0020587887 0.298983
0.025692366 0.08616303 0.14160453 -0.06475507 0.16644539 -0.12665062 0.21736711 -0.0029371998
0.01900494 -0.014706966 0.05530585 0.10731923 0.22382416 -0.26959652 0.11564138 0.20832117
-0.077979386 0.07486697 0.059887573 -0.27755857 0.14691645 0.10934378 0.013638629 0.23286217
0.054445233 0.022379482 -0.09279975 0.31802833 -0.044057567 0.16880628 0.003047874 0.23043159
0.11912941 -0.009621961 0.023065483 0.15178844 0.0898618 -0.024057264 -0.09557813 0.06260262
-0.1943196 0.13675843 -0.042452145 -0.10313876 0.1272138 0.20555936 -0.033280604 0.01659402
0.034504153 0.11303784 -0.03352184 -0.027467383 0.13204788 0.051162157 0.027215397 0.03449138
0.19527438 0.011954699 -0.10614291 0.06379115 -0.18027976 -0.06879443 0.05874151 0.12688433
-0.10685627 -0.21007726 0.1306954 -0.005013353 0.07067867 -0.40931517 -0.2154508 -0.03018917
0.050510515 0.14351813 -0.06627581 0.12614164 0.26169127 0.015461945 0.19258982 -0.049282916
-0.116461076 -0.009581991 -0.26147997 -0.118215054 0.16004945 0.04588995 -0.17944254 0.15304576
-0.1411374 0.10041442 -0.055948846 0.25955805 -0.013724973 -0.013494379 0.09111598 0.19253552
-0.069342814 -0.10193089 0.2316475 -0.014222007 0.15695514 0.07430633 -0.0012148364 -0.0514811
-0.25338548 -0.19528867 0.072307065 -0.051001076 -0.1301512 -0.07336233 -0.049371876 0.041247115
-0.07868653 -0.20047075 0.15513512 -0.0033225561 0.09897138 0.24957307 -0.20606269 -0.1695338
0.24866782 0.16517958 0.17628713 0.058814906 -0.08665675 0.16102877 0.21296914 -0.19302934
0.11126773 -0.09494056 -0.12285303 -0.009135197 0.03592341 0.01747798 -0.0013298019 -0.22455859
-0.0040578404 0.19252774 -0.043892033 0.213312 0.08726248 0.16454545 0.054970704 -0.12379959
0.14362209 -0.16724314 -0.059002046 0.015257163 0.057133313 -0.064484 0.19768667 -0.09077076
0.012516001 0.09448005 -0.011348846 -0.0841621 -0.02718097 -0.034987792 -0.2288231 0.19140671
-0.10365614 0.09951338 0.19717023 -0.012248655 -0.2187829 0.14494358 -0.06078943 -0.14645863
-0.11826602 -0.055549286 0.023870142 0.33646554 -0.08282909 0.4399593 -0.12936804 0.018666402
-0.013830537 -0.07784811 -0.26541337 -0.11537261 -0.17111854 -0.12662402 0.15700835 -0.14833678
0.17117125 -0.23373678 -0.13944206 0.37179023 0.14033212 0.08425102 0.22345617 0.23039104
-0.18159813 0.24270844 -0.015832389 0.07084008 0.2333658 -0.0920741 -0.08097232 0.087828785
0.15181564 -0.15548858 -0.13157386 0.03166857 0.12630796 -0.010935664 -0.25748673 0.018398322
0.001529739 -0.080135696 0.13146 0.21931662 0.028223364 0.09603792 0.062265158 -0.091291115
0.046727587 -0.10860476 0.07801775 0.12656724 0.061731722 0.0832316 -0.036224727 0.12124451
00000000: 9fdb 3ebe 2f64 483e e122 01bd cb90 bfbc
00000010: 0c9c 253e 138e 9cbd 8790 e0bd 6e0d 98bd
00000020: b171 17be 7ef5 99be bf2d afbd 862a 52be
00000030: 25bd 5abd 75b7 dabd 7d5b 54bd 1a40 363e
00000040: 51cc 633e 2acc 8fbd 5322 7cbe 6c26 90bd
00000050: 3e70 24bd 2f18 56be 04e8 06be ee61 17be
00000060: 5920 28be 8df1 243e 248f d8bc 22a2 c43e
00000070: 6c35 093e a4b5 253e beec 063b 4d14 993e
00000080: cc78 d23c 3e76 b03d c700 113e 4e9e 84bd
00000090: a970 2a3e b3b0 01be 7c95 5e3e 097e 40bb
000000a0: 3fb0 9b3c 7cf5 70bc 6388 623d 2fca db3d
000000b0: 2932 653e 8e08 8abe 63d5 ec3d 2552 553e
000000c0: a8b3 9fbd db53 993d ac4c 753d 281c 8ebe
000000d0: 4471 163e a2ef df3d 8e74 5f3c 6c73 6e3e
000000e0: f701 5f3d 2d55 b73c cc0d bebd 9cd4 a23e
000000f0: b575 34bd 8edb 2c3e d7be 473b 42f6 6b3e
00000100: 1ffa f33d 6ea5 1dbc d3f3 bc3c 6e6e 1b3e
00000110: 7709 b83d bd13 c5bc 77be c3bd cd35 803d
00000120: b8fb 46be 670a 0c3e 4de2 2dbd 6a3a d3bd
00000130: 5644 023e 277e 523e 3e51 08bd 2ff0 873c
00000140: 3a54 0d3d 6280 e73d 324e 09bd 4703 e1bc
00000150: 8f37 073e 698f 513d d3f2 de3c d546 0d3d
00000160: 02f6 473e a4dd 433c 7461 d9bd efa4 823d
00000170: 429b 38be 18e4 8cbd f09a 703d f7ed 013e
00000180: 76d7 dabd 7e1e 57be 04d5 053e 0e47 a4bb
00000190: fbbf 903d c291 d1be 229f 5cbe 474f f7bc
000001a0: 1de4 4e3d 6bf6 123e 9dbb 87bd 462b 013e
000001b0: 66fc 853e 1954 7d3c 4436 453e e2dc 49bd
000001c0: 2583 eebd c8fd 1cbc b4e0 85be bc1a f2bd
000001d0: 01e4 233e 1af7 3b3d c9bf 37be 07b8 1c3e
000001e0: 5386 10be 13a6 cd3d 9e2a 65bd cbe4 843e
000001f0: b6de 60bc 8717 5dbc 049b ba3d 0828 453e
00000200: 9b03 8ebd 24c1 d0bd 0135 6d3e 6c03 69bc
00000210: d9b8 203e eb2d 983d 253b 9fba d9dd 52bd
00000220: bebb 81be c1f9 47be ba15 943d 81e6 50bd
00000230: 5b46 05be fd3e 96bd 2a3a 4abd bcf2 283d
00000240: 6726 a1bd 3448 4dbe bedb 1e3e 3ebf 59bb
00000250: 82b1 ca3d 1590 7f3e 1902 53be 459a 2dbe
00000260: c7a2 7e3e d624 293e 9d84 343e e6e7 703d
00000270: 1879 b1bd bae4 243e 9514 5a3e 7ca9 45be
00000280: 56e0 e33d 3270 c2bd 5f9a fbbd cbab 15bc
00000290: 6d24 133d fb2d 8f3c bf4c aeba b0f2 65be
000002a0: a2f7 84bb fe25 453e 22c8 33bd 766e 5a3e
000002b0: acb6 b23d 9a7e 283e f628 613d a48a fdbd
000002c0: ab11 133e c941 2bbe 21ac 71bd 2ef9 793c
000002d0: 9f04 6a3d 3010 84bd 606e 4a3e 05e6 b9bd
000002e0: ea0f 4d3c c27e c13d 83f0 39bc 2e5d acbd
000002f0: a0aa debc 5c4f 0fbd 9a50 6abe 1f00 443e
00000300: ac49 d4bd accd cb3d fee6 493e 95ae 48bc
00000310: a008 60be 176c 143e 56fe 78bd 40f9 15be
00000320: 7535 f2bd a687 63bd 518b c33c 3645 ac3e
00000330: 4ca2 a9bd 5842 e13e 0e79 04be 48ea 983c
00000340: 7a99 62bc d46e 9fbd 43e4 87be 7a48 ecbd
00000350: b339 2fbe baa9 01be ccc6 203e 99e5 17be
00000360: 8447 2f3e b258 6fbe e6c9 0ebe 4a5b be3e
00000370: 39b3 0f3e cc8b ac3d b2d1 643e a1eb 6b3e
00000380: dcf4 39be 9088 783e edb2 81bc 9b14 913d
00000390: 72f7 6e3e 5991 bcbd d1d4 a5bd 94df b33d
000003a0: 8f75 1b3e 6638 1fbe 4cbb 06be e7b6 013d
000003b0: e056 013e 802b 33bc 4dd5 83be 14b8 963c
000003c0: 8681 c83a 2f1e a4bd 739d 063e 8994 603e
000003d0: af34 e73c 87af c43d c009 7f3d d6f6 babd
000003e0: 6d65 3f3d 2c6c debd c5c7 9f3d d89a 013e
000003f0: 67da 7c3d 5475 aa3d 6160 14bd 0b4f f83d

base.main.0.bias f4 [6]
-0.0023545076 -0.015894812 -0.024186324 -0.0017201849 -0.029813858 -0.01742854
00000000: 154e 1abb d635 82bc 6622 c6bc d477 e1ba
00000010: 313c f4bc 4cc6 8ebc

base.main.2.weight f4 [16, 6, 5, 5]
0.13162053 -0.15563445 0.03806723 0.053036448 0.1874234 0.009007011 0.060763784 -0.052835796
-0.0749247 -0.017961318 0.09473763 -0.0072969897 -0.14477012 0.059831675 0.2175122 0.066525556
-0.040567134 -0.19342165 0.039987255 -0.06161245 0.27355376 -0.05565197 0.07792488 0.31469715
0.11567284 -0.110995136 0.055694718 -0.19247492 0.008605131 -0.16770743 0.063328736 0.046408687
-0.010684097 0.21926288 0.056259323 0.026744984 -0.088047996 0.1149051 0.03136915 -0.008907268
0.0909791 -0.046557654 0.1696976 -0.041887924 0.16651165 0.023511356 0.08453591 -0.01917915
0.1716848 0.14613818 0.15434024 0.09636642 -0.08524697 0.07005153 0.06414243 -0.24608219
-0.06996174 -0.052427962 -0.046517707 -0.0010414196 0.11506848 -0.14330459 -0.108977765 -0.06724257
0.089749195 0.14828439 -0.115440175 0.08137937 0.008043252 0.17699279 0.09606936 -0.059968293
-0.16626874 -0.02495464 -0.11984195 -0.052616775 -0.12975368 0.07189184 0.28369552 -0.10587907
0.0534647 0.077327274 0.09643849 -0.012068805 0.07245427 -0.12852733 0.015274872 0.06661693
0.089083515 -0.04322137 -0.050979577 0.06666232 0.12199338 0.09261784 0.10558045 0.002902797
-0.040768918 0.1466503 -0.04599743 -0.040175505 -0.016047345 -0.08792415 0.09582739 -0.02348517
0.032875404 0.2198365 -0.10750546 0.23141582 -0.17702864 -0.09424426 0.02042902 0.21405436
-0.084706955 0.13660115 0.15140282 0.0778428 0.10398888 0.0625009 -0.122972116 0.066849865
0.11303502 -0.035923302 -0.038959935 -0.09781406 -0.047442246 0.11027278 0.14898477 0.083876014
0.03542871 0.08710043 0.106462434 -0.00095404626 0.010523081 -0.025308378 -0.10713533 0.0057230596
0.083687805 -0.18077923 0.27137265 0.013560762 0.22373936 -0.09002133 -0.21788077 0.16245958
-0.073403396 0.14261143 0.06894676 0.13392662 -0.03768174 0.008098935 -0.024608986 -0.069537975
0.014490982 0.037608452 -0.18892953 0.1255056 -0.049161553 0.16981871 -0.034617662 -0.099494465
-0.1647293 -0.050109804 -0.037824064 0.0973358 0.004922 0.14142638 0.09060587 0.028855655
0.118576944 0.12963505 0.06787876 -0.011347118 0.23034616 -0.022374976 -0.035044014 0.07245902
-0.17995875 -0.008198978 0.1462805 -0.07923121 0.059880327 -0.0915849 0.16257 -0.06593245
0.065864235 -0.039899815 0.020319523 -0.015258832 0.013454453 0.14767455 -0.08939929 0.09261218
-0.10162361 0.0232067 0.22956999 -0.14753753 -0.035109587 0.113649346 0.032419097 -0.0067846263
-0.040080674 0.01277868 0.23719034 0.10336632 -0.05704721 0.012817142 0.24910344 0.013884169
0.113620326 -0.024027003 0.19007343 -0.12816292 -0.08506808 -0.035357013 0.06972468 -0.026496584
0.034699682 -0.096826546 -0.0019599043 -0.033377435 -0.10948541 0.010825632 -0.114767246 0.011308589
-0.06288937 -0.07593847 -0.0638164 -0.087721236 -0.060805712 0.06941242 -0.13526075 -0.14432424
0.18893269 -0.047042944 0.012986895 0.014056033 0.18887818 0.11636175 -0.056609478 -0.018638378
-0.0054624756 -0.14957863 0.0020299605 -0.21870337 0.13194734 0.010077744 -0.06706932 -0.017010441
-0.050185554 0.22517069 0.1862085 0.02441268 -0.10597083 0.11448201 0.16478506 0.175708
00000000: 88c7 063e a35e 1fbe 62ec 1b3d bf3c 593d
00000010: ebeb 3f3e 2492 133c 72e3 783d 596a 58bd
00000020: 1f72 99bd 9d23 93bc cd05 c23d 961b efbb
00000030: 9e3e 14be 0f12 753d 85bb 5e3e 8d3e 883d
00000040: b929 26bd 5310 46be adc9 233d 565d 7cbd
00000050: 3d0f 8c3e 52f3 63bd 1497 9f3d fc1f a13e
00000060: e2e5 ec3d 6b51 e3bd 2520 643d 2518 45be
00000070: 89fc 0c3c 7fbb 2bbe 7fb2 813d 0917 3e3d
00000080: 5a0c 2fbc 7386 603e 2d70 663d 4c18 db3c
00000090: 8252 b4bd 5d53 eb3d f07c 003d caef 11bc
000000a0: 4053 ba3d 3db3 3ebd 35c5 2d3e ac92 2bbd
000000b0: 0882 2a3e e39a c03c 2a21 ad3d 981d 9dbc
000000c0: 24ce 2f3e 3fa5 153e 5e0b 1e3e c25b c53d
000000d0: f795 aebd 2d77 8f3d 1b5d 833d f8fc 7bbe
000000e0: 1a48 8fbd b4be 56bd 5a89 3ebd 3e80 88ba
000000f0: 06a9 eb3d 70be 12be bc2f dfbd 79b6 89bd
00000100: 6dce b73d ddd7 173e e66b ecbd 3aaa a63d
00000110: d8c7 033c 993d 353e 03c0 c43d 50a1 75bd
00000120: 5a42 2abe ac6d ccbc b26f f5bd b084 57bd
00000130: 26de 04be 073c 933d 8a40 913e 20d7 d8bd
00000140: cdfd 5a3d c35d 9e3d 8b81 c53d 3dbc 45bc
00000150: e862 943d ab9c 03be 7543 7a3c 756e 883d
00000160: 6b71 b63d e408 31bd f6cf 50bd 4186 883d
00000170: aad7 f93d 6cae bd3d 903a d83d da3c 3e3b
00000180: 4ffd 26bd 7f2b 163e cd67 3cbd 128f 24bd
00000190: b975 83bc 9411 b4bd 2741 c43d f963 c0bc
000001a0: 5ca8 063d d21c 613e d32b dcbd 45f8 6c3e
000001b0: ff46 35be 2203 c1bd c35a a73c 1131 5b3e
000001c0: d77a adbd 2ce1 0b3e 5709 1b3e 0c6c 9f3d
000001d0: 1ff8 d43d 7900 803d ced8 fbbd 95e8 883d
000001e0: e87e e73d 5024 13bd 7494 1fbd bd52 c8bd
000001f0: cd52 42bd b2d6 e13d 778f 183e 30c7 ab3d
00000200: b21d 113d b661 b23d fa08 da3d f618 7aba
00000210: 0069 2c3c 8453 cfbc c569 dbbd 8188 bb3b
00000220: 8364 ab3d 311e 39be 5bf1 8a3e f52d 5e3c
00000230: ee1b 653e 1a5d b8bd 231c 5fbe ce5b 263e
00000240: 8554 96bd bb08 123e f533 8d3d 0f24 093e
00000250: 2b58 1abd 65b1 043c c998 c9bc ed69 8ebd
00000260: 956b 6d3c 520b 1a3d be76 41be 8a84 003e
00000270: a05d 49bd f5e4 2d3e 40cb 0dbd c1c3 cbbd
00000280: ccae 28be f03f 4dbd 68ed 1abd fe57 c73d
00000290: bb48 a13b 14d2 103e 928f b93d b262 ec3c
000002a0: 78d8 f23d 0dbf 043e 0504 8b3d 43e9 39bc
000002b0: dddf 6b3e ba4b b7bc 508a 0fbd 6565 943d
000002c0: 1b47 38be 0255 06bc 8eca 153e f943 a2bd
000002d0: 1345 753d dd90 bbbd c078 263e 9807 87bd
000002e0: d4e3 863d fd6d 23bd 2175 a63c 2e00 7abc
000002f0: 1170 5c3c ff37 173e fa16 b7bd 74ab bd3d
00000300: 0a20 d0bd fa1b be3c 6514 6b3e 1414 17be
00000310: 12cf 0fbd fdc0 e83d e3c9 043d 9251 debb
00000320: a22b 24bd ab5d 513c 06e2 723e b9b1 d33d
00000330: 56aa 69bd fdfe 513c f914 7f3e 6d7a 633c
00000340: c6b1 e83d 47d4 c4bc 9ca2 423e 243d 03be
00000350: 2c38 aebd 84d2 10bd d0cb 8e3d 5d0f d9bc
00000360: 4121 0e3d ff4c c6bd bd71 00bb c7b6 08bd
00000370: e339 e0bd fe5d 313c 170b ebbd a947 393c
00000380: 24cc 80bd a185 9bbd 2cb2 82bd 31a7 b3bd
00000390: 690f 79bd 1928 8e3d cb81 0abe bcc9 13be
000003a0: 9277 413e 1ab0 40bd fcc6 543c 474b 663c
000003b0: 4869 413e 124f ee3d 57df 67bd 83af 98bc
000003c0: 91fe b2bb 242b 19be 1609 053b c7f3 5fbe
000003d0: 341d 073e 1f1d 253c a45b 89bd 7b59 8bbc
000003e0: 5e8f 4dbd 2593 663e 71ad 3e3e 1afd c73c
000003f0: 3c07 d9bd 8b75 ea3d 6abd 283e ccec 333e

base.main.2.bias f4 [16]
-0.0016156313 -0.0013285102 0.0010900118 0.016281877 0.005701457 0.009065722 -0.013284087 -0.01168485
-0.013037705 -0.0007133692 0.0062484294 0.0081877615 0.011577054 -0.017385533 -0.004681453 -0.009091846
00000000: 97c3 d3ba 6821 aeba bade 8e3a 9261 853c
00000010: 4ad3 ba3b 6588 143c 80a5 59bc d071 3fbc
00000020: 199c 55bc 6601 3bba a0bf cc3b f625 063c
00000030: afad 3d3c 1b6c 8ebc e066 99bb f7f5 14bc

base.main.4.weight f4 [6, 16, 5, 5]
-0.048433464 0.05617778 -0.1570548 -0.10255679 0.010832851 -0.005966635 0.1689744 -0.053346686
0.04686635 -0.03484697 0.07069676 -0.03597821 -0.011710767 -0.009279888 -0.0016046944 -0.099530965
0.089522906 0.010314466 0.102230854 -0.095124096 -0.016695905 0.043310523 0.022804482 0.078451626
-0.102182105 -0.045316927 -0.0009157527 -0.20674345 0.08912569 -0.044900578 0.05532476 -0.0003981791
0.037895627 -0.024867767 0.010584514 -0.071571894 -0.103469275 -0.074714586 0.060133066 -0.019582912
-0.10120882 -0.056328725 0.071843185 0.048041973 0.0059946827 -0.00523437 -0.05722293 0.043532204
-0.081928074 0.003350522 -0.086519055 0.0191865 -0.059439562 -0.053566374 -0.005833964 -0.08966044
0.059086114 -0.049818035 0.015330275 0.03631651 -0.06259544 0.07889795 -0.08099836 0.13037853
-0.034657605 0.06751464 -0.0030722278 -0.08919911 -0.08855847 0.035173476 -0.029182747 -0.04666334
-0.021433963 -0.14455758 -0.0021119912 -0.017431155 -0.18672127 -0.008030544 -0.021854993 0.11888813
-0.008341924 -0.042204082 0.05951822 0.12092139 -0.01579162 -0.042766947 -0.07006666 -0.036518767
0.032781094 0.076735765 -0.068562426 -0.10090657 0.041281663 0.011291036 0.061268035 0.07973586
0.06017126 -0.05825357 -0.0038597882 0.03069599 -0.02087472 -0.0006144934 0.05386926 -0.025078073
-0.027198719 -0.09942177 -0.06450511 -0.07257393 -0.03053517 0.11741485 0.00022440415 0.026380064
-0.002777893 0.035521746 -0.13219884 -0.026103636 -0.100951724 -0.13469446 -0.08240564 0.048153557
-0.08456207 0.04403327 0.0031592478 -0.030399308 -0.091836676 -0.023994463 -0.07803996 0.030273499
0.09515361 -0.019824224 -0.10625586 0.042468876 0.03496939 0.0692453 -0.026579773 0.065573655
-0.06622611 -0.04537623 -0.004245389 -0.040537998 0.019502109 -0.037526775 -0.07673239 -0.16215397
0.06875641 0.07935647 -0.093668655 0.086895555 0.016452631 -0.10782183 -0.008575721 -0.10974809
0.15431891 -0.038339797 -0.059893325 0.0659784 -0.049200553 -0.19368802 -0.08278251 0.031295158
0.0518421 0.0071674054 -0.006619819 -0.037387114 0.050912328 -0.015915113 -0.0153899845 0.041480727
-0.08000389 0.03473661 0.1625456 0.12914142 0.054889467 -0.013396857 -0.027659327 0.019336663
0.090536915 0.068743564 -0.050467394 -0.07990283 0.063310586 0.08955382 -0.044110678 -0.1516263
-0.08782981 -0.041777134 0.010314683 -0.01576561 0.06125857 -0.021866024 0.0129958745 0.13825281
0.023072228 -0.059389863 -0.020833269 -0.04928254 -0.03542534 -0.030186515 -0.09199542 -0.090964235
0.035750397 0.012544014 0.020902477 -0.06654323 0.012950797 -0.06023859 -0.100303866 -0.07468996
-0.053511135 -0.10547157 -0.018455958 0.14925262 -0.0017441147 0.035225812 0.060186025 -0.07050679
0.11443243 0.028282508 -0.0068346406 -0.04671496 0.0139831025 -0.1304884 0.023162793 -0.10842631
-0.002397801 -0.0250014 0.1087665 -0.024188124 -0.031710483 0.009598231 -0.012206117 -0.08110764
-0.040249318 -0.044569977 0.009709601 0.11305399 -0.08745063 -0.023989799 -0.031269956 0.06341221
-0.0069335243 -0.033828005 -0.04841644 -0.07646305 0.060807325 -0.080826215 -0.07817079 -0.06717079
-0.06938519 0.059971873 -0.033383466 -0.0023941882 0.075555235 -0.010135006 -0.07020642 -0.04938497
00000000: 2b62 46bd ac1a 663d f9d2 20be 4b09 d2bd
00000010: 457c 313c c383 c3bb a007 2d3e 0e82 5abd
00000020: eef6 3f3d b2bb 0ebd 77c9 903d e35d 13bd
00000030: 84de 3fbc ac0a 18bc 9c54 d2ba e4d6 cbbd
00000040: c957 b73d 02fe 283c 695e d13d 6cd0 c2bd
00000050: dac5 88bc 6066 313d 77d0 ba3c 3fab a03d
00000060: da44 d1bd 3e9e 39bd 200f 70ba 8eb4 53be
00000070: 8887 b63d abe9 37bd 379c 623d b2c2 d0b9
00000080: 7238 1b3d 7db7 cbbc ab6a 2d3c 4994 92bd
00000090: b3e7 d3bd f603 99bd 174e 763d 586c a0bc
000000a0: 9246 cfbd f3b8 66bd 8522 933d a9c7 443d
000000b0: 0b6f c43b 1485 abbb 9762 6abd d34e 323d
000000c0: e8c9 a7bd 6e94 5b3b e730 b1bd 022d 9d3c
000000d0: e676 73bd 6a68 5bbd d62a bfbb e59f b7bd
000000e0: 4804 723d ff0d 4cbd d52b 7b3c 9fc0 143d
000000f0: 0a32 80bd 4095 a13d 78e2 a5bd f381 053e
00000100: 22f5 0dbd 1e45 8a3d 6e57 49bb 06ae b6bd
00000110: 255e b5bd 1012 103d a810 efbc 0f22 3fbd
00000120: 4796 afbc e706 14be 5569 0abb c8cb 8ebc
00000130: dc33 3fbe 8b92 03bc 3e09 b3bc 9f7b f33d
00000140: 91ac 08bc 30de 2cbd 61c9 733d a2a5 f73d
00000150: 6d5d 81bc 652c 2fbd 1c7f 8fbd b494 15bd
00000160: 7845 063d a427 9d3d 756a 8cbd 1ba8 cebd
00000170: f616 293d 0afe 383c 31f4 7a3d 8e4c a33d
00000180: 2476 763d 4c9b 6ebd 80f4 7cbb 2876 fb3c
00000190: 7601 abbc f415 21ba 03a6 5c3d 8870 cdbc
000001a0: d9cf debc a49d cbbd 411b 84bd a4a1 94bd
000001b0: e524 fabc 3277 f03d 084e 6b39 011b d83c
000001c0: 500d 36bb 407f 113d 225f 07be 4bd7 d5bc
000001d0: c7bf cebd 58ed 09be 4ac4 a8bd aa3c 453d
000001e0: e12e adbd 3b5c 343d 620b 4f3b f807 f9bc
000001f0: de14 bcbd 0990 c4bc 6ad3 9fbd 2100 f83c
00000200: e5df c23d 6966 a2bc ac9c d9bd d8f3 2d3d
00000210: 103c 0f3d 7bd0 8d3d d3bd d9bc 7b4b 863d
00000220: 8ea1 87bd 6ddc 39bd e71c 8bbb 2c0b 26bd
00000230: e3c2 9f3c adb5 19bd df25 9dbd b10b 26be
00000240: 29d0 8c3d a585 a23d 5ad5 bfbd 4cf6 b13d
00000250: abc7 863c b1d1 dcbd 2e81 0cbc 9bc3 e0bd
00000260: c705 1e3e 310a 1dbd b452 75bd af1f 873d
00000270: 8586 49bd 2756 46be e089 a9bd 5a2f 003d
00000280: 6258 543d 8edc ea3b 11eb d8bb 3b23 19bd
00000290: 7289 503d 6960 82bc 4626 7cbc b2e7 293d
000002a0: 14d9 a3bd fa47 0e3d 5b72 263e a63d 043e
000002b0: c7d3 603d 7e7e 5bbc d095 e2bc ec67 9e3c
000002c0: 6b6b b93d 6dc9 8c3d e6b6 4ebd 18a4 a3bd
000002d0: fba8 813d fe67 b73d 66ad 34bd ed43 1bbe
000002e0: 1ee0 b3bd 801e 2bbd ebfe 283c e126 81bc
000002f0: 44ea 7a3d 6020 b3bc a6ec 543c 2592 0d3e
00000300: f801 bd3c c942 73bd 88aa aabc 7ddc 49bd
00000310: 291a 11bd b649 f7bc 1868 bcbd 754b babd
00000320: 026f 123d 6885 4d3c ac3b ab3c d147 88bd
00000330: 942f 543c bdbc 76bd 1d6c cdbd 0df7 98bd
00000340: 7e2e 5bbd 7a01 d8bd f330 97bc aed5 183e
00000350: c79a e4ba f148 103d 9f85 763d dd65 90bd
00000360: 8d5b ea3d b8b0 e73c 1ff5 dfbb 3058 3fbd
00000370: 6219 653c c09e 05be e6bf bd3c 9d0e debd
00000380: 6d24 1dbb bccf ccbc f9c0 de3d 2c26 c6bc
00000390: dae2 01bd e641 1d3c 2afc 47bc c31b a6bd
000003a0: 78dc 24bd 028f 36bd 0515 1f3c da88 e73d
000003b0: 5119 b3bd 4186 c4bc ed14 00bd 43de 813d
000003c0: 9e32 e3bb 3c8f 0abd 5150 46bd a998 9cbd
000003d0: 1a11 793d 3788 a5bd 0218 a0bd d790 89bd
000003e0: d319 8ebd 11a5 753d 1abd 08bd d0e7 1cbb
000003f0: b4bc 9a3d 4c0d 26bc 62c8 8fbd e547 4abd

base.main.4.bias f4 [6]
-0.018818954 -0.009472304 -0.015764032 -0.003997242 -0.006705604 -0.012850322
00000000: 352a 9abc b931 1bbc 9223 81bc 4cfb 82bb
00000010: afba dbbb 288a 52bc

base.main.7.weight f4 [512, 216]
0.028974677 0.033738125 0.04146457 -0.13187766 0.045004606 0.028404439 0.06924254 8.8073546e-05
0.07055686 0.06922891 -0.02046591 0.096530415 -0.041326042 -0.064597964 0.048396558 0.049202055
-0.036668014 -0.06613968 -0.005997847 -0.037568204 0.03955297 0.0026778588 0.008305772 -0.03096742
0.015857566 0.009213081 -0.072540775 -0.006383022 -0.02764299 0.053627525 -0.017283272 0.041789293
-0.029896926 -0.026851486 0.04346635 -0.105862744 0.03533433 -0.037110854 -0.063346975 -0.06959092
0.07511818 -0.15478233 -0.007198699 0.012403731 0.0540665 0.02753508 -0.006813727 -0.0066916966
-0.08213635 0.033965345 -0.034472026 -0.04124199 -0.09396528 -0.018395517 -0.08917984 -0.054320343
0.0014966684 0.012283428 0.052835535 0.052354436 0.069684684 0.03490188 -0.01383401 0.015137915
-0.00704563 -0.03157372 -0.039619025 -0.021449115 -0.04678796 0.050790884 0.0991309 -0.039267913
0.021787591 -0.003819038 -0.0203435 0.05540959 0.07294974 -0.025136001 -0.031644274 -0.061507482
-0.11247541 -0.052523576 0.063278526 0.04539896 0.03521636 -0.014783446 -0.036764733 -0.056340296
0.11086431 0.068061516 0.0013063565 -0.068192914 0.021328142 -0.07866862 0.038749553 -0.07405
0.093742736 -0.0101905605 -0.054030195 -0.0937868 -0.058289055 0.041673817 -0.04293442 0.01116544
0.0846407 0.16394271 -0.051494427 0.04866338 -0.040872127 0.04834729 -0.010540443 0.03304356
0.0905323 -0.080161214 0.1047317 -0.029991554 0.049127515 -0.0017907252 0.0076952744 -0.057389166
-0.01529529 0.054759387 0.10694048 -0.035298172 0.041993663 0.066782705 -0.08058394 0.00023035033
-0.009678507 -0.011383429 -0.018885607 0.10857571 0.02707148 -0.007616702 -0.019414224 0.05226461
0.05254456 -0.04418528 -0.079296514 0.06825003 0.024451694 -0.11144584 0.04121349 -0.05483237
0.0048237736 0.010840507 -0.030818747 0.06512778 -0.0007794737 0.019936841 0.092584126 0.04858038
0.0013189008 0.050047632 0.12043518 0.013194939 0.025275143 0.031635847 -0.0060213897 -0.02939659
0.009196586 -0.04701251 0.018991122 -0.0033335602 0.10920861 0.042772707 0.028319607 -0.061293866
0.0059702625 0.044565216 0.0063028308 -0.033235896 -0.11130643 0.019461526 0.039401516 0.13296111
-0.039807465 -0.031721573 0.040465232 -0.0454441 -0.012206555 0.09261434 -0.08575707 0.16198051
0.075527646 -0.13505875 -0.029925177 -0.08008509 0.033218037 0.027417794 -0.007846852 0.04626586
-0.02577553 0.05381348 0.0014253067 0.07462164 0.08718908 0.023944763 0.08570524 0.1385943
0.05053492 -0.024032831 -0.06286121 -0.103143424 -0.0653848 -0.049338724 -0.11014531 0.0021594916
-0.0013581665 0.12417554 0.041640427 0.011546032 0.014799151 -0.10723384 0.037297715 -0.038029097
-0.00684772 0.026722563 -0.006255324 -0.039624304 0.008501778 -0.0972016 0.005716259 0.11473643
-0.08019258 0.050773047 -0.04662194 -0.059395373 0.058486342 0.028367622 -0.13934407 0.0015630963
-0.078558765 0.012667155 -0.04090407 -0.09213586 -0.015380305 0.04959184 -0.03006491 -0.033640265
0.054976508 0.028509757 -0.042195566 0.049541198 0.09012308 -0.051313307 -0.029582366 -0.020890994
0.09535646 -0.039239444 0.027773216 0.01218838 0.043379102 -0.040683027 0.11091547 0.007891512
00000000: 4d5c ed3c fd30 0a3d c1d6 293d f00a 07be
00000010: c056 383d 6db0 e83c 08cf 8d3d 20b4 b838
00000020: 1d80 903d e3c7 8d3d 20a8 a7bc bdb1 c53d
00000030: 7f45 29bd f04b 84bd 783b 463d 1888 493d
00000040: 3331 16bd 3e74 87bd 9689 c4bb 1ee1 19bd
00000050: 4c02 223d 047f 2f3b ef14 083c 63af fdbc
00000060: bae7 813c 76f2 163c 4290 94bd ab28 d1bb
00000070: 8d73 e2bc 89a8 5b3d a695 8dbc 402b 2b3d
00000080: 66ea f4bc a6f7 dbbc c509 323d 91ce d8bd
00000090: bbba 103d 8d01 18bd 0fbc 81bd af85 8ebd
000000a0: 8fd7 993d 427f 1ebe 10e3 ebbb 0539 4b3c
000000b0: d674 5d3d 4091 e13c af45 dfbb 0546 dbbb
000000c0: 1a37 a8bd 3f1f 0b3d 8a32 0dbd 5ced 28bd
000000d0: de70 c0bd 32b2 96bc eca3 b6bd 027f 5ebd
000000e0: dc2b c43a 6e40 493c 136a 583d 9b71 563d
000000f0: d8b6 8e3d 46f5 0e3d 0ba8 62bc 0405 783c
00000100: 07df e6bb 7253 01bd 8f47 22bd 0eb6 afbc
00000110: bba4 3fbd 1a0a 503d 2405 cb3d 64d7 20bd
00000120: e47b b23c d348 7abb 69a7 a6bc 2bf5 623d
00000130: ac66 953d 04ea cdbc 6d9d 01bd 45ef 7bbd
00000140: 8259 e6bd f622 57bd 2c98 813d 43f4 393d
00000150: 083f 103d 4436 72bc 9e96 16bd 15c5 66bd
00000160: d40c e33d d663 8b3d 0d3a ab3a baa8 8bbd
00000170: 5bb8 ae3c 031d a1bd dab7 1e3d 87a7 97bd
00000180: 31fc bf3d 4ff6 26bc c44e 5dbd 4b13 c0bd
00000190: 81c0 6ebd 2ab2 2a3d 01dc 2fbd 40ef 363c
000001a0: 1a58 ad3d 99e0 273e d2eb 52bd 4153 473d
000001b0: 8869 27bd cf07 463d d2b1 2cbc af58 073d
000001c0: 0069 b93d 902b a4bd 937d d63d d9b0 f5bc
000001d0: ef39 493d c4b6 eaba a428 fc3b e710 6bbd
000001e0: 1999 7abc 614b 603d 9c03 db3d d194 10bd
000001f0: 8c01 2c3d 5fc5 883d 3109 a5bd 328a 7139
00000200: 9a92 1ebc 9081 3abc fdb5 9abc f15c de3d
00000210: 02c5 dd3c 8795 f9bb 940a 9fbc 6a13 563d
00000220: f738 573d a0fb 34bd 3666 a2bd acc6 8b3d
00000230: eb4e c83c b73d e4bd 7acf 283d e897 60bd
00000240: bf10 9e3b 629c 313c 9977 fcbc b761 853d
00000250: 9855 4cba 9652 a33c bf9c bd3d 38fc 463d
00000260: f8de ac3a bffe 4c3d b8a6 f63d 962f 583c
00000270: d10d cf3c 9794 013d 144f c5bb 1ed1 f0bc
00000280: 47ad 163c 3190 40bd 4593 9b3c dc77 5abb
00000290: c4a8 df3d 6f32 2f3d 85fe e73c 470f 7bbd
000002a0: 31a2 c33b 048a 363d fa87 ce3b 5d22 08bd
000002b0: a0f4 e3bd c76d 9f3c 7c63 213d f526 083e
000002c0: 270d 23bd 7bee 01bd dfbe 253d 9823 3abd
000002d0: 01fe 47bc 96ac bd3d 67a1 afbd 38de 253e
000002e0: 3dae 9a3d d74c 0abe a525 f5bc a703 a4bd
000002f0: a30f 083d 489b e03c 1590 00bc 4581 3d3d
00000300: 3427 d3bc 866b 5c3d 5bd1 ba3a 3bd3 983d
00000310: 3090 b23d cf27 c43c 3b86 af3d aaeb 0d3e
00000320: b4fd 4e3d 80e0 c4bc 61bd 80bd dc3c d3bd
00000330: 77e8 85bd 6717 4abd dd93 e1bd 4286 0d3b
00000340: 8104 b2ba bf4f fe3d 278f 2a3d 912b 3d3c
00000350: 2378 723c 6a9d dbbd 7dc5 183d 66c4 1bbd
00000360: d762 e0bb 47e9 da3c 76f9 ccbb 184d 22bd
00000370: 0b4b 0b3c a211 c7bd 754f bb3b effa ea3d
00000380: 023c a4bd 66f7 4f3d a6f6 3ebd 9048 73bd
00000390: 608f 6f3d 3763 e83c 36b0 0ebe cfe0 cc3a
000003a0: 6be3 a0bd e689 4f3c 078b 27bd bab1 bcbd
000003b0: adfd 7bbc d020 4b3d b04a f6bc 60ca 09bd
000003c0: 0c2f 613d 4b8d e93c 42d5 2cbd b6eb 4a3d
000003d0: 7392 b83d e72d 52bd b856 f2bc 9723 abbc
000003e0: 3f4a c33d 8ab9 20bd a884 e33c c5b1 473c
000003f0: 49ae 313d 3fa3 26bd a627 e33d 664b 013c

base.main.7.bias f4 [512]
-0.005554441 -0.0002916184 -0.008343407 -0.0042848485 0.19035728 -0.0016594697 -0.013980758 -0.0011554181
-0.00024376612 0.31034943 -0.006671376 -0.003303987 -0.014855032 -0.009202365 0.3478205 -0.009514863
-1.0398158e-05 -0.00012969528 0.16723904 -0.0008797182 -0.0022485948 -0.0140171815 -9.048148e-05 -0.008632676
-0.0068887454 -0.008450728 -0.00044119195 -0.0048339795 0.33635792 -0.007728344 -0.0022425936 -0.0045855734
-0.010348158 -0.0021399055 -0.004534355 -0.0040050205 -0.00017078279 0.20902592 -0.0024291985 -0.018218905
-0.0077084578 -0.00043113413 -0.00865715 -0.007523857 0.27431068 -0.0056003197 0.0 -0.0039872536
-0.017565196 -0.0017629019 -0.0026207361 -0.0010322399 -0.0016557225 0.1367646 -0.00035931065 -0.0073909247
-0.0072007272 -0.0054147937 0.30214617 -0.0023997792 -0.010476518 -0.0018399423 -0.0119450465 0.0
-0.008331058 -0.010849463 -0.012377931 -0.0048616775 -0.00049420283 -0.0050341734 -0.009556718 -0.003025161
-0.010488473 -0.0012151612 0.30806264 0.20698434 0.37546426 -0.006280818 -0.0063237203 -0.000770913
-0.008123666 -0.0026107293 0.19066982 -0.008608393 -0.006785542 0.20137134 -0.008112297 -0.013646205
-0.0016281819 -0.009514412 -0.00022391195 -0.0031538217 -0.0066310675 -0.009382607 0.24879462 -0.0045538917
-0.0029302826 -0.0011235037 -0.012949289 -0.006036872 0.46929413 -0.0013918749 -0.0073276996 -0.006021736
-0.0075372104 -0.0076974635 -0.0062332246 -0.0008851513 -0.003108578 -0.0050480757 0.2980791 -0.0062337425
0.22390532 -0.0069153057 -0.00084672344 -0.011943998 -0.000508654 -0.0041304245 0.46645927 -0.0028103138
-0.00620203 -0.0017811476 -0.0066262274 0.16853254 -0.007037807 -0.008318346 -0.008505952 -0.0002912148
0.26061785 -0.00029161217 0.32597107 0.28557542 -0.0058719413 -0.00015541445 -0.0066381255 -0.0033913092
-0.014047567 -0.0016777082 0.21018328 -0.00043893373 -0.0123650655 -0.006926203 -0.009792193 -0.0011827761
-0.0010267873 -0.000114985975 0.0 -0.008602388 -0.00016421068 0.0 -0.0008143331 0.1950198
-0.0035393802 -0.010728771 -0.0022250763 -0.014182428 0.5377825 -0.0090419715 -0.013541885 0.159321
-0.0023504966 -0.0014390709 -0.013943724 -0.004759981 -0.004127924 -0.0054071685 -0.0018353323 -0.0013117855
0.30962044 -0.00010029622 -0.017161377 0.24692245 -0.006320651 -0.0006440927 0.35501245 -0.008193286
-0.006053753 -0.011058288 -0.010586061 -8.087413e-05 -0.016441789 0.24192312 -0.009374249 -0.011101291
-0.003225665 -0.005364685 -4.2057072e-05 -0.0005634348 -0.0008022371 0.4363366 -0.006630531 -0.0052609937
-0.0019642557 -0.009392582 -0.0051794974 -0.008084345 -0.0002806947 -0.011993475 -0.008064308 0.25564343
-0.0025283536 0.37407428 -0.009033667 -0.0028202706 -0.00013259379 -0.004988365 -0.008078056 -0.011828314
-0.006895387 -0.0010289658 -0.0011863841 -0.02088543 -0.0035331794 -0.0087486915 -0.0021105486 -0.0035680514
-0.002882395 -0.006547917 -0.0072702705 -0.010201789 -0.0052584046 -0.0009491333 -0.0023799678 -0.002587679
-0.016000506 0.14379194 -0.004572667 -0.0021888262 -0.013422104 -0.012697386 -0.0017270674 -0.001501096
-0.00287513 -0.01627487 -0.012317844 0.0 -0.005643769 -0.017487919 -0.00021219405 -0.016379667
-0.005811128 -0.010278735 -0.004931856 -0.0015205943 0.40240392 -0.00549238 -0.00039155968 -0.0037304356
-0.01920698 -0.00023924699 -0.00048152672 -0.0053645647 -0.0034840824 -0.005315938 -0.001170359 -0.007833446
00000000: 0702 b6bb 5ce4 98b9 c9b2 08bc ea67 8cbb
00000010: 05ed 423e 9082 d9ba 8d0f 65bc 6671 97ba
00000020: 789b 7fb9 1fe6 9e3e 8f9b dabb b487 58bb
00000030: 8562 73bc 84c5 16bc 8715 b23e 3ae4 1bbc
00000040: c073 2eb7 d0fe 07b9 b640 2b3e e49c 66ba
00000050: 295d 13bb 52a8 65bc e0c0 bdb8 1170 0dbc
00000060: fcba e1bb ec74 0abc c84f e7b9 5c66 9ebb
00000070: 1b37 ac3e 0c3e fdbb 7af8 12bb 9442 96bb
00000080: 528b 29bc a83d 0cbb ed94 94bb 8c3c 83bb
00000090: 2814 33b9 e40a 563e 3033 1fbb d03f 95bc
000000a0: 3b97 fcbb d809 e2b9 b8d6 0dbc b08a f6bb
000000b0: 7372 8c3e e382 b7bb 0000 0000 82a7 82bb
000000c0: e3e4 8fbc 2c11 e7ba a8c0 2bbb 394c 87ba
000000d0: d404 d9ba 050c 0c3e dc61 bcb9 922f f2bb
000000e0: 14f4 ebbb 956e b1bb e7b2 9a3e 9d45 1dbb
000000f0: b4a5 2bbc 382a f1ba 28b5 43bc 0000 0000
00000100: fd7e 08bc f2c1 31bc cecc 4abc b54e 9fbb
00000110: 648d 01ba b5f5 a4bb c893 1cbc c841 46bb
00000120: d8d7 2bbc 0b46 9fba 63ba 9d3e b4f3 533e
00000130: da3c c03e 52cf cdbb 3637 cfbb 1817 4aba
00000140: 2019 05bc c518 2bbb f33e 433e 380a 0dbc
00000150: 4059 debb 4a34 4e3e 71e9 04bc 5594 5fbc
00000160: b868 d5ba 56e2 1bbc e8c9 6ab9 59b0 4ebb
00000170: 6d49 d9bb 82b9 19bc 04c4 7e3e d038 95bb
00000180: fc09 40bb 8742 93ba 4129 54bc f4d0 c5bb
00000190: 5247 f03e 926f b6ba 331d f0bb fc51 c5bb
000001a0: b4fa f6bb 013b fcbb 1440 ccbb 8009 68ba
000001b0: 49b9 4bbb 546a a5bb d39d 983e 6c44 ccbb
000001c0: 7047 653e ca99 e2bb a6f6 5dba c2b0 43bc
000001d0: 3157 05ba 8358 87bb c0d3 ee3e 3e2d 38bb
000001e0: 663a cbbb 6575 e9ba d320 d9bb cb93 2c3e
000001f0: 679d e6bb ac49 08bc 8c5c 0bbc 30ae 98b9
00000200: b46f 853e 86e3 98b9 aee5 a63e f136 923e
00000210: 6a69 c0bb c0f6 22b9 a284 d9bb ba40 5ebb
00000220: c427 66bc 8ce6 dbba 493a 573e b020 e6b9
00000230: d896 4abc 34f5 e2bb 6f6f 20bc 6107 9bba
00000240: 4495 86ba a024 f1b8 0000 0000 08f1 0cbc
00000250: f82f 2cb9 0000 0000 f878 55ba 45b3 473e
00000260: f2f4 67bb bac7 2fbc 96d2 11bb 6a5d 68bc
00000270: 1dac 093f c724 14bc c8de 5dbc 0b25 233e
00000280: ca0a 1abb 359f bcba 3874 64bc 9df9 9bbb
00000290: 8943 87bb 9e2e b1bb 888f f0ba 38f0 abba
000002a0: 9286 9e3e 2056 d2b8 0496 8cbc 3dd9 7c3e
000002b0: 771d cfbb 54d8 28ba 31c4 b53e 223d 06bc
000002c0: 905e c6bb d22d 35bc 2871 2dbc f89a a9b8
000002d0: eeb0 86bc b2ba 773e 7396 19bc 30e2 35bc
000002e0: ae65 53bb 3dca afbb 7066 30b8 78b3 13ba
000002f0: 384d 52ba 8367 df3e ed44 d9bb 6a64 acbb
00000300: beba 00bb 58e3 19bc c6b8 a9bb 3374 04bc
00000310: 342a 93b9 4880 44bc 2920 04bc b2e3 823e
00000320: bcb2 25bb aa86 bf3e f201 14bc 4ad4 38bb
00000330: e008 0bb9 7075 a3bb d359 04bc 8bcb 41bc
00000340: b3f2 e1bb 5dde 86ba 7280 9bba ec17 abbc
00000350: ea8c 67bb ac56 0fbc 2151 0abb f8d5 69bb
00000360: 90e6 3cbb e98f d6bb 733b eebb 6825 27bc
00000370: b24e acbb 42cf 78ba 3cf9 1bbb 0d96 29bb
00000380: 7e13 83bc 323e 133e 50d6 95bb 6972 0fbb
00000390: 62e8 5bbc b208 50bc c45e e2ba 6cc0 c4ba
000003a0: ad6c 3cbb e052 85bc c8d0 49bc 0000 0000
000003b0: 5eef b8bb d342 8fbc 6880 5eb9 a72e 86bc
000003c0: 466b bebb 2468 28bc 689b a1bb ae4e c7ba
000003d0: e307 ce3e 6cf9 b3bb 404a cdb9 537a 74bb
000003e0: f557 9dbc 60de 7ab9 6c75 fcb9 3bc9 afbb
000003f0: 3455 64bb 5231 aebb bb66 99ba db57 00bc

base.critic_linear.weight f4 [1, 512]
-0.110669345 0.0074801133 0.06252911 -0.05622929 0.04401956 -0.024742011 -0.016305082 -0.023531685
-0.026474878 0.05769761 -0.013998203 0.014391908 0.0006972265 0.011454273 0.044355772 0.05546482
0.019093921 -0.059210364 0.079075016 -0.040164053 0.045221366 -0.02515456 0.024404008 -0.0019384321
0.0649669 -0.0027705876 0.0042995424 -0.009960651 0.053459004 0.008726109 -0.013284823 -0.03522257
0.05037315 -0.028083686 0.021638792 0.034916237 -0.04210743 0.06731938 -0.06267551 -0.05420513
0.022155924 -0.025055235 -0.086397626 0.028323026 0.03919889 0.052977644 -0.026235495 0.003570645
-0.025116308 0.05497439 -0.03361577 0.02046578 -0.029727085 0.026024114 0.021219702 -0.0032640111
0.11349241 0.0023017372 0.031133166 -0.010761791 -0.038860723 0.0058798897 -0.012579892 -0.032108236
0.006561897 -0.037757967 -0.0032903524 0.051235862 -0.041290086 0.036950152 0.0006732447 -0.09309177
-0.0158582 0.034806475 0.044665832 0.045457583 0.02990771 -0.031016724 0.01754159 -0.052480377
-0.0014362495 0.023259815 0.06356357 0.04298102 0.06778034 0.07589076 0.00048379417 0.012734832
0.09658774 -0.022938203 -0.06719134 0.028754644 0.01501378 0.003293385 0.04062225 0.025346912
-0.0033514402 0.01903553 0.0630095 0.00027353948 0.03257682 0.019949248 -0.061413992 0.0007435432
-0.028239844 0.0027647533 -0.012510579 0.00542208 0.03652479 -0.026992723 0.049747057 -0.04221077
0.038312305 -0.06678343 0.07829989 0.0016125082 -0.027540505 0.015597858 0.036345858 0.008196064
-0.008095509 -0.026410678 -0.035491616 0.04787994 -0.0006920758 -0.0033991693 0.08533793 -0.063810796
0.052076183 -0.051538497 0.05412513 0.056462213 0.015562997 -0.06433191 0.007436186 -0.0024440412
-0.007465476 -0.056169797 0.060148474 0.07763426 0.0012465119 0.074268125 -0.04056982 0.04082955
0.012060706 -0.045229383 -0.013185138 0.046874546 0.03031482 0.0024661263 0.01587383 0.064712405
0.057939623 -0.03543621 0.024818512 -0.015292149 0.035128955 0.00519032 0.0022914908 0.075236365
0.0065473095 -0.082988575 -0.053406965 -0.028137816 0.0030550787 0.04425026 0.042798758 0.058830593
0.042173367 0.027435798 -0.0068576364 0.032634065 -0.027758583 -0.06225365 0.030531356 0.032808505
8.997973e-06 0.06979644 0.015309708 -0.055478644 -0.0038983515 0.045629747 -0.022833982 0.0009319673
-0.070623554 0.009847461 -0.0079941405 0.018005729 -0.05533974 0.03144756 0.04778692 0.019495226
0.009196951 0.0031844594 -0.015919847 0.0810575 -0.022408968 -0.015803346 -0.031521454 0.051782195
0.06807244 0.04634868 -0.009149277 0.002720524 -0.056056157 -0.035048366 0.02580159 -0.019389458
-0.037071396 0.034502685 -0.015605109 -0.0045465687 0.027812758 -0.03949278 0.07203934 0.009239427
-0.013176277 0.040322635 -0.03839936 -0.030699303 0.023110492 0.0077018132 0.051000077 0.024095025
-0.050196216 0.04951134 0.0018010869 -0.004758356 0.029431596 0.0596403 0.0050751297 -0.013874737
-0.0064424165 0.0027421694 -0.068525 -0.054349218 0.0021726564 -0.058449052 -0.025058083 -0.016819952
-0.023608133 -3.2639946e-05 0.0648821 0.059808187 0.031266443 0.055795383 -0.006497727 -0.06666884
-0.0012980411 0.0525895 0.013265504 0.017220017 0.07561522 -0.013471229 0.02229116 -0.0010255366
00000000: 9ca6 e2bd bd1b f53b 430f 803d af50 66bd
00000010: db4d 343d c2af cabc 3c92 85bc 85c5 c0bc
00000020: d8e1 d8bc 5454 6c3d b858 65bc 0acc 6b3c
00000030: 14c6 363a b4aa 3b3c 66ae 353d 142f 633d
00000040: db6a 9c3c 9186 72bd 15f2 a13d 1083 24bd
00000050: 0a3a 393d f010 cebc eaea c73c fd12 feba
00000060: 5e0d 853d bf92 35bb 2de3 8c3b 0032 23bc
00000070: d4f7 5a3d f4f7 0e3c 96a8 59bc 8b45 10bd
00000080: 1354 4e3d c20f e6bc d643 b13c 5404 0f3d
00000090: d778 2cbd bede 893d 055c 80bd 3306 5ebd
000000a0: 5780 b53c a340 cdbc 3df1 b0bd b105 e83c
000000b0: 048f 203d 16ff 583d d2eb d6bc 7c01 6a3b
000000c0: b7c0 cdbc d32c 613d b1b0 09bd daa7 a73c
000000d0: 3786 f3bc 8630 d53c f1d4 ad3c 05e9 55bb
000000e0: b56e e83d bed8 163b fb0a ff3c 3952 30bc
000000f0: 6c2c 1fbd 17ac c03b e41b 4ebc ed83 03bd
00000100: 2f05 d73b 19a8 1abd f4a2 57bb b2dc 513d
00000110: cb1f 29bd 0b59 173d b07c 303a e6a6 bebd
00000120: 0ee9 81bc 3c91 0e3d 85f3 363d bb31 3a3d
00000130: 0401 f53c c916 febc 61b3 8f3c aaf5 56bd
00000140: 8940 bcba 5e8b be3c 9e2d 823d de0c 303d
00000150: 6bd0 8a3d 9d6c 9b3d c1a5 fd39 c2a5 503c
00000160: cbcf c53d e6e8 bbbc 9d9b 89bd dc8e eb3c
00000170: 5cfc 753c d5d5 573b 8463 263d 54a4 cf3c
00000180: d6a3 5bbb 66f0 9b3c 200b 813d d969 8f39
00000190: 466f 053d 9b6c a33c 3d8d 7bbd 57ea 423a
000001a0: 3f57 e7bc dd30 353b 2cf9 4cbc b4ab b13b
000001b0: 059b 153d d81f ddbc 92c3 4b3d 33e5 2cbd
000001c0: 5ded 1c3d c0c5 88bd b15b a03d cc5a d33a
000001d0: a09c e1bc 288e 7f3c 65df 143d c948 063c
000001e0: 07a3 04bc 355b d8bc a85f 11bd c21d 443d
000001f0: 6c6c 35ba 99c4 5ebb a7c5 ae3d 3caf 82bd
00000200: d64d 553d 081a 53bd 50b2 5d3d ec44 673d
00000210: f1fb 7e3c 73c0 83bd 40ab f33b 352c 20bb
00000220: f4a0 f4bb 4d12 66bd 3f5e 763d b6fe 9e3d
00000230: 0062 a33a e319 983d 8a2c 26bd e33c 273d
00000240: 449a 453c 7242 39bd 7a06 58bc 86ff 3f3d
00000250: c956 f83c bc9e 213b d609 823c f087 843d
00000260: 1952 6d3d 8f25 11bd 3150 cb3c ec8b 7abc
00000270: 61e3 0f3d 8f13 aa3b d62c 163b 8615 9a3d
00000280: d08a d63b eaf5 a9bd 43c1 5abd 4781 e6bc
00000290: b737 483b c33f 353d c04d 2f3d 59f8 703d
000002a0: fbbd 2c3d 0ac1 e03c 06b6 e0bb 4cab 053d
000002b0: f865 e3bc affd 7ebd e51c fa3c 3662 063d
000002c0: 00f6 1637 70f1 8e3d 92d5 7a3c 933d 63bd
000002d0: 7c7b 7fbb 42e6 3a3d 550e bbbc 444f 743a
000002e0: 15a3 90bd 3f57 213c dbf9 02bc c080 933c
000002f0: ecab 62bd 28cf 003d 38bc 433d 74b4 9f3c
00000300: cfae 163c 5db2 503b 576a 82bc 7901 a63d
00000310: 0393 b7bc 0576 81bc a41c 01bd 9119 543d
00000320: 9069 8b3d 1dd8 3d3d d9e6 15bc d24a 323b
00000330: 249b 65bd e08e 0fbd db5d d33c a4d6 9ebc
00000340: 2dd8 17bd b052 0d3d 92ac 7fbc 62fb 94bb
00000350: 95d7 e33c 2ec3 21bd 5d89 933d f760 173c
00000360: 50e1 57bc 5929 253d a648 1dbd 1b7d fbbc
00000370: 3752 bd3c 7e5f fc3b 75e5 503d ee62 c53c
00000380: 8c9a 4dbd 67cc 4a3d 7312 ec3a fceb 9bbb
00000390: 881a f13c 6349 743d 464d a63b dd52 63bc
000003a0: e81a d3bb f8b5 333b d656 8cbd 499d 5ebd
000003b0: 2063 0e3b 4668 6fbd 9c46 cdbc ffc9 89bc
000003c0: d865 c1bc e0e6 08b8 e8e0 843d 6ef9 743d
000003d0: 3e11 003d b389 643d e2ea d4bb ac89 88bd
000003e0: 0823 aaba 1668 573d 8e57 593c fe10 8d3c
000003f0: 27dc 9a3d 6eb6 5cbc f39b b63c 4c6b 86ba

dist.linear.weight f4 [4, 512]
-0.0022499203 -0.0028828005 -0.015857918 -5.4503296e-05 0.116368055 0.013396143 0.0042663985 0.012364021
-0.0069506844 0.09533727 -0.00057878613 0.008676192 -0.004986293 -0.0013391529 0.104482725 -0.00015314377
6.142967e-05 0.009435262 0.11696407 0.0051464867 -0.0016227078 -0.005835159 -0.004823993 0.004836896
-0.0007420525 -0.00084181654 -0.005177598 -0.0022771596 0.09833785 0.010543314 -0.0036943194 -0.0042159925
0.0034625712 0.010013555 0.011090077 -0.006857771 0.004716726 0.11629064 0.0053644236 -0.0024393802
0.011568955 0.013089692 0.008813616 -0.009259149 0.114717595 -0.0060354457 0.000103567116 -0.01039309
0.014865015 -0.0061949086 -0.009299874 -0.0038106444 0.004658295 0.10658749 -0.0044485047 -0.0091223335
-0.008214839 -0.00073156494 0.113232166 0.011198705 0.0037987905 0.004706319 -0.0033009925 7.821381e-05
0.001295215 0.007111093 0.014537182 0.0005904894 0.007665788 -1.9355735e-05 0.005026182 0.000632912
-0.0047320463 0.013813738 0.10058839 0.09934235 0.11598122 0.009424371 -0.0033497578 0.005819587
0.008808344 0.0021636083 0.098439686 0.0016100693 0.0043904106 0.10318841 0.0014134583 0.003541366
-0.008697794 0.005223605 0.0134515045 -0.0064424705 -1.7966511e-05 0.005252811 0.101633 0.004701224
0.005015978 -0.0055416054 0.00044562388 0.0009412112 0.10331024 0.0073959995 0.0046960735 -0.005314441
0.005429092 0.00012440112 -0.00028125563 -0.004374886 -0.008439392 0.009675474 0.0995387 -0.004649877
0.115194924 -0.0053906697 0.012217151 -0.00785942 0.013800358 0.00014506317 0.09576427 0.010182713
-0.0025541186 0.0007378721 0.00615951 0.099282034 -0.0054183085 -0.0031846608 0.01599268 0.012547245
0.114587225 0.009397445 0.102083884 0.10793657 -0.006020092 0.014107275 -0.0053852275 -0.0018586215
-0.002244606 0.016999472 0.11689171 0.010657525 0.004783118 0.011613375 -0.002451957 -0.00041462306
0.0026400457 -0.007289571 0.00045993002 0.012187396 0.003034398 -0.00032249227 -0.0018784241 0.10370693
0.001805447 -0.00043218728 0.0052835653 0.0037499224 0.104845606 -0.004375261 -0.0034215495 0.10446372
-0.008320464 0.018405618 -0.0046734274 -0.0022651255 0.010372138 -0.008931164 -0.004414812 0.00025095462
0.11124937 -0.0038178505 0.004752419 0.11783489 -0.002638693 0.00047184623 0.1138196 0.0059811147
-0.0070226043 0.0059536756 -0.0018873365 0.00577343 0.0022568922 0.10825794 0.0037319637 0.010203043
0.0012315983 -0.008152475 0.0016164605 -0.0015886342 0.0063292165 0.10281939 0.009132543 -0.0062736934
-0.0018523969 0.0058124904 -0.004050888 0.003060755 0.008724365 5.8454927e-05 0.004245065 0.09683687
-0.002806166 0.10535272 -0.0068009086 5.536288e-05 0.017527664 0.00035453905 0.006891096 0.0037553408
-0.0029570025 -0.004708752 0.011441913 0.011070618 -0.008503246 -0.006019528 0.005053824 0.007878346
-0.0011061793 0.0067638364 0.0030327006 0.0029580465 -0.006297863 0.005264219 -0.0048007956 0.00843807
0.0074387537 0.114081554 -0.0029496222 0.009127848 -0.0022992257 0.0064553306 -0.002277933 -0.00483907
0.00868902 -0.0034083885 0.0015923775 -0.00043883582 0.014282249 -0.0015296855 -0.0035524522 -0.004982532
-0.0016911118 -0.006865329 0.003414396 0.008897984 0.10892448 -0.0049738097 0.011966231 0.0036697458
-0.011856244 -0.0034561397 0.0004486157 0.0012695115 -0.0044475663 -0.0017795248 -0.0021264807 0.0056403335
00000000: 6673 13bb 5eed 3cbb 77e8 81bc 789a 64b8
00000010: 6052 ee3d 7f7b 5b3c 25cd 8b3b 7692 4a3c
00000020: 91c2 e3bb 3040 c33d aeb9 17ba 9626 0e3c
00000030: 0f64 a3bb 8486 afba 0afb d53d 3895 20b9
00000040: ced3 8038 5b96 1a3c dc8a ef3d dca3 a83b
00000050: 0ab1 d4ba dd34 bfbb 9612 9ebb d37e 9e3b
00000060: 4d86 42ba 5aad 5cba d7a8 a9bb 663c 15bb
00000070: 5b65 c93d ddbd 2c3c 651c 72bb 4f26 8abb
00000080: 4eec 623b e50f 243c 28b3 353c 27b7 e0bb
00000090: c48e 9a3b c929 ee3d 0cc8 af3b 02de 1fbb
000000a0: b78b 3d3c 2676 563c fc66 103c b0b3 17bc
000000b0: 0ff1 ea3d fdc4 c5bb 2c32 d938 c747 2abc
000000c0: 648c 733c a9fe cabb 805e 18bc 01bc 79bb
000000d0: 9ca4 983b 8b4a da3d c3c4 91bb d775 15bc
000000e0: 8897 06bc 7ec6 3fba 44e6 e73d c67a 373c
000000f0: 21f5 783b 7737 9a3b 7755 58bb b806 a438
00000100: 34c4 a93a 2c04 e93b 5c2d 6e3c 13cb 1a3a
00000110: 4a31 fb3b 205e a2b7 acb2 a43b 01ea 253a
00000120: 480f 9bbb 0453 623c 4901 ce3d 0174 cb3d
00000130: 9087 ed3d ad68 1a3c 9c87 5bbb 3cb2 be3b
00000140: df50 103c 53cb 0d3b bf9a c93d f608 d33a
00000150: 6fdd 8f3b 7254 d33d ca43 b93a 4316 683b
00000160: 3181 0ebc c62a ab3b b363 5c3c 5c1b d3bb
00000170: cab6 96b7 c61f ac3b f624 d03d ba0c 9a3b
00000180: 135d a43b 5b96 b5bb a0a2 e939 9dbb 763a
00000190: 5294 d33d 245a f23b 85e1 993b c324 aebb
000001a0: 86e6 b13b ac71 0239 7e75 93b9 345b 8fbb
000001b0: 6045 0abc e185 1e3c f2da cb3d ff5d 98bb
000001c0: 51eb eb3d 37a4 b0bb 722a 483c ccc4 00bc
000001d0: e61a 623c 191c 1839 0f20 c43d 65d5 263c
000001e0: 0063 27bb c26d 413a b7d5 c93b 6154 cb3d
000001f0: 118c b1bb beb5 50bb 1503 833c f692 4d3c
00000200: b5ac ea3d bef7 193c 5b11 d13d d90d dd3d
00000210: 3144 c5bb 3322 673c 9076 b0bb fd9c f3ba
00000220: 3d1a 13bb 7a42 8b3c ec64 ef3d e69c 2e3c
00000230: b4bb 9c3b 0646 3e3c 03b1 20bb c461 d9b9
00000240: 9e04 2d3b 5bdd eebb c322 f139 a5ad 473c
00000250: c0dc 463b 2e14 a9b9 7435 f6ba 4d64 d43d
00000260: c0a4 ec3a 3297 e2b9 c221 ad3b 42c1 753b
00000270: 4bb9 d63d 595e 8fbb 133c 60bb 13f1 d53d
00000280: 8e52 08bc 61c7 963c 8d23 99bb 8072 14bb
00000290: e6ef 293c 0454 12bc 21aa 90bb 8f92 8339
000002a0: b6d6 e33d e734 7abb 2eba 9b3b 6b53 f13d
000002b0: eced 2cbb 2162 f739 401a e93d 3afd c33b
000002c0: e01d e6bb 0d17 c33b 8160 f7ba 0b2f bd3b
000002d0: 5ee8 133b 57b6 dd3d f693 743b aa2a 273c
000002e0: 956d a13a f591 05bc 6adf d33a b839 d0ba
000002f0: 5165 cf3b f992 d23d a9a0 153c 8e93 cdbb
00000300: 20cc f2ba b476 be3b 50bd 84bb f396 483b
00000310: a4f0 0e3c 802d 7538 301a 8b3b 6952 c63d
00000320: a7e7 37bb 2bc3 d73d 28da debb 7135 6838
00000330: 2d96 8f3c 6de1 b939 b4ce e13b 2a1c 763b
00000340: 45ca 41bb e04b 9abb dd76 3b3c 8a61 353c
00000350: 3351 0bbc 763f c5bb 8c9a a53b 2e14 013c
00000360: 38fd 90ba 2ca3 dd3b 46c0 463b c9db 413b
00000370: 4e5e cebb 787f ac3b fe4f 9dbb d53f 0a3c
00000380: cac0 f33b 97a3 e93d 734e 41bb f88c 153c
00000390: 9bae 16bb 3d87 d33b 6049 15bb 1091 9ebb
000003a0: 645c 0e3c 455f 5fbb 53b7 d03a 8c13 e6b9
000003b0: 1800 6a3c ba7f c8ba 42d0 68bb 8244 a3bb
000003c0: 4ca8 ddba 8ef6 e0bb 0fc4 5f3b dac8 113c
000003d0: cc13 df3d 57fb a2bb 030e 443c 1e80 703b
000003e0: b140 42bc 6780 62bb 2e34 eb39 bd65 a63a
000003f0: e4bc 91bb f23e e9ba 6d5c 0bbb 8cd2 b83b

dist.linear.bias f4 [4]
0.10901381 0.12686594 0.11151468 0.115389474
00000000: a242 df3d 25e9 013e cf61 e43d 5151 ec3d
